assignments/pytorch_basics/session_5/lightning_logs/version_2/checkpoints/epoch=19-step=120.ckpt (torch, 13411 bytes, 12 tensors)

l1.weight f4 [64, 4]
0	0xbdc859f8	-0.09782785
1	0xbe8c99f4	-0.27461207
2	0xbdc6fa88	-0.09715754
3	0x3eed284a	0.463198
4	0xbd6de8e0	-0.058083415
5	0xbdd71848	-0.10502678
6	0xbdc32348	-0.09528214
7	0x3df0c700	0.11756706
8	0xbea2018a	-0.316418
9	0xbef889c0	-0.48542595
10	0xbdd07010	-0.10177624
11	0xbe49e748	-0.19717133
12	0x3effeb08	0.49984002
13	0xbe497767	-0.19674455
14	0xbe9e9700	-0.3097458
15	0x3eccd3a3	0.40005216
16	0x3ce8d000	0.028419495
17	0xbecbd58c	-0.3981136
18	0xbec8804c	-0.39160383
19	0x3dbdab70	0.09261215
20	0xbe813502	-0.25235754
21	0x3de12000	0.10992432
22	0x3ec83310	0.39101458
23	0xbee57306	-0.44814318
24	0x3e340d17	0.17583118
25	0x3e705941	0.23471548
26	0xbdec4799	-0.11537094
27	0x3bfc04c3	0.0076909973
28	0xbec2234c	-0.37917554
29	0x3e88d37c	0.2672385
30	0xbe74dc2c	-0.23912114
31	0x3e049024	0.1294561
32	0x3eb62c7e	0.3558082
33	0xbe24a48b	-0.16078393
34	0xbefb073c	-0.49028957
35	0xbe0ca8ae	-0.13736221
36	0x3df899e8	0.1213873
37	0xbe2b3ae8	-0.1672169
38	0xbea9f616	-0.3319556
39	0x3ef52ec6	0.47887248
40	0x3e800ec5	0.25011268
41	0xbe0ad769	-0.13558735
42	0xbee48a19	-0.4463661
43	0x3e6ae728	0.22939742
44	0xbe4ca320	-0.19984102
45	0xbe7eaf38	-0.24871528
46	0x3df300f8	0.11865419
47	0xbe999d4e	-0.30002826
48	0x3e3731d8	0.17890108
49	0xbe13967b	-0.14412872
50	0xbe78e21d	-0.24305005
51	0x3e071352	0.13190964
52	0xbd928b83	-0.07155516
53	0x3eda1f17	0.42601845
54	0x3e12c55f	0.14333104
55	0xbe754228	-0.23951018
56	0x3efe08f3	0.49616203
57	0x3e97b4f6	0.2963025
58	0xbf06066e	-0.5235356
59	0xbeef08e6	-0.46686476
60	0x3d0c9d6b	0.034329813
61	0x3ee08b1e	0.43856138
62	0xbeb22a51	-0.3479791
63	0xbebcc64b	-0.36870036
64	0xbebe0283	-0.3711129
65	0x3dc61de4	0.0967367
66	0x3eb86842	0.36017042
67	0x3f06959d	0.5257204
68	0xbdb50837	-0.088394575
69	0x3ebf3686	0.37346286
70	0xbd843c90	-0.06456864
71	0xbe9fe230	-0.31227255
72	0x3eb05bd0	0.34445047
73	0xbed93ca8	-0.4242909
74	0xbe92c796	-0.28667897
75	0xbef8e516	-0.4861228
76	0xbdd35a20	-0.10319924
77	0xbeeb4ca8	-0.45956922
78	0xbdcfd4f0	-0.101480365
79	0xbefe05fe	-0.49613947
80	0x3befec80	0.007321894
81	0xbea7fd26	-0.32810324
82	0x3d97ee38	0.074184835
83	0xbe35cfdc	-0.17755073
84	0xbec40211	-0.38282827
85	0x3ea49265	0.3214294
86	0x3ea7c972	0.32770878
87	0x3eee9a13	0.46601924
88	0x3e457311	0.19282176
89	0x3d35c207	0.044374492
90	0xbeb0580d	-0.34442177
91	0x3eaf9406	0.3429262
92	0xbeb8b6fc	-0.36077106
93	0xbec8adfa	-0.39195234
94	0x3e585d9c	0.21129459
95	0x3ef95896	0.48700398
96	0x3e1d915f	0.15387486
97	0x3ed78dce	0.42100376
98	0xbe5faf6b	-0.2184426
99	0xbe166fe9	-0.14691128
100	0xbdcdbb8f	-0.100455396
101	0x3f0b13cb	0.54327077
102	0x3d7b37bf	0.06133246
103	0x3ea05ebe	0.31322283
104	0xbe474d5c	-0.19463104
105	0x3eb14ca4	0.34628785
106	0x3e82a8ec	0.25519502
107	0x3ed0cf5d	0.40783206
108	0x3e4f1e85	0.20226486
109	0x3e55ca19	0.20877875
110	0xbe6e98fd	-0.23300548
111	0x3ececbba	0.40389806
112	0xbe6fd830	-0.23422313
113	0x3e48446c	0.19557351
114	0xbe8b4eee	-0.27208656
115	0x3d4c97e0	0.049949527
116	0x3e7f1efc	0.24914163
117	0xbe0ad372	-0.13557222
118	0x3ead05d7	0.33793518
119	0x3e11b2c2	0.14228347
120	0x3ecb4dbc	0.39707744
121	0xbeefbde7	-0.46824571
122	0xbeca427a	-0.39503843
123	0x3ef75292	0.48305184
124	0x3e8e1b30	0.27755117
125	0xbdeeec28	-0.11666137
126	0xbebd1dc0	-0.3693676
127	0x3e909b96	0.28243703
128	0x3e8e526d	0.2779726
129	0x3e957707	0.29192373
130	0x3eee5990	0.46552706
131	0x3eb435b9	0.35197237
132	0xbe83ef56	-0.25768536
133	0x3f0813a6	0.5315498
134	0xbdf3f480	-0.11911869
135	0x3de25e36	0.110531256
136	0x3e9be6e5	0.30449596
137	0xbe22e78d	-0.15908642
138	0xbea80673	-0.3281742
139	0xbe4d85f2	-0.20070627
140	0xbe19c0e8	-0.15014994
141	0x3dbf4897	0.09340017
142	0x3eebe19a	0.46070558
143	0x3ee365e1	0.44413665
144	0x3d3440ae	0.044006996
145	0x3e21d5af	0.1580417
146	0xbea04ab4	-0.31306994
147	0x3e992f29	0.29918793
148	0xbee631a4	-0.44959748
149	0x3e5abe7c	0.21361727
150	0xbeba0814	-0.36334288
151	0xbe9bb15c	-0.30408752
152	0xbd1ec66a	-0.03876344
153	0x3f00cfe2	0.50317204
154	0x3e803325	0.2503902
155	0xbe7cbcd7	-0.24681412
156	0x3e3eb1ec	0.1862256
157	0x3e63fac6	0.22263631
158	0x3c816417	0.015794797
159	0x3e9ed445	0.31021324
160	0xbed6ca44	-0.4195119
161	0xbdfaf018	-0.122528255
162	0x3ed9cd92	0.4253965
163	0xbd4846c0	-0.048895597
164	0xbe92ba82	-0.2865792
165	0xbeb7910a	-0.35852844
166	0x3ee2be68	0.44285893
167	0xbe965f1e	-0.29369444
168	0x3ee51a52	0.44746643
169	0x3e42fe93	0.19042425
170	0xbee9bc53	-0.45651492
171	0xbec97f9a	-0.39355165
172	0x3ddf00f1	0.108888514
173	0x3eb1596d	0.3463854
174	0x3ee64b52	0.4497934
175	0x3ec7b4c0	0.3900509
176	0xbe494045	-0.19653423
177	0x3d844405	0.06458286
178	0x3f01c286	0.50687444
179	0x3ef46523	0.4773341
180	0x3eec11e9	0.46107414
181	0xbd92cba8	-0.071677506
182	0x3e9a0df5	0.30088773
183	0x3f0b007f	0.5429763
184	0xbe7da08c	-0.24768275
185	0xbe723e94	-0.23656684
186	0x3eb55974	0.3541981
187	0x3d671e90	0.05642563
188	0x3e17663c	0.14785093
189	0xbde3acf7	-0.11116975
190	0x3ea6c22b	0.32570013
191	0x3dfe390f	0.12413227
192	0x3e2e97b3	0.17050056
193	0x3cb91b95	0.02259616
194	0xbdb4d331	-0.08829344
195	0x3f123b19	0.57121426
196	0x3d4c5b9e	0.04989206
197	0xbe58e1e9	-0.21179928
198	0x3e464c9e	0.19365165
199	0xbee4bf7f	-0.4467735
200	0xbec92cdc	-0.39292037
201	0x3ea60245	0.32423607
202	0x3ea9dae3	0.3317481
203	0x3e76d845	0.24105938
204	0xbec7da96	-0.39033955
205	0x3de3ddd8	0.11126298
206	0xbc8c3ca0	-0.017118752
207	0xbe4c4f9c	-0.19952244
208	0xbee33b64	-0.4438125
209	0xbeb09eca	-0.34496146
210	0xbeee1a6e	-0.4650454
211	0x3e8907e4	0.26763833
212	0x3e6200f1	0.22070672
213	0xbecfb25e	-0.4056577
214	0x3ea4403d	0.3208026
215	0x3e6c51f5	0.23078139
216	0xbe4e7a4d	-0.20163842
217	0x3d9fa8ca	0.07795866
218	0x3ee87ace	0.45406193
219	0x3e98586f	0.2975497
220	0xbdff35c0	-0.12461424
221	0xbe2f0b24	-0.17094094
222	0x3cc88ea0	0.024482071
223	0x3e143838	0.14474571
224	0x3eb4d76f	0.35320613
225	0x3ef60a27	0.4805462
226	0xbf0c549b	-0.548166
227	0x3e9fc510	0.31205034
228	0xbe33ba00	-0.17551422
229	0xbe8aad9c	-0.27085578
230	0x3e82babe	0.25533098
231	0xbd7d9850	-0.061912835
232	0x3eb4dc8d	0.35324517
233	0x3d8d88d6	0.06910865
234	0xbe1e1c4a	-0.15440479
235	0x3e9279fb	0.2860869
236	0xbdd540f0	-0.104127765
237	0xbe9d553c	-0.3072909
238	0x3dd26268	0.10272676
239	0xbefd13b2	-0.4942909
240	0xbe96e3dc	-0.29470718
241	0x3d42fb10	0.047602713
242	0x3c941ee0	0.018081129
243	0x3ef4ab80	0.47787094
244	0xbe2e3a48	-0.1701442
245	0x3d15b610	0.03655058
246	0xbe06bf4c	-0.13158911
247	0x3efe1fba	0.4963358
248	0xbb1dd52e	-0.0024083364
249	0x3f000c61	0.5001889
250	0x3ec93cfd	0.39304343
251	0xbee6404a	-0.44970924
252	0x3d84dcaf	0.064874046
253	0x3e991ec4	0.29906285
254	0x3ec29841	0.38006786
255	0xbef63981	-0.48090747

l1.bias f4 [64]
0	0xbdd93ce0	-0.10607314
1	0xbe5509bc	-0.20804495
2	0xbe109344	-0.14118677
3	0x3ed85304	0.42250836
4	0x3ebeee0a	0.37290984
5	0xbea3dcde	-0.32004446
6	0xbc4b13bd	-0.012394843
7	0xbe90e172	-0.28297
8	0x3eea4c77	0.45761463
9	0x3df2d3a0	0.118567705
10	0x3edaa3b4	0.4270302
11	0xbefa8c72	-0.48935276
12	0xbe4e80e2	-0.20166352
13	0x3d84b447	0.06479698
14	0xbe08863a	-0.13332453
15	0x3f104d04	0.56367517
16	0x3e3fe8ef	0.18741201
17	0x3ec7aa02	0.38996893
18	0xbecb9daa	-0.39768726
19	0xbe47d294	-0.19513923
20	0x3e3b2e1c	0.18279308
21	0x3e94ced8	0.2906406
22	0xbe3e7187	-0.18597995
23	0xbea96eb6	-0.33092278
24	0xbe24af52	-0.16082504
25	0xbeb91abb	-0.36153206
26	0xbeac1936	-0.33612984
27	0x3ec2b778	0.380306
28	0x3d3c1830	0.045921504
29	0x3f01c39d	0.5068911
30	0x3eded81b	0.4352425
31	0x3e3610bb	0.1777982
32	0x3cb160a0	0.02165252
33	0x3eead27f	0.4586372
34	0x3e3bb9a8	0.18332541
35	0xbea98e9a	-0.3311661
36	0x3eb734a4	0.3578235
37	0x3caed160	0.021340072
38	0xbe2c7608	-0.168419
39	0x3e9d6d08	0.30747247
40	0x3e95b9b0	0.2924323
41	0x3e479cc4	0.19493395
42	0xbe0143b8	-0.12623489
43	0x3d94366d	0.072369434
44	0xbe6d3f2b	-0.23168628
45	0x3ea1c278	0.3159368
46	0xbea70eba	-0.32628423
47	0x3ea29818	0.31756663
48	0x3ecde988	0.40217233
49	0xbe8c00d4	-0.27344382
50	0x3d048440	0.032352686
51	0xbe1540bc	-0.14575475
52	0x3ee664a2	0.44998652
53	0xbe0caa42	-0.13736823
54	0x3de4bd82	0.11168958
55	0x3ef536f6	0.47893494
56	0xbdeba967	-0.1150692
57	0xbec57026	-0.38562125
58	0xbd7fd7e8	-0.062461764
59	0x3e7b578c	0.24545115
60	0xbeaf4ad4	-0.34236777
61	0xbeaa9f64	-0.3332473
62	0x3e9d3f04	0.3071214
63	0xbe9a823a	-0.3017748

l2.weight f4 [3, 64]
0	0xbdabab26	-0.08382253
1	0x3db7df1c	0.089781016
2	0xbdf5feb2	-0.1201147
3	0xba8603a8	-0.0010224478
4	0x3d9ab698	0.07554358
5	0x3d902492	0.07038225
6	0xbd8ef954	-0.06981149
7	0xbdb64e52	-0.08901657
8	0x3deb164e	0.11478864
9	0xbd84648c	-0.0646449
10	0x3e335a65	0.17514952
11	0x3b290a40	0.0025793463
12	0xb95c7ee9	-0.00021028113
13	0x3ccdcc7d	0.025121922
14	0x3e25f86b	0.16208045
15	0x3e51fcf6	0.20506653
16	0xbe40a81c	-0.18814129
17	0x3e23160f	0.15926383
18	0xbd8a7dc0	-0.06762266
19	0xbdf58052	-0.11987366
20	0xbd320228	-0.043459088
21	0xbdbe8226	-0.093021676
22	0x3e3fa208	0.18714154
23	0x3d87d78c	0.06632909
24	0x3c16f455	0.009213527
25	0x3def79e2	0.11693169
26	0xbd359d7a	-0.044339634
27	0x3d641e0e	0.055692725
28	0xbd8d018e	-0.06885062
29	0xbcf50b9f	-0.029912768
30	0x3d2541dd	0.040346015
31	0x3da89abb	0.082326375
32	0xbd8792de	-0.066198096
33	0x3ddf8bb2	0.10915317
34	0x3e098cce	0.13432619
35	0xbe394a5a	-0.18094769
36	0x3e3ba934	0.18326265
37	0x3d95ad5e	0.07308458
38	0x3c97cde3	0.018530792
39	0xbdcf9c86	-0.10137276
40	0x3c9c3920	0.019070208
41	0xbd94a050	-0.0725714
42	0x3d81e500	0.063425064
43	0xbdfe1465	-0.12406234
44	0xbd9116a5	-0.07084397
45	0xbda921ef	-0.082584254
46	0xbdf281d6	-0.118411705
47	0xbda90885	-0.08253578
48	0xbde92d3e	-0.113855824
49	0x3cb48e4b	0.022040507
50	0xbb8f9c89	-0.004382674
51	0xbddfb2f6	-0.10922806
52	0x3cd56d10	0.026052982
53	0xbd6e9e6a	-0.058256544
54	0xbe461617	-0.19344364
55	0xbdc9d7ac	-0.09855589
56	0x3e416257	0.1888517
57	0x3d8b48be	0.06800984
58	0xbd8c7883	-0.06858923
59	0xbddd1126	-0.107942864
60	0x3dc12dc2	0.09432556
61	0xbd7250e4	-0.059159175
62	0xbcc377c8	-0.023860827
63	0x3d028df8	0.031873673
64	0x3dd12824	0.10212734
65	0x3da7f75c	0.08201477
66	0x3d9e5c0a	0.07732399
67	0xbd90060a	-0.07032402
68	0x3c90da10	0.017682105
69	0x3d81ff10	0.063474774
70	0xbd7a70df	-0.0611428
71	0x3db91a10	0.09038174
72	0xbe5d3968	-0.2160393
73	0xbda24f84	-0.07925323
74	0xbe0a19e1	-0.13486435
75	0x3c9d9078	0.019233927
76	0x3da57479	0.08078856
77	0x3cc9eb0c	0.024648212
78	0x3b02f498	0.0019982215
79	0xbd59f847	-0.05321529
80	0xbe05f758	-0.13082635
81	0xbd53e8b6	-0.051735602
82	0xbdcc2e22	-0.09969737
83	0xbdaca912	-0.08430685
84	0xbdcba99a	-0.09944458
85	0xbce36d0d	-0.02776196
86	0xbe4b5879	-0.19857968
87	0x3d823ce8	0.06359273
88	0xbe08564b	-0.13314168
89	0xbd9de03a	-0.077087834
90	0x3cf8758a	0.030329484
91	0xbda191f7	-0.07889169
92	0x3d9968ba	0.07490678
93	0x3d896884	0.06709388
94	0xbd8db34b	-0.06918963
95	0x3d83496b	0.06410488
96	0x3c4c02f9	0.012451881
97	0xbe1797ed	-0.14804049
98	0xbe3e8795	-0.18606408
99	0x3ce5c3d4	0.02804748
100	0xbdc607e6	-0.09669475
101	0xbdad5996	-0.08464353
102	0xbdc0ea94	-0.09419742
103	0x3bc59e00	0.006030798
104	0xbd9cd2de	-0.07657407
105	0xbc6f41b0	-0.014603063
106	0xbdaeca38	-0.08534664
107	0xb99246c3	-0.00027900012
108	0xbcf19f27	-0.029494835
109	0xbd1f0ed6	-0.038832508
110	0x3dc71fca	0.0972286
111	0xbdff8c4c	-0.124779314
112	0xbd854949	-0.06508119
113	0x3da3aa94	0.079915196
114	0xbd9ac696	-0.075574085
115	0xbdfb7518	-0.12278193
116	0x3dc96db0	0.09835374
117	0x3db889f5	0.09010688
118	0x3d7ee388	0.06222871
119	0xbdc2ec68	-0.09517747
120	0x3d852292	0.065007344
121	0x3d9daae8	0.076986134
122	0x3d6eee9c	0.058333024
123	0x3d3be968	0.04587689
124	0xbd636910	-0.055520117
125	0x3da407e4	0.080093175
126	0xbdb8ca20	-0.09022927
127	0x3dbe3f7f	0.09289455
128	0x3dba1bda	0.090873435
129	0xbd85474a	-0.06507738
130	0xbdebe15a	-0.11517592
131	0xbd7a706e	-0.061142378
132	0xbdfafb9c	-0.12255022
133	0x3df048fa	0.11732669
134	0xbd9f5a1e	-0.0778086
135	0x3bb89b20	0.0056337267
136	0xbd79e8ba	-0.06101296
137	0x3bd0f000	0.0063762665
138	0xbd54a578	-0.051915616
139	0x3d746284	0.059664264
140	0x3d0b5a55	0.034021694
141	0xbd9b4215	-0.075809635
142	0xbd72e4bb	-0.059300166
143	0xbcb761dd	-0.022385532
144	0xbb112946	-0.0022149845
145	0xbd9be0e0	-0.07611251
146	0xbd4f2f80	-0.05058241
147	0xbdd2c260	-0.1029098
148	0xbde87994	-0.11351314
149	0x3e1e46e6	0.15456733
150	0xbe59b9cd	-0.21262284
151	0xbde29a14	-0.11064544
152	0xbd90c5ae	-0.070689544
153	0xbd319d59	-0.04336295
154	0x3dfefdfb	0.12450787
155	0x3dcb23a0	0.09918904
156	0xbd8a58de	-0.06755231
157	0xbdb9c8d9	-0.09071512
158	0x3cdf9e69	0.027297216
159	0xbda7d4b9	-0.081948705
160	0xbd02ea9a	-0.031962015
161	0xbdffc375	-0.12488452
162	0xbd81a3a1	-0.06330038
163	0xbd3d7e78	-0.046263188
164	0xbdbef46d	-0.09323964
165	0x3dd6eb5e	0.104941115
166	0xbd964010	-0.07336438
167	0x3c47b1fd	0.012188432
168	0x3d673798	0.056449503
169	0xbcafa3d8	-0.021440431
170	0xbe11649c	-0.14198536
171	0xbd07181e	-0.032981984
172	0x3e3ab2a3	0.18232207
173	0x3bfa581a	0.007639897
174	0xbd8db32c	-0.0691894
175	0xbd7cf720	-0.061759114
176	0x3bdf52aa	0.0068152742
177	0x3d6bf87e	0.057610027
178	0x3e3f670d	0.18691655
179	0x3d5fa83c	0.0546038
180	0x3cea2238	0.02858077
181	0x3e04446f	0.1291673
182	0x3d855650	0.065106034
183	0x3df4b724	0.11948994
184	0xbde4d329	-0.11173088
185	0xbd1b1e34	-0.0378706
186	0xbc924810	-0.017856628
187	0xbd9e682a	-0.077347115
188	0xbdcdf8f4	-0.1005725
189	0xbd89fae8	-0.0673731
190	0xbd2fa93f	-0.042886015
191	0x3d49b3ad	0.049243618

l2.bias f4 [3]
0	0xbc564d40	-0.013079941
1	0x3c059755	0.008153756
2	0xbda83450	-0.08213103

exp_avg f4 [64, 4]
0	0x00000000	0.0
1	0x00000000	0.0
2	0x00000000	0.0
3	0x00000000	0.0
4	0x00000000	0.0
5	0x00000000	0.0
6	0x00000000	0.0
7	0x00000000	0.0
8	0x00000000	0.0
9	0x00000000	0.0
10	0x00000000	0.0
11	0x00000000	0.0
12	0x3b09c694	0.0021022903
13	0xbb06c173	-0.0020562082
14	0x3bd92800	0.006627083
15	0x3b1ba4a8	0.0023749266
16	0x00000000	0.0
17	0x00000000	0.0
18	0x00000000	0.0
19	0x00000000	0.0
20	0x00000000	0.0
21	0x00000000	0.0
22	0x00000000	0.0
23	0x00000000	0.0
24	0xba5c5c36	-0.00084060745
25	0xb9a99d62	-0.0003235145
26	0x38c85231	9.5520525e-05
27	0x39fcee6e	0.0004824283
28	0x00000000	0.0
29	0x00000000	0.0
30	0x00000000	0.0
31	0x00000000	0.0
32	0xbbb73e11	-0.0055921157
33	0xbc75b97e	-0.014997838
34	0x3c80cfb6	0.015724044
35	0x3be9e3bb	0.0071377433
36	0x00000000	0.0
37	0x00000000	0.0
38	0x00000000	0.0
39	0x00000000	0.0
40	0xbaddd02a	-0.0016923
41	0xbc69976c	-0.014257293
42	0x3c9f08a5	0.019413302
43	0x3c082fe0	0.008312196
44	0x00000000	0.0
45	0x00000000	0.0
46	0x00000000	0.0
47	0x00000000	0.0
48	0x3684d6c1	3.958907e-06
49	0x361f311e	2.3721436e-06
50	0x35916e66	1.0835472e-06
51	0x34658614	2.1376064e-07
52	0xbbc998fd	-0.006152271
53	0xbbca3420	-0.0061707646
54	0x3c0fd025	0.008777653
55	0x3bea8f90	0.0071582273
56	0xbc215fb6	-0.009849479
57	0xbc6a2475	-0.014290919
58	0x3c617b05	0.01376224
59	0x3c01c0ac	0.007919472
60	0xbc049f86	-0.008094674
61	0xbc733cec	-0.014846068
62	0x3c645ac1	0.013937653
63	0x3bd22083	0.006412567
64	0xbc943a12	-0.018094096
65	0xbbdf029c	-0.006805731
66	0xbcbea087	-0.023269905
67	0xbc42068b	-0.01184238
68	0xbca88ce0	-0.020574987
69	0xbc9ee7c3	-0.019397622
70	0x3b8c9ac8	0.0042909123
71	0x3b5f7348	0.0034095813
72	0x00000000	0.0
73	0x00000000	0.0
74	0x00000000	0.0
75	0x00000000	0.0
76	0x00000000	0.0
77	0x00000000	0.0
78	0x00000000	0.0
79	0x00000000	0.0
80	0x00000000	0.0
81	0x00000000	0.0
82	0x00000000	0.0
83	0x00000000	0.0
84	0x3b3e48eb	0.0029035162
85	0x3c1c28aa	0.009531179
86	0xbccd0082	-0.025024656
87	0xbc855981	-0.01627803
88	0xbc863913	-0.016384637
89	0xbcd30d2b	-0.025763115
90	0x3cbe4aab	0.023228964
91	0x3c4a049e	0.012330202
92	0x00000000	0.0
93	0x00000000	0.0
94	0x00000000	0.0
95	0x00000000	0.0
96	0x3be9c8f3	0.0071345507
97	0xba9ca325	-0.0011950476
98	0x3c16b1ee	0.009197695
99	0x3abce504	0.0014411514
100	0x3bb782ce	0.00560031
101	0xbbbd1526	-0.0057703434
102	0x3c9557fd	0.018230433
103	0x3bd61aad	0.0065339417
104	0x3b8eb8ec	0.0043555405
105	0x3c0d956e	0.008641584
106	0xbc8333f9	-0.016015993
107	0xbc22e268	-0.009941675
108	0x3c67f420	0.014157325
109	0x3bce1523	0.006289141
110	0xbae7df30	-0.0017690416
111	0xbbeb1fef	-0.0071754376
112	0x00000000	0.0
113	0x00000000	0.0
114	0x00000000	0.0
115	0x00000000	0.0
116	0xbc41d74a	-0.011831114
117	0xbbd17e70	-0.0063932464
118	0x3b86fcf7	0.004119511
119	0x3bf046d4	0.007332662
120	0x3c0e08ff	0.008669137
121	0x3b01f2bc	0.001982852
122	0x3b500ad8	0.0031744745
123	0xbb14ebd1	-0.0022723565
124	0xbc10faee	-0.008848889
125	0xbc1d8a45	-0.009615486
126	0x3c5e0cca	0.013552854
127	0x3c2d61e3	0.01058242
128	0xbb8aa3ea	-0.004230966
129	0x396c6677	0.00022544885
130	0xbb8c6fa2	-0.0042857686
131	0xb974c3ba	-0.00023342567
132	0xbbe65896	-0.0070296032
133	0xbc6093e4	-0.013707135
134	0x3c7d8524	0.015473638
135	0x3be42d43	0.0069634034
136	0xbbb03efc	-0.005378602
137	0xbc7efdb4	-0.015563417
138	0x3c86220b	0.016373655
139	0x3bf0f15f	0.0073529924
140	0xbcf606e4	-0.030032583
141	0xbc311c0f	-0.010809912
142	0xbcae7092	-0.021293912
143	0xbb941676	-0.004519279
144	0xbb45e5bb	-0.0030196744
145	0xbc6a9c84	-0.014319543
146	0x3cb7488a	0.022373457
147	0x3c243f03	0.010024789
148	0x00000000	0.0
149	0x00000000	0.0
150	0x00000000	0.0
151	0x00000000	0.0
152	0x3b681ecc	0.0035418747
153	0xbb4bc14b	-0.0031090553
154	0x3c291d84	0.0103219785
155	0x3b691c7e	0.0035569961
156	0xbab48b6d	-0.0013774462
157	0x3ba06d88	0.0048958696
158	0xbc4b2249	-0.012398311
159	0xbbb45caa	-0.0055042105
160	0x00000000	0.0
161	0x00000000	0.0
162	0x00000000	0.0
163	0x00000000	0.0
164	0x00000000	0.0
165	0x00000000	0.0
166	0x00000000	0.0
167	0x00000000	0.0
168	0xbcb9819c	-0.02264481
169	0xbc9c6ec9	-0.019095795
170	0x3a244573	0.0006266452
171	0x3b39c09b	0.0028343562
172	0xbb8dacb1	-0.004323565
173	0x3b3746d7	0.0027965808
174	0xbc282d1c	-0.010264661
175	0xbb4f071f	-0.0031589938
176	0xbc2fb7ea	-0.010725001
177	0xba43b898	-0.0007466166
178	0xbcf36920	-0.029713213
179	0xbc9421b3	-0.018082475
180	0x3b1432c7	0.0022613273
181	0x3b989dac	0.004657468
182	0xbc0e603f	-0.008689939
183	0xbbae8f90	-0.0053271726
184	0x00000000	0.0
185	0x00000000	0.0
186	0x00000000	0.0
187	0x00000000	0.0
188	0x3b9ee6cc	0.0048492905
189	0x3b0bbb54	0.0021321373
190	0xba259b5a	-0.00063173997
191	0xbb241272	-0.0025035408
192	0x3b79cbb4	0.0038115801
193	0x3bd85e14	0.006603012
194	0xbc405627	-0.01173929
195	0xbbf66e26	-0.007520455
196	0x3234e3c2	1.0529165e-08
197	0x31894dce	3.99607e-09
198	0x321cca0c	9.126335e-09
199	0x31376fb6	2.6693505e-09
200	0x3c0744cc	0.008256149
201	0x3bebee73	0.007200056
202	0xbc9196aa	-0.017772038
203	0xbc80c173	-0.015717244
204	0x00000000	0.0
205	0x00000000	0.0
206	0x00000000	0.0
207	0x00000000	0.0
208	0x00000000	0.0
209	0x00000000	0.0
210	0x00000000	0.0
211	0x00000000	0.0
212	0xbbb88bf4	-0.005631918
213	0x3b854408	0.004066948
214	0xbca587fb	-0.020206442
215	0xbc1a8572	-0.00943123
216	0xbc08e986	-0.008356458
217	0x3bf887a9	0.0075845313
218	0xbce70be7	-0.028203918
219	0xbc3e99ee	-0.011633379
220	0x00000000	0.0
221	0x00000000	0.0
222	0x00000000	0.0
223	0x00000000	0.0
224	0xbc0e25c4	-0.008675996
225	0xbc829d25	-0.015944073
226	0x3ced592b	0.028973183
227	0x3c961a2b	0.018323025
228	0x00000000	0.0
229	0x00000000	0.0
230	0x00000000	0.0
231	0x00000000	0.0
232	0xbbe4acd2	-0.0069786096
233	0x39e90dd2	0.0004445152
234	0xbbea5310	-0.007151015
235	0xb9c9ba1f	-0.00038476379
236	0x00000000	0.0
237	0x00000000	0.0
238	0x00000000	0.0
239	0x00000000	0.0
240	0x00000000	0.0
241	0x00000000	0.0
242	0x00000000	0.0
243	0x00000000	0.0
244	0x00000000	0.0
245	0x00000000	0.0
246	0x00000000	0.0
247	0x00000000	0.0
248	0x3b935d65	0.0044972175
249	0x3a0b6023	0.00053167547
250	0x3b391754	0.0028242664
251	0xba18c6bc	-0.00058279536
252	0xbb735391	-0.0037128667
253	0xb97bebe6	-0.00024025104
254	0xbb31ef81	-0.0027150812
255	0x39b13893	0.00033802222

exp_avg_sq f4 [64, 4]
0	0x00000000	0.0
1	0x00000000	0.0
2	0x00000000	0.0
3	0x00000000	0.0
4	0x00000000	0.0
5	0x00000000	0.0
6	0x00000000	0.0
7	0x00000000	0.0
8	0x00000000	0.0
9	0x00000000	0.0
10	0x00000000	0.0
11	0x00000000	0.0
12	0x3886078d	6.391024e-05
13	0x37dfc08d	2.6673335e-05
14	0x3827d1b9	4.0011222e-05
15	0x36a8f6d1	5.0355234e-06
16	0x00000000	0.0
17	0x00000000	0.0
18	0x00000000	0.0
19	0x00000000	0.0
20	0x00000000	0.0
21	0x00000000	0.0
22	0x00000000	0.0
23	0x00000000	0.0
24	0x384ea0eb	4.9264094e-05
25	0x37ea0c5f	2.7900734e-05
26	0x384ce269	4.884825e-05
27	0x3720e653	9.59037e-06
28	0x00000000	0.0
29	0x00000000	0.0
30	0x00000000	0.0
31	0x00000000	0.0
32	0x39f54096	0.00046778162
33	0x3956e1b8	0.00020492717
34	0x38e9b2bf	0.000111436
35	0x374087f8	1.14757495e-05
36	0x00000000	0.0
37	0x00000000	0.0
38	0x00000000	0.0
39	0x00000000	0.0
40	0x398dd073	0.00027048922
41	0x38f0d2d8	0.000114833645
42	0x38cc50ab	9.7425036e-05
43	0x3740f285	1.1500558e-05
44	0x00000000	0.0
45	0x00000000	0.0
46	0x00000000	0.0
47	0x00000000	0.0
48	0x39128641	0.00013973658
49	0x388d51db	6.738651e-05
50	0x373462b9	1.0751822e-05
51	0x34c4107b	3.6519836e-07
52	0x39d208a4	0.0004006076
53	0x38c662ae	9.459756e-05
54	0x3988f807	0.00026124736
55	0x38216525	3.847959e-05
56	0x394ee49b	0.00019730853
57	0x38e764e8	0.000110337336
58	0x390308bc	0.00012496387
59	0x37b04ab9	2.101563e-05
60	0x3a098aa5	0.0005246795
61	0x39872f24	0.0002578433
62	0x38a24b9a	7.738844e-05
63	0x36ee3163	7.098702e-06
64	0x39028a1b	0.00012449214
65	0x37d81522	2.5759047e-05
66	0x38c08fa3	9.182028e-05
67	0x376e1e89	1.4193015e-05
68	0x39394cf0	0.00017671636
69	0x38c8c74f	9.573867e-05
70	0x37f76476	2.9491475e-05
71	0x366f07be	3.5618282e-06
72	0x00000000	0.0
73	0x00000000	0.0
74	0x00000000	0.0
75	0x00000000	0.0
76	0x00000000	0.0
77	0x00000000	0.0
78	0x00000000	0.0
79	0x00000000	0.0
80	0x00000000	0.0
81	0x00000000	0.0
82	0x00000000	0.0
83	0x00000000	0.0
84	0x3a61a67e	0.0008607878
85	0x39672061	0.00022041939
86	0x3a3589e1	0.00069251476
87	0x38f4ed91	0.00011679077
88	0x3a8635c7	0.0010239416
89	0x3a1e0896	0.0006028501
90	0x396249fe	0.00021580604
91	0x38354ca1	4.322513e-05
92	0x00000000	0.0
93	0x00000000	0.0
94	0x00000000	0.0
95	0x00000000	0.0
96	0x3a4c799e	0.0007800105
97	0x393168cb	0.00016919074
98	0x3a020d37	0.00049610756
99	0x3884503f	6.3091975e-05
100	0x39d38ba7	0.00040349105
101	0x39773dc7	0.0002357877
102	0x39b12ebb	0.00033794888
103	0x386f5833	5.7064182e-05
104	0x392c602e	0.00016439028
105	0x387af241	5.983026e-05
106	0x391664be	0.00014342644
107	0x37e69586	2.7487764e-05
108	0x3b0020a8	0.0019550715
109	0x39dec530	0.00042490056
110	0x3aa24c2c	0.001238232
111	0x392f33b1	0.00016708557
112	0x00000000	0.0
113	0x00000000	0.0
114	0x00000000	0.0
115	0x00000000	0.0
116	0x3abb15f8	0.0014273515
117	0x399fd577	0.00030485887
118	0x3a877500	0.0010334551
119	0x391e62d9	0.00015104878
120	0x3a8529b1	0.001015952
121	0x3980b137	0.00024546098
122	0x3a0b6d23	0.0005318692
123	0x3881f52f	6.196868e-05
124	0x397581eb	0.00023413419
125	0x388f1b9e	6.8239155e-05
126	0x38ec4601	0.00011266396
127	0x37953f55	1.7791675e-05
128	0x395ed5a9	0.00021251164
129	0x385c638d	5.25448e-05
130	0x38f5e97f	0.000117260024
131	0x37704c00	1.432281e-05
132	0x395a0ac5	0.00020794112
133	0x38e33612	0.00010834275
134	0x384f40f9	4.9413156e-05
135	0x36d6c25e	6.4003243e-06
136	0x39f840a0	0.00047350395
137	0x395004a2	0.00019838152
138	0x391c6102	0.00014913458
139	0x378a7647	1.650596e-05
140	0x3a8f46d4	0.0010931143
141	0x3973080b	0.00023177282
142	0x3a1eabc3	0.0006052816
143	0x388d972c	6.751562e-05
144	0x3a1ccc38	0.00059813587
145	0x399f79d0	0.000304176
146	0x39b7fb46	0.00035091693
147	0x38578eb6	5.1392904e-05
148	0x00000000	0.0
149	0x00000000	0.0
150	0x00000000	0.0
151	0x00000000	0.0
152	0x3911b54f	0.0001389582
153	0x388c5fb8	6.693549e-05
154	0x38c33a74	9.309212e-05
155	0x375c2b89	1.3123158e-05
156	0x3954dcdd	0.00020300173
157	0x39076492	0.00012912069
158	0x3923791e	0.00015590011
159	0x37fb45fa	2.9954117e-05
160	0x00000000	0.0
161	0x00000000	0.0
162	0x00000000	0.0
163	0x00000000	0.0
164	0x00000000	0.0
165	0x00000000	0.0
166	0x00000000	0.0
167	0x00000000	0.0
168	0x392bca3b	0.00016383168
169	0x38c1390f	9.213585e-05
170	0x376f0696	1.42470435e-05
171	0x35da9caf	1.6287867e-06
172	0x39896c45	0.00026211343
173	0x38c59d36	9.422975e-05
174	0x38edddf0	0.0001134238
175	0x37529f6b	1.2554093e-05
176	0x3ab0ac2f	0.0013479049
177	0x3992258f	0.00027875273
178	0x3a85c64b	0.0010206191
179	0x39238406	0.00015594074
180	0x38a93820	8.069002e-05
181	0x37d5f7a6	2.5506899e-05
182	0x388888f5	6.5104956e-05
183	0x37442466	1.1690985e-05
184	0x00000000	0.0
185	0x00000000	0.0
186	0x00000000	0.0
187	0x00000000	0.0
188	0x396cb96e	0.00022575792
189	0x38a1d03a	7.7158635e-05
190	0x38cc879b	9.7527365e-05
191	0x3731ca09	1.0597062e-05
192	0x397b7593	0.00023981025
193	0x38ad703a	8.270187e-05
194	0x39753eed	0.00023388462
195	0x38350e5a	4.316713e-05
196	0x34a6b5e1	3.1052244e-07
197	0x33431c3f	4.5427665e-08
198	0x347a2e70	2.3299958e-07
199	0x32aa2e5d	1.9811688e-08
200	0x3a937655	0.0011250476
201	0x397d8252	0.00024176508
202	0x3a3e3bb2	0.000725682
203	0x38daa69a	0.00010426082
204	0x00000000	0.0
205	0x00000000	0.0
206	0x00000000	0.0
207	0x00000000	0.0
208	0x00000000	0.0
209	0x00000000	0.0
210	0x00000000	0.0
211	0x00000000	0.0
212	0x39206944	0.00015298004
213	0x3818d2f5	3.6436093e-05
214	0x38f510e6	0.00011685658
215	0x378dcd29	1.6904045e-05
216	0x3a4c547d	0.0007794572
217	0x394102f0	0.00018407009
218	0x39ffad1c	0.00048766367
219	0x386dc1ec	5.6685807e-05
220	0x00000000	0.0
221	0x00000000	0.0
222	0x00000000	0.0
223	0x00000000	0.0
224	0x3a80888a	0.0009806317
225	0x399ee904	0.0003030972
226	0x3a80a32c	0.0009814254
227	0x393b3cf9	0.00017856424
228	0x00000000	0.0
229	0x00000000	0.0
230	0x00000000	0.0
231	0x00000000	0.0
232	0x3a0ee48a	0.0005450925
233	0x39563b39	0.00020430693
234	0x395f62ca	0.00021303739
235	0x37be848c	2.2711487e-05
236	0x00000000	0.0
237	0x00000000	0.0
238	0x00000000	0.0
239	0x00000000	0.0
240	0x00000000	0.0
241	0x00000000	0.0
242	0x00000000	0.0
243	0x00000000	0.0
244	0x00000000	0.0
245	0x00000000	0.0
246	0x00000000	0.0
247	0x00000000	0.0
248	0x394d1a7b	0.00019560188
249	0x383fb3a6	4.570526e-05
250	0x38db5a4f	0.00010459555
251	0x374540e3	1.1757223e-05
252	0x391e1118	0.00015074422
253	0x384804b9	4.7688114e-05
254	0x3882a6d9	6.229961e-05
255	0x36e1d513	6.7303276e-06

exp_avg f4 [64]
0	0x00000000	0.0
1	0x00000000	0.0
2	0x00000000	0.0
3	0x38445d43	4.68169e-05
4	0x00000000	0.0
5	0x00000000	0.0
6	0xb9a3c1a5	-0.0003123406
7	0x00000000	0.0
8	0xbb07566c	-0.0020650877
9	0x00000000	0.0
10	0xbaf8dafe	-0.0018986163
11	0x00000000	0.0
12	0x355a495e	8.131809e-07
13	0xbb42076e	-0.002960648
14	0xbb818688	-0.003952805
15	0xbb3b5526	-0.0028584688
16	0xbaa87caf	-0.0012854541
17	0xbba06e48	-0.004895959
18	0x00000000	0.0
19	0x00000000	0.0
20	0x00000000	0.0
21	0x3b8b4aab	0.0042508445
22	0xbbba870c	-0.0056923684
23	0x00000000	0.0
24	0x3ac1d89b	0.0014789285
25	0x38c5d305	9.4329975e-05
26	0x3b490f27	0.0030679198
27	0x3ba20834	0.0049448255
28	0x00000000	0.0
29	0xbb903b30	-0.004401587
30	0x3b2aa1be	0.0026036347
31	0xbb8c7abb	-0.0042870915
32	0xba83dbdb	-0.0010060029
33	0xbb2dbc12	-0.0026509804
34	0xbb18decc	-0.0023326157
35	0xbbbf45eb	-0.0058371923
36	0xbb1cf79f	-0.0023951305
37	0x00000000	0.0
38	0x393323ec	0.00017084152
39	0x3a4456ca	0.0007489739
40	0x00000000	0.0
41	0x00000000	0.0
42	0xbbb62f9b	-0.0055598742
43	0xb9ea3bb5	-0.00044676443
44	0x3ae72e11	0.001763763
45	0x3ad4b154	0.0016227164
46	0x00000000	0.0
47	0x3adfa996	0.001706409
48	0x3b2022fc	0.0024434915
49	0x30c0cd9f	1.402828e-09
50	0x3bb45f70	0.005504541
51	0x00000000	0.0
52	0x00000000	0.0
53	0x3a2843ef	0.00064188143
54	0x39caa6e7	0.00038652794
55	0x00000000	0.0
56	0xbbbe71b4	-0.0058118943
57	0x00000000	0.0
58	0xbada1dc4	-0.0016640951
59	0x00000000	0.0
60	0x00000000	0.0
61	0x00000000	0.0
62	0x3aa158e4	0.0012309817
63	0xba82460e	-0.0009939091

exp_avg_sq f4 [64]
0	0x00000000	0.0
1	0x00000000	0.0
2	0x00000000	0.0
3	0x361bf469	2.3239065e-06
4	0x00000000	0.0
5	0x00000000	0.0
6	0x36104a2e	2.150085e-06
7	0x00000000	0.0
8	0x379b00f3	1.8477882e-05
9	0x00000000	0.0
10	0x372eff8c	1.0430707e-05
11	0x00000000	0.0
12	0x36be886f	5.678324e-06
13	0x37334cc0	1.0687101e-05
14	0x370fef2b	8.57915e-06
15	0x37b6b03c	2.1778156e-05
16	0x363820d3	2.7437243e-06
17	0x3701eecb	7.7445975e-06
18	0x00000000	0.0
19	0x00000000	0.0
20	0x00000000	0.0
21	0x37cfad8f	2.4757142e-05
22	0x38492c58	4.7963433e-05
23	0x00000000	0.0
24	0x37a5887b	1.9733086e-05
25	0x3794d7f5	1.7743538e-05
26	0x36c8db3a	5.985986e-06
27	0x3858ce87	5.1690757e-05
28	0x00000000	0.0
29	0x38180849	3.624734e-05
30	0x37ebceea	2.8110535e-05
31	0x3705b52f	7.969603e-06
32	0x36ba2e1d	5.5486003e-06
33	0x37153392	8.893099e-06
34	0x3797c58c	1.8092593e-05
35	0x38031bc6	3.12587e-05
36	0x37c9d74a	2.4061319e-05
37	0x00000000	0.0
38	0x36b7313d	5.459557e-06
39	0x371fc656	9.523317e-06
40	0x00000000	0.0
41	0x00000000	0.0
42	0x36faa695	7.4699733e-06
43	0x370cfb27	8.403126e-06
44	0x38011804	3.0778363e-05
45	0x363655a2	2.7169958e-06
46	0x00000000	0.0
47	0x36fce9df	7.5374114e-06
48	0x3708ace6	8.146488e-06
49	0x31bf1743	5.561476e-09
50	0x37fd86f6	3.0222796e-05
51	0x00000000	0.0
52	0x00000000	0.0
53	0x36897e23	4.0976024e-06
54	0x37be1a28	2.2661945e-05
55	0x00000000	0.0
56	0x38004a9d	3.0587067e-05
57	0x00000000	0.0
58	0x37990af9	1.824413e-05
59	0x00000000	0.0
60	0x00000000	0.0
61	0x00000000	0.0
62	0x36b68d4e	5.4404727e-06
63	0x36978dba	4.51665e-06

exp_avg f4 [3, 64]
0	0x00000000	0.0
1	0x00000000	0.0
2	0x00000000	0.0
3	0x39aa8fcb	0.0003253206
4	0x00000000	0.0
5	0x00000000	0.0
6	0xbc99a471	-0.01875517
7	0x00000000	0.0
8	0xbd1ea63e	-0.03873276
9	0x00000000	0.0
10	0xbcc6b8e2	-0.02425808
11	0x00000000	0.0
12	0xb4c37d94	-3.641295e-07
13	0xbc631f64	-0.013862465
14	0xbda49683	-0.0803652
15	0xbd8a87dd	-0.06764195
16	0x3c9584da	0.018251825
17	0xbd1aa659	-0.037756298
18	0x00000000	0.0
19	0x00000000	0.0
20	0x00000000	0.0
21	0x3d0e1ab7	0.034693446
22	0xbc8eb6ac	-0.01742109
23	0x00000000	0.0
24	0xbd357bdf	-0.044307586
25	0xb9cd59da	-0.00039167592
26	0x3cf34d6b	0.029700002
27	0xbc61728a	-0.013760218
28	0x00000000	0.0
29	0x3d536538	0.0516102
30	0x3b569bfc	0.0032746783
31	0xbc8e8e17	-0.017401738
32	0x3d76a2c6	0.060213827
33	0xbd071a98	-0.032984346
34	0xbcd44f10	-0.025916606
35	0x3d82c43b	0.06385084
36	0xbcd8105a	-0.026374985
37	0x00000000	0.0
38	0xbb72f954	-0.003707488
39	0x3c05c631	0.008164928
40	0x00000000	0.0
41	0x00000000	0.0
42	0xbd8705c9	-0.065929
43	0x3d5e52bf	0.05427813
44	0x3d879534	0.06620255
45	0x3d894f5d	0.067045905
46	0x00000000	0.0
47	0x3d40fde6	0.047117136
48	0x3c85b234	0.016320325
49	0x2fa315ea	2.9665098e-10
50	0x3c73509e	0.014850764
51	0x00000000	0.0
52	0x00000000	0.0
53	0x3d85e1b0	0.06537187
54	0x3d624e23	0.0552503
55	0x00000000	0.0
56	0xbd6c43a9	-0.057681713
57	0x00000000	0.0
58	0xb9261a77	-0.00015840853
59	0x00000000	0.0
60	0x00000000	0.0
61	0x00000000	0.0
62	0x39dc73c6	0.00042047928
63	0x3c1de51b	0.0096371425
64	0x00000000	0.0
65	0x00000000	0.0
66	0x00000000	0.0
67	0xbcfb48cc	-0.03067436
68	0x00000000	0.0
69	0x00000000	0.0
70	0xbc8da8ee	-0.017292466
71	0x00000000	0.0
72	0x3c8e3caf	0.01736292
73	0x00000000	0.0
74	0x3c041549	0.008061715
75	0x00000000	0.0
76	0x34353f45	1.6879956e-07
77	0xbc73d1d3	-0.014881569
78	0xbd35f152	-0.044419594
79	0x3ccdf1a5	0.02513964
80	0x3d4a4993	0.049386572
81	0xbbaa705d	-0.005201383
82	0x00000000	0.0
83	0x00000000	0.0
84	0x00000000	0.0
85	0x3cbdece1	0.023184242
86	0x3be75045	0.0070591294
87	0x00000000	0.0
88	0xbc980a5e	-0.018559631
89	0x3c490054	0.012268145
90	0x3cb93bce	0.022611525
91	0xbc84db85	-0.016217956
92	0x00000000	0.0
93	0xbd05ba03	-0.032648098
94	0xbc4a97c1	-0.0123652825
95	0xbc194512	-0.009354847
96	0xbcef8dfb	-0.029242506
97	0x3c3bc097	0.011459491
98	0x3c3ebea6	0.011642134
99	0x3cc4c665	0.024020383
100	0x3b85b650	0.0040805712
101	0x00000000	0.0
102	0xbc826b52	-0.015920315
103	0xbca736aa	-0.020411808
104	0x00000000	0.0
105	0x00000000	0.0
106	0xbcfac342	-0.030610684
107	0xbc888120	-0.016663134
108	0x3ce26a64	0.027638622
109	0xbd11625d	-0.035494197
110	0x00000000	0.0
111	0xbca9dfad	-0.02073654
112	0xbc016a88	-0.007898934
113	0x311ead3d	2.30905e-09
114	0x3cf98b99	0.030462073
115	0x00000000	0.0
116	0x00000000	0.0
117	0xbb8f8940	-0.004380375
118	0x3c3e4f36	0.011615565
119	0x00000000	0.0
120	0xbc957671	-0.018244954
121	0x00000000	0.0
122	0xbc94c602	-0.018160824
123	0x00000000	0.0
124	0x00000000	0.0
125	0x00000000	0.0
126	0xbd225e79	-0.039640877
127	0xbccb61a6	-0.024826836
128	0x00000000	0.0
129	0x00000000	0.0
130	0x00000000	0.0
131	0x3cf89e8e	0.030349042
132	0x00000000	0.0
133	0x00000000	0.0
134	0x3d13a6ad	0.036047626
135	0x00000000	0.0
136	0x3caf0fcd	0.02136984
137	0x00000000	0.0
138	0x3c84ae3c	0.016196363
139	0x00000000	0.0
140	0x3451bbe9	1.9533003e-07
141	0x3ceb7899	0.028744029
142	0x3dff8f2a	0.12478478
143	0x3d2e16e7	0.04250231
144	0xbd8a8600	-0.0676384
145	0x3d2ff464	0.04295768
146	0x00000000	0.0
147	0x00000000	0.0
148	0x00000000	0.0
149	0xbd6d1128	-0.05787769
150	0x3c29c537	0.010361961
151	0x00000000	0.0
152	0x3d80c087	0.06286722
153	0xbc429584	-0.011876468
154	0xbd56449e	-0.052311532
155	0x3cf594c9	0.029978173
156	0x00000000	0.0
157	0xbc9b5665	-0.018962095
158	0x3c14f0bf	0.0090906015
159	0x3cdb30a0	0.026756585
160	0xbcfdb797	-0.030971332
161	0x3cb054e2	0.02152485
162	0x3c69df7b	0.014274473
163	0xbdb3f5d5	-0.08787123
164	0x3cb6a2c6	0.022294413
165	0x00000000	0.0
166	0x3ca0ca7d	0.019627804
167	0x3c48a725	0.012246882
168	0x00000000	0.0
169	0x00000000	0.0
170	0x3dc5b698	0.096539676
171	0xbd1a122e	-0.037614994
172	0xbdc02fcc	-0.093841165
173	0xbd013c5a	-0.031551696
174	0x00000000	0.0
175	0xbcd81c21	-0.0263806
176	0xbc09f9dd	-0.008421388
177	0xb1330ffd	-2.6057017e-09
178	0xbd3999f4	-0.045312837
179	0x00000000	0.0
180	0x00000000	0.0
181	0xbd79d235	-0.060991485
182	0xbd88f0f9	-0.06686587
183	0x00000000	0.0
184	0x3d9b7f72	0.07592668
185	0x00000000	0.0
186	0x3c961234	0.018319227
187	0x00000000	0.0
188	0x00000000	0.0
189	0x00000000	0.0
190	0x3d20a58d	0.03922038
191	0x3c78de2f	0.015189691

exp_avg_sq f4 [3, 64]
0	0x00000000	0.0
1	0x00000000	0.0
2	0x00000000	0.0
3	0x3ade61e7	0.0016966433
4	0x00000000	0.0
5	0x00000000	0.0
6	0x3af9148f	0.0019003319
7	0x00000000	0.0
8	0x3a325dbb	0.0006804128
9	0x00000000	0.0
10	0x39145611	0.00014146442
11	0x00000000	0.0
12	0x37182010	9.067371e-06
13	0x3a731d55	0.0009274085
14	0x3bf4fa4d	0.0074761272
15	0x3b40077e	0.002930134
16	0x37b15421	2.113922e-05
17	0x39ef2dfe	0.000456199
18	0x00000000	0.0
19	0x00000000	0.0
20	0x00000000	0.0
21	0x3a4b5055	0.0007755806
22	0x3894b952	7.0917085e-05
23	0x00000000	0.0
24	0x3b58431b	0.0032998982
25	0x3a228c48	0.0006200713
26	0x3a09f5b6	0.0005262749
27	0x3b0c9ef1	0.002145704
28	0x00000000	0.0
29	0x3b5cd414	0.0033695744
30	0x38b0427b	8.404717e-05
31	0x398198c8	0.00024718628
32	0x3be42dbe	0.0069634607
33	0x399f8dec	0.00030432583
34	0x399914e7	0.00029198008
35	0x3b059961	0.002038561
36	0x3a00dc91	0.00049156795
37	0x00000000	0.0
38	0x3aa5f1c1	0.0012660549
39	0x3b1fe349	0.0024396947
40	0x00000000	0.0
41	0x00000000	0.0
42	0x3b5222e0	0.0032064244
43	0x3b9a0499	0.004700255
44	0x3b1605b4	0.0022891583
45	0x3bdd9f31	0.006763362
46	0x00000000	0.0
47	0x3b1d77ec	0.0024027778
48	0x3a96fcb3	0.0011519402
49	0x2f845c12	2.407608e-10
50	0x38f4821f	0.000116590636
51	0x00000000	0.0
52	0x00000000	0.0
53	0x3ab7285b	0.0013973819
54	0x3aad6d91	0.0013231506
55	0x00000000	0.0
56	0x3bb69bb7	0.005572762
57	0x00000000	0.0
58	0x3ade0f50	0.0016941819
59	0x00000000	0.0
60	0x00000000	0.0
61	0x00000000	0.0
62	0x3b47af3c	0.0030469438
63	0x3a910f55	0.0011067191
64	0x00000000	0.0
65	0x00000000	0.0
66	0x00000000	0.0
67	0x3c11c0ac	0.008896034
68	0x00000000	0.0
69	0x00000000	0.0
70	0x3b301a7b	0.0026871252
71	0x00000000	0.0
72	0x38de4bb1	0.000105998835
73	0x00000000	0.0
74	0x379020a4	1.7181337e-05
75	0x00000000	0.0
76	0x366c3d6d	3.5202495e-06
77	0x3b344c5a	0.002751133
78	0x3ad8201d	0.0016489063
79	0x39fa346b	0.0004772277
80	0x3982c7b6	0.00024944328
81	0x385b7f71	5.2332358e-05
82	0x00000000	0.0
83	0x00000000	0.0
84	0x00000000	0.0
85	0x3abf3fb9	0.0014591134
86	0x37b92d1a	2.207472e-05
87	0x00000000	0.0
88	0x3abb2804	0.0014278893
89	0x3b86f8d0	0.004119016
90	0x3b1e95d1	0.0024198184
91	0x3bb2ba00	0.005454302
92	0x00000000	0.0
93	0x3c981aa7	0.018567396
94	0x39c55b55	0.00037642816
95	0x38b30845	8.5369255e-05
96	0x3d356288	0.04428342
97	0x385fe6ef	5.3382417e-05
98	0x38229a70	3.876764e-05
99	0x3b408c0e	0.0029380354
100	0x395d9521	0.00021131757
101	0x00000000	0.0
102	0x3be1f76e	0.006895951
103	0x3c2fea79	0.010737055
104	0x00000000	0.0
105	0x00000000	0.0
106	0x3a09ba6a	0.0005253913
107	0x3cf4b0bc	0.02986943
108	0x3b431987	0.0029769854
109	0x3d288c95	0.041149694
110	0x00000000	0.0
111	0x3c30d9fb	0.010794158
112	0x3bcd2f35	0.006261731
113	0x327cc08f	1.4712113e-08
114	0x39885a6e	0.00026007317
115	0x00000000	0.0
116	0x00000000	0.0
117	0x3b076d0b	0.002066436
118	0x3afec37a	0.0019436919
119	0x00000000	0.0
120	0x3ba1e1b5	0.0049402365
121	0x00000000	0.0
122	0x3bd9d113	0.006647238
123	0x00000000	0.0
124	0x00000000	0.0
125	0x00000000	0.0
126	0x3c617d69	0.01376281
127	0x3bcfde8f	0.0063436697
128	0x00000000	0.0
129	0x00000000	0.0
130	0x00000000	0.0
131	0x3be6eaba	0.0070470246
132	0x00000000	0.0
133	0x00000000	0.0
134	0x3b056d1a	0.002035922
135	0x00000000	0.0
136	0x398bd84c	0.000266733
137	0x00000000	0.0
138	0x38991dc6	7.301154e-05
139	0x00000000	0.0
140	0x35cb538c	1.5148994e-06
141	0x3afcc03c	0.0019283365
142	0x3bb87cfe	0.0056301346
143	0x3a95bbaa	0.0011423726
144	0x39cc69ac	0.00038988644
145	0x398d3cd3	0.00026938933
146	0x00000000	0.0
147	0x00000000	0.0
148	0x00000000	0.0
149	0x3b307c7e	0.0026929672
150	0x3806f013	3.2171676e-05
151	0x00000000	0.0
152	0x3b1667c3	0.002295003
153	0x3b7a1510	0.0038159527
154	0x3b436d33	0.0029819726
155	0x3b840d04	0.004029872
156	0x00000000	0.0
157	0x3c94c3e8	0.018159822
158	0x3991e137	0.00027824353
159	0x392c2e35	0.00016420412
160	0x3d260548	0.04053238
161	0x3909a66d	0.00013127337
162	0x3906f40e	0.00012870153
163	0x3bcf96e8	0.006335128
164	0x39942c6f	0.00028261865
165	0x00000000	0.0
166	0x3bba88bc	0.0056925695
167	0x3c00c12b	0.007858555
168	0x00000000	0.0
169	0x00000000	0.0
170	0x3aecc41b	0.0018063815
171	0x3ce1b70e	0.027553108
172	0x3bccbba2	0.0062479535
173	0x3d17e4c0	0.037083387
174	0x00000000	0.0
175	0x3c3df384	0.011593703
176	0x3ba2d5b7	0.0049693245
177	0x32a0adf3	1.8705554e-08
178	0x3a16dfec	0.0005755413
179	0x00000000	0.0
180	0x00000000	0.0
181	0x3b530300	0.0032197833
182	0x3b65e327	0.003507802
183	0x00000000	0.0
184	0x3b8a3094	0.0042172167
185	0x00000000	0.0
186	0x3b9a8085	0.0047150278
187	0x00000000	0.0
188	0x00000000	0.0
189	0x00000000	0.0
190	0x3c2f1e0c	0.010688316
191	0x3ba14ffa	0.004922864

exp_avg f4 [3]
0	0xbb9b13e7	-0.004732597
1	0xbcd4f50c	-0.025995754
2	0x3cfbba05	0.03072835

exp_avg_sq f4 [3]
0	0x3a13c244	0.0005636553
1	0x3ae49d46	0.0017441891
2	0x3aab69a2	0.0013077746
