assignments/pytorch_basics/session_5/lightning_logs/version_3/checkpoints/epoch=29-step=180.ckpt (torch, 13411 bytes, 12 tensors)

l1.weight f4 [64, 4]
00000000: 707b cabe 98cb a83d 02c8 f5be c495 b33e
00000010: 217d e1be 3da2 cc3e 29e0 b33d e999 b23e
00000020: d9d0 913e 09a5 edbd 658a 77be 98d9 713c
00000030: 8472 b63e 0e74 23be 24f3 cebe 4f03 ad3e
00000040: 00d8 13bd f618 933e cad1 7e3e bf0b 003f
00000050: 52a7 ef3e d1ec 03bc c401 91be a99c 21bf
00000060: 3014 e0be 602c 56be 1647 cf3e 9e01 d6be
00000070: 88c1 03be bbc2 163f b811 68be 941f c43d
00000080: fc11 043e 5e57 afbe a80e 52be 3862 fbbe
00000090: 70a1 d2bd 8c60 6cbe 50b4 c9be ece0 3abe
000000a0: c605 983e 20e0 923e c6cc c13e 1c81 46be
000000b0: 90ae 16bd f8db aebe 5603 a0be da35 e23e
000000c0: 00e2 6bbe 0a5e 8abe 0089 9b3b 90fd 48be
000000d0: 583f c4bd 60fc ebbc e4a5 a6be 9c35 333e
000000e0: 9e27 d83e 5c48 603d 35e3 ca3d 0fba 9e3e
000000f0: afc8 213e 02f4 6a3e 2b95 cdbe 8a25 ad3e
00000100: 5dda 483e b4f3 c1bc 5baa fcbd 4a2f 99be
00000110: a22e 6e3e 96c2 4d3d cbec 4d3e be7d 94be
00000120: 1c94 3fbe 40e0 1b3c dcc1 14be be44 cbbe
00000130: a93e ce3e 535a bb3e 6734 df3e 4c80 1a3f
00000140: e7c6 ab3e b0a2 03bf f8b9 dd3e 3f2d e73c
00000150: 7e41 a2be 7a7d 9a3e cc1b 8abe 3045 713d
00000160: da6c d5be f41e 45be e06c 4dbd d0ed 7bbd
00000170: aeba 97be a0f0 e63e d090 c9be d04c 5d3e
00000180: a521 e23d 8a70 b8bd 5e2a f3be a48a e8be
00000190: f65d e6be 4efb bb3e 80a5 63be 140d 1f3e
000001a0: d09a efbe f03c eebd ded5 c4be 40bf 363c
000001b0: 0ab1 89be dc62 033e 004e f53a 0098 fd3b
000001c0: 25fd 23be d30a 8e3e cc13 c63e 55cc c3be
000001d0: 8339 28be f432 af3e 0951 bfbe ecbd 85be
000001e0: bd09 cb3e b5b7 cc3e 2137 f13e 964a 0bbe
000001f0: 1fb4 8ebd 704a b13e 7773 6cbd 6b84 0abd
00000200: 99ab f93e 306d f33d 51f6 a93e 78a3 00bf
00000210: d591 fb3e ee19 a13e 377c 0dbf 3b5b 0bbf
00000220: b4cd 03be 489a 9fbd 40b1 87be 0014 fbbd
00000230: 9e6e fdbe 666f 94be e63c a73e b06d fa3d
00000240: cc0a a5be e890 b03d 7ccc b3be 5cfc 4abe
00000250: 8f59 fa3e cc33 80be 9997 b7be 1ec3 ecbe
00000260: 68f0 34be 0cb9 74be 3c61 ecbe 1430 0e3e
00000270: ecaa ea3e 5a39 673e 4c18 01bf 47b2 a8be
00000280: 2807 06be d461 a13e 706d c4be 9405 343e
00000290: 9586 a33e af7b b2be 60cf 873e 660d 6a3e
000002a0: 5990 24be 7d9e 0d3f fa69 ddbc 62d7 16be
000002b0: 062e 8fbe 4274 033f 2e88 f53e ffd4 1abc
000002c0: e8a7 a0bd c812 a9be 302e 09be 5836 5c3e
000002d0: 22d2 bebe d434 5e3e 58ad 0ebe 5a7f ebbe
000002e0: f6f4 db3e 087d 0b3e 0ca9 cebb 9873 2d3e
000002f0: 020b fcbe f26b a5be a0ad c3bc 3011 583d
00000300: 972b 6b3e f277 dabb a9c5 2abd fc42 f2be
00000310: 98cc 5d3e b0a2 d43e 0f83 573e f1ad 0e3e
00000320: 2733 6a3e 1635 d8bb 3bb9 3d3d 43dc 9f3e
00000330: 62eb d8be 806f a03d 4c07 7fbe 90c9 d8be
00000340: a0ec a83c 70da 8dbe e8ae 89be 80b1 a53c
00000350: 5fcc 7ebe 6735 e3bd 9aeb 4d3d a181 ec3e
00000360: 05f8 0bbe ffa6 aebd 3e67 c33e 6b5f 4fbe
00000370: 1061 823e 3a10 80be 1828 0c3f 6e6f a0be
00000380: 127b eabc af61 c4be ef84 253e 6195 133d
00000390: 9eff d4be a8f2 3c3e f8d0 90be 6e76 c5be
000003a0: fea9 943d d981 313e 5733 afbd 656a cebd
000003b0: 3eac aebe ee87 febe e0fd 0b3d 3065 cb3d
000003c0: 906e 563e 83c1 d8be 3aa4 063f 71b2 733e
000003d0: 49b4 9f3e 6621 dbbe 8d32 5c3d d127 63be
000003e0: f534 083d b6b9 813e 89ce 53bd 22f1 d4be
000003f0: a868 b8be 00e0 593a 4478 b0be c0b4 6fbd
-0.395473 0.082419574 -0.48004156 0.350752 -0.44040778 0.39967528 0.087829895 0.3488305
0.2847965 -0.116037436 -0.24173887 0.014761351 0.35634243 -0.1596224 -0.40419877 0.33791587
-0.036094666 0.2872998 0.24884716 0.50017923 0.46807343 -0.008052067 -0.2832166 -0.6312967
-0.43765402 -0.20915365 0.40483922 -0.4179811 -0.12866795 0.58890885 -0.22663009 0.095763355
0.12897485 -0.34246343 -0.20513403 -0.49098372 -0.10284698 -0.23083705 -0.3939538 -0.18249863
0.29691905 0.2868662 0.37851542 -0.19385189 -0.03678757 -0.34152198 -0.31252545 0.4418171
-0.23035431 -0.2702487 0.0047465563 -0.19627976 -0.09582394 -0.028806865 -0.3254844 0.17500919
0.42217726 0.054756507 0.099066176 0.31001326 0.15799211 0.22944644 -0.4015287 0.33817703
0.19614549 -0.023675777 -0.1233718 -0.2991889 0.23259977 0.0502344 0.2010986 -0.29002184
-0.18708843 0.009513915 -0.14527076 -0.39700884 0.4028218 0.3659235 0.43594667 0.60352015
0.33550188 -0.51420116 0.43305945 0.028219817 -0.31690592 0.30173856 -0.26974332 0.058903873
-0.4168461 -0.19250089 -0.05015266 -0.061506093 -0.29634613 0.45105457 -0.39368296 0.21611333
0.110415734 -0.0900584 -0.4749326 -0.45418274 -0.44993562 0.36715168 -0.22231102 0.15532333
-0.467978 -0.11632717 -0.38444418 0.011153996 -0.26892883 0.1283068 0.0018715262 0.007739067
-0.16014536 0.27742633 0.3868698 -0.3824183 -0.16428189 0.34218562 -0.37366512 -0.2612146
0.39655867 0.39983907 0.47112373 -0.13602671 -0.06967949 0.34627104 -0.057727303 -0.03381769
0.4876373 0.1188606 0.33195737 -0.50249434 0.491347 0.31465095 -0.5526766 -0.5443608
-0.12871438 -0.07793099 -0.2650242 -0.12259674 -0.49498457 -0.2899124 0.3266365 0.122279525
-0.322348 0.08621389 -0.35116947 -0.1982283 0.48896453 -0.25039518 -0.35857847 -0.46242613
-0.17669833 -0.23898715 -0.46167934 0.13885528 0.45833528 0.22580472 -0.504277 -0.32948515
-0.13088667 0.3151995 -0.38364744 0.17580253 0.31938615 -0.34859988 0.26525402 0.22856674
-0.1607069 0.5531996 -0.027028073 -0.147306 -0.279648 0.5134927 0.4795546 -0.009450196
-0.078445256 -0.3302214 -0.13396525 0.21505105 -0.37269694 0.2169984 -0.13933313 -0.459956
0.42960328 0.13621914 -0.006306773 0.16938627 -0.49227148 -0.32308918 -0.023886502 0.052750766
0.22965847 -0.0066671306 -0.04169241 -0.4731673 0.21660078 0.4153037 0.21046089 0.13933541
0.22871076 -0.006598125 0.046319228 0.31222734 -0.42367083 0.07833767 -0.24905127 -0.4234128
0.020620644 -0.27705717 -0.26891255 0.02022624 -0.24882649 -0.1109417 0.050273515 0.4619265
-0.1366883 -0.08527946 0.38164705 -0.20251243 0.25464678 -0.2501238 0.5474868 -0.31335014
-0.028623138 -0.38355777 0.16163991 0.03603113 -0.4160127 0.18451941 -0.2828443 -0.38566917
0.07258986 0.17334689 -0.08554714 -0.10078887 -0.34115785 -0.4971308 0.03417766 0.09931409
0.20940614 -0.42335138 0.5259434 0.23798539 0.31192234 -0.42798918 0.053759146 -0.22183158
0.03325363 0.25337 -0.05171064 -0.4159022 -0.36017346 0.00083112717 -0.34466755 -0.058521986

l1.bias f4 [64]
00000000: 5801 bcbe 66d3 803c ee9f de3e bd05 973e
00000010: 1dd8 083e 3545 01be d292 973e 133c 493e
00000020: 7c4f b73e 3483 d43e 2b32 c73e 2877 ca3d
00000030: 38d9 80be 469c c3be 1316 b2be 30f8 f53d
00000040: 88c3 5b3e 3344 e3be 70af cebd 9ede 06bf
00000050: d404 e1be 7000 39be f065 3fbe c013 22bd
00000060: c691 f03e 90fb ac3e 56a3 d7be 601c d8be
00000070: c779 a53c bec8 9cbd cfdb 5d3e acb6 f63d
00000080: 1262 a6be 9b2c 3f3e d438 f33e c8a6 e5bd
00000090: a0c1 ca3c 31ed 53be 087c 113e 4d56 2ebe
000000a0: a43c ebbe b2f8 6c3e 3e7c efbd 6a4c 2e3d
000000b0: 4010 0f3d e087 043e 1c8a 243e c4ab ce3e
000000c0: b36a e83e 7972 33be d2de eabe e06c 633e
000000d0: 8c8f 8d3e f28b c63e 4a63 5abe d43b f3be
000000e0: d492 b43e 80ae b7bc 020e 8f3e aad0 8dbe
000000f0: a691 9ebe 313e 2e3e bb2d 863e 6222 933e
-0.36719775 0.015725803 0.43481392 0.29496565 0.1336369 -0.12624057 0.29604203 0.19651823
0.3580283 0.4150635 0.38905463 0.098860085 -0.25165725 -0.38205165 -0.34782466 0.12010229
0.21461308 -0.4438797 -0.10092056 -0.52683437 -0.43948996 -0.18066573 -0.1869123 -0.039569616
0.46986216 0.33785677 -0.42116803 -0.42209148 0.02019967 -0.07655476 0.21665882 0.12046561
-0.32496697 0.1866936 0.47504294 -0.112134516 0.02475053 -0.2069595 0.1420747 -0.17025109
-0.45944703 0.23141745 -0.11693619 0.042553343 0.034927607 0.12942457 0.1606831 0.40365422
0.45393905 -0.17524137 -0.45873123 0.22209501 0.2764858 0.38778645 -0.21326938 -0.47506583
0.3526827 -0.022422075 0.27940375 -0.2769826 -0.30970496 0.17015912 0.26206765 0.2873717

l2.weight f4 [3, 64]
00000000: 10cb 7d3c 4fc9 9dbd f4bd 203d c08f 933d
00000010: 9494 f8bd 624a 5f3e 4052 5abb 2a8c 733e
00000020: f881 be3c 7060 e3bc 60bd b13d ea4d ad3d
00000030: 7256 aabd fedc f8bd f69a 993c d2f9 413e
00000040: e610 1c3e c7fb 413d 1068 27bd 7593 24be
00000050: 30e0 e2bd 8881 ad3c 3805 97bc 0057 7f3c
00000060: 3654 603a 9a92 99bd 7836 043d e017 70bc
00000070: cc7f 2c3d 47f6 84bd 7959 71bd cbc1 3ebc
00000080: f95a 05bd 70fd 2c3e 00c5 f33b bc61 24bd
00000090: f084 693c 298f 9c3e a067 eebc 56e8 743e
000000a0: e49f 26bd 7f7c a2bd de18 a13d 0306 d13c
000000b0: 2879 febd a0bf c93c 5320 98bd 4604 cb3d
000000c0: 4ba6 963d 47af 8cbd 4233 08be c8c5 6a3d
000000d0: fca3 b9bd 291a a13d bcc4 553d 77b1 81bd
000000e0: e378 eebd ce7f 99bd b018 78bc 242a d53d
000000f0: 6632 a1bc 66ea 1cbe 1573 723e 4a4a ed3d
00000100: f684 8fbd dec6 6e3d c529 81bd 44a3 d5bd
00000110: eada 1abd 20a8 fabc d677 f5bd 0172 c6bd
00000120: aca6 7ebd ec0c 81bd a668 8cbb 7847 d03d
00000130: fa2a 813d 4009 3f3c c05d 9c3c aa0d d3bb
00000140: 8dfb c93d bcc5 bf3d 483b 5cbd 5c87 bfbd
00000150: 881b 153d 98b1 8fbc 7027 d13c c08d 4dbc
00000160: 3d9b 613d 9e79 efbd 98ce ebbd b8c8 803d
00000170: d086 193d 0db0 08bd b042 643d 481a cebb
00000180: 4829 77bb 336f 91bd a026 703c 5668 cc3d
00000190: e4b6 e33d 4a3e 89be 640f 46bd 6967 be3c
000001a0: 3007 313d 4daf 01bc 3278 57be ff6d f1bd
000001b0: 88b6 bebd 506f d4bc e7e1 813d a8b3 303d
000001c0: 05a4 9bbd 6264 d3bc e061 0c3c 7e20 86bd
000001d0: a063 7f3d 2feb cd3d 8762 bdbd 388d b33d
000001e0: 375e 683d 76c7 bd3d aec5 1bbe a4ff f4bd
000001f0: cc62 e33d c894 823c 6d37 743d 3c83 01bd
00000200: e078 c0bc 30c7 13bd 4faf 0abe b2ff 36bc
00000210: f105 45bb c7a8 f3bd d254 e0bd 9230 5ebe
00000220: 92e5 d83d 705b 773d 253d 95bd aa77 bcbd
00000230: d85d f83d 98a1 cf3d 6003 34bd 70e1 a3bd
00000240: e7cb 08be 88dd bebd 36ec debd 3781 9ebc
00000250: 60c9 2d3e eaf0 cb3d d80a a9bc d87c 2b3d
00000260: 8a63 b3bd 3e75 e6bd 4c38 55bd 20a6 ef3b
00000270: 928c 153b 46b7 99bc 33ae c93d 8567 f5bd
00000280: e58a debd 5a02 6fbe aab4 8f3d f8a7 ce3d
00000290: 9851 edbc e1d6 b1bd e2b2 f1bd b413 00bd
000002a0: 880c 933c 77f6 f1bc 6864 4cbe 2a1a 2c3e
000002b0: 4ad1 c23d 5c86 373d f5d4 b23c bc4c a03d
000002c0: 52b0 03be ab7a 233d 82f8 20bd c06d 993d
000002d0: 388a 9b3d 20b0 9fbd bc2b 933d e378 353e
000002e0: 61d8 a93b 9888 3cbd b244 aa3c 5469 10bd
000002f0: 2141 3d3e accd c4bd 4f07 d3bd 24c4 213d
0.015490308 -0.07704412 0.039243653 0.072051525 -0.12137714 0.21805719 -0.0033313185 0.23783937
0.023255333 -0.027755946 0.086786985 0.084621266 -0.083172694 -0.12151526 0.018750649 0.18942955
0.15240821 0.047359254 -0.040870726 -0.16071875 -0.110779166 0.02117993 -0.018435106 0.015584707
0.000855747 -0.07498665 0.032278508 -0.01465413 0.042114064 -0.06492286 -0.05892322 -0.0116428835
-0.03255746 0.16893554 0.0074392557 -0.04013227 0.014252886 0.30577973 -0.029102147 0.23916754
-0.040679827 -0.07933902 0.07866071 0.025515562 -0.124254525 0.024627507 -0.0742804 0.099129245
0.073559366 -0.06869369 -0.13300803 0.057317525 -0.09064481 0.07866318 0.052189574 -0.06332677
-0.11644151 -0.0749508 -0.015142605 0.10408428 -0.019677352 -0.15323791 0.23676713 0.11586435
-0.07007782 0.058295123 -0.06306795 -0.10431531 -0.03780643 -0.030597746 -0.119857475 -0.09689713
-0.06217067 -0.06301293 -0.004284936 0.101698816 0.06307025 0.01165992 0.019087672 -0.006440838
0.09862433 0.09363887 -0.053767473 -0.093519896 0.03640321 -0.017540738 0.0255315 -0.012546003
0.055079687 -0.116931185 -0.11514014 0.06288284 0.037482083 -0.03337102 0.05572766 -0.006289754
-0.0037713815 -0.07101288 0.014657646 0.09980838 0.11118868 -0.26805335 -0.04835452 0.02324267
0.043219745 -0.00791533 -0.21041945 -0.11788558 -0.09312159 -0.025931984 0.063419156 0.043140084
-0.075996436 -0.025804702 0.008568257 -0.06549166 0.06235087 0.10054623 -0.09247308 0.0876717
0.056730475 0.0926656 -0.15212128 -0.11962822 0.111028284 0.015940085 0.05962317 -0.031619295
-0.023495138 -0.036078632 -0.13543437 -0.011169361 -0.0030063356 -0.11897426 -0.10953678 -0.21698216
0.10590662 0.060389936 -0.07287053 -0.092025116 0.12127274 0.101382434 -0.04394853 -0.08001983
-0.13359033 -0.093195975 -0.108848974 -0.019348724 0.1697135 0.0995806 -0.020635054 0.041867107
-0.0875922 -0.11252831 -0.052055642 0.007313505 0.0022819382 -0.01876415 0.09847679 -0.119826354
-0.10866336 -0.23340741 0.07016881 0.10090631 -0.028969571 -0.08683563 -0.11801697 -0.03126879
0.017950311 -0.029536469 -0.19960177 0.16806856 0.09512575 0.04480587 0.021830061 0.07827136
-0.1286023 0.039911907 -0.039299496 0.07491636 0.075947225 -0.07797265 0.07186076 0.17721896
0.005183265 -0.046028703 0.02078471 -0.0352567 0.18481876 -0.09609541 -0.103041284 0.039493695

l2.bias f4 [3]
00000000: 055f bb3c 9ef3 8cbc c173 d6bd
0.022872457 -0.01720601 -0.10471297

exp_avg f4 [64, 4]
00000000: 0000 0000 0000 0000 0000 0000 0000 0000
00000010: 2d0b ba2f 8c01 442f 94d6 aa2f ae17 0e2f
00000020: 07b3 d4ba e2ec d3bb 12ba 7f3c 83bd 0f3c
00000030: 17c1 583c 45be 11ba 1909 753c d2fa 313b
00000040: 144b 9ab9 544a 883b f556 39bc 7713 bdbb
00000050: 1063 b6bc ae73 c1bc b207 403c e3b8 fb3b
00000060: 0000 0000 0000 0000 0000 0000 0000 0000
00000070: 7cdb bebc 234f d7bc d87c b03c d653 713c
00000080: 0000 0000 0000 0000 0000 0000 0000 0000
00000090: 0000 0000 0000 0000 0000 0000 0000 0000
000000a0: 5e5c eeba 5d60 cbbb 10bb 723c 47a2 0a3c
000000b0: 0000 0000 0000 0000 0000 0000 0000 0000
000000c0: 0000 0000 0000 0000 0000 0000 0000 0000
000000d0: 0000 0000 0000 0000 0000 0000 0000 0000
000000e0: 548e 97bb 0a57 50bb 573a 7e3b 5132 7b3b
000000f0: 5a2d 47b9 b6f0 21bc 5a7b cd3c 4fcd 533c
00000100: b8cc c3bc fc08 8fbc b06e 2a3c b489 443c
00000110: 063b 7cbc ab37 01bc f2eb b23b e729 103c
00000120: 0000 0000 0000 0000 0000 0000 0000 0000
00000130: d320 533b e12e b93b a1d4 40bc 8abe f1bb
00000140: 52a5 97ba 912a d23b 809a d3bc 7474 72bc
00000150: 0000 0000 0000 0000 0000 0000 0000 0000
00000160: 0000 0000 0000 0000 0000 0000 0000 0000
00000170: 0000 0000 0000 0000 0000 0000 0000 0000
00000180: 8343 673a a499 143a ece0 6e39 bb37 1338
00000190: 0000 0000 0000 0000 0000 0000 0000 0000
000001a0: 0000 0000 0000 0000 0000 0000 0000 0000
000001b0: 0000 0000 0000 0000 0000 0000 0000 0000
000001c0: 5d9c 1bbb 29d2 ffba 57b1 393b 447c 1d3b
000001d0: 8a43 1d2f 5f34 f62e f2f8 132e d85e cf2c
000001e0: a05b 3fba b4db b83b 5a80 81bc 08af 02bc
000001f0: 3cf0 0bbc 55ce a9bb bf89 ad3b 60dd c73b
00000200: 0a47 0ebc 904c 8dbb 7738 323b ad7c 9c3b
00000210: b0eb c0bc eb2b c9bc 8334 993c 310e 5c3c
00000220: 0000 0000 0000 0000 0000 0000 0000 0000
00000230: 0000 0000 0000 0000 0000 0000 0000 0000
00000240: 0000 0000 0000 0000 0000 0000 0000 0000
00000250: 6c5a 3f3c ead6 a8bc 2528 453d a49b 9b3c
00000260: 0000 0000 0000 0000 0000 0000 0000 0000
00000270: 8021 8abc 2d76 96bc 439a 1b3c 6bca c83b
00000280: 0000 0000 0000 0000 0000 0000 0000 0000
00000290: 06dd 83bb 6111 7b3a c765 dabb bcd2 fdba
000002a0: 7ee7 293a 3ec4 41bc f2cf cb3c 9fe0 2b3c
000002b0: fb43 d73c f268 1e3c 7096 813a e522 1dbc
000002c0: 0000 0000 0000 0000 0000 0000 0000 0000
000002d0: 0000 0000 0000 0000 0000 0000 0000 0000
000002e0: 4650 ffbb 246c 113b 515c 62bc 0ac1 89bb
000002f0: 0000 0000 0000 0000 0000 0000 0000 0000
00000300: 1a69 c73a e468 e3bb b5ce a33c 6617 213c
00000310: d0cf 623b dd5c 963b bbff 0dbc e974 bfbb
00000320: d08f 0abc 53c8 ee3a 2e4e 5bbc e729 73bb
00000330: 0000 0000 0000 0000 0000 0000 0000 0000
00000340: 0000 0000 0000 0000 0000 0000 0000 0000
00000350: af4e 512f e9c1 cf2e 1f0c 3e2f 1ef9 962e
00000360: 49e0 fc3b 8d83 823b c3b5 b0bb cff6 f5bb
00000370: daab bf3a 2b04 113c bf63 b6bc c252 48bc
00000380: f468 6abb ddce 9eba 074f 9bba 2a86 ad37
00000390: 0000 0000 0000 0000 0000 0000 0000 0000
000003a0: eb9b 913c e7e1 963b eb0d bc3b 1e5a 7dbb
000003b0: 0000 0000 0000 0000 0000 0000 0000 0000
000003c0: 0d95 5abb c597 893b ff5f a3bc bcfb 29bc
000003d0: 0c21 65bc ee65 1aba 0d9d 55bc d0d9 c8ba
000003e0: 62ed 8dbc 7cce 98bc b552 973c 22bc 523c
000003f0: 0000 0000 0000 0000 0000 0000 0000 0000
0.0 0.0 0.0 0.0 3.3841144e-10 1.7826646e-10 3.1075287e-10 1.2923237e-10
-0.0016227671 -0.0064674476 0.015608327 0.00877321 0.01322963 -0.00055596634 0.014955782 0.0027157557
-0.00029429107 0.004159251 -0.011312236 -0.0057701427 -0.022264034 -0.02361473 0.011720585 0.0076819523
0.0 0.0 0.0 0.0 -0.023298018 -0.026282853 0.021543905 0.014729461
0.0 0.0 0.0 0.0 0.0 0.0 0.0 0.0
-0.0018185487 -0.0062065558 0.014815107 0.0084615415 0.0 0.0 0.0 0.0
0.0 0.0 0.0 0.0 0.0 0.0 0.0 0.0
-0.004625121 -0.003179016 0.0038792097 0.0038329551 -0.00018995014 -0.00988405 0.025083233 0.012927367
-0.023901328 -0.017460339 0.0104023665 0.011995722 -0.015394932 -0.007886807 0.005460256 0.008799053
0.0 0.0 0.0 0.0 0.003221561 0.0056513404 -0.011769445 -0.0073774504
-0.0011569655 0.0064137657 -0.025830507 -0.014798272 0.0 0.0 0.0 0.0
0.0 0.0 0.0 0.0 0.0 0.0 0.0 0.0
0.0008822011 0.0005668646 0.00022781239 3.5099434e-05 0.0 0.0 0.0 0.0
0.0 0.0 0.0 0.0 0.0 0.0 0.0 0.0
-0.0023744323 -0.0019517589 0.0028334463 0.0024030367 1.4303062e-10 1.1196088e-10 3.3645038e-11 5.8938236e-12
-0.0007299725 0.005641425 -0.015808273 -0.007976301 -0.008541163 -0.0051820674 0.0052959616 0.006099388
-0.008683929 -0.0043121055 0.00271943 0.0047756047 -0.023549885 -0.024557075 0.018701797 0.013431118
0.0 0.0 0.0 0.0 0.0 0.0 0.0 0.0
0.0 0.0 0.0 0.0 0.011679273 -0.020610292 0.048133988 0.018995114
0.0 0.0 0.0 0.0 -0.016861677 -0.018366897 0.009497228 0.0061276457
0.0 0.0 0.0 0.0 -0.004024151 0.000957748 -0.006664965 -0.0019365172
0.00064813334 -0.011826573 0.02487943 0.010490566 0.026277533 0.009668576 0.0009886753 -0.009590839
0.0 0.0 0.0 0.0 0.0 0.0 0.0 0.0
-0.0077915518 0.00221897 -0.013815955 -0.0042039203 0.0 0.0 0.0 0.0
0.0015213818 -0.006939994 0.019996027 0.009832239 0.003460873 0.004588707 -0.008666928 -0.005842794
-0.008457139 0.001821766 -0.013385339 -0.0037103833 0.0 0.0 0.0 0.0
0.0 0.0 0.0 0.0 1.9036393e-10 9.4477155e-11 1.7284706e-10 6.8654624e-11
0.0077171666 0.003982967 -0.0053927614 -0.0075062285 0.0014623359 0.008851091 -0.02226436 -0.012226762
-0.0035768123 -0.0012116093 -0.0011849114 2.0685682e-05 0.0 0.0 0.0 0.0
0.017774543 0.0046045664 0.005738964 -0.003865845 0.0 0.0 0.0 0.0
-0.0033353001 0.0041990005 -0.019943235 -0.01037496 -0.01398493 -0.00058898225 -0.013037932 -0.0015323702
-0.017325107 -0.018653147 0.018472055 0.012862237 0.0 0.0 0.0 0.0

exp_avg_sq f4 [64, 4]
00000000: 0000 0000 0000 0000 0000 0000 0000 0000
00000010: b30a 3c36 43d1 4735 e30e 1636 223c d034
00000020: 5789 4539 0d4a b238 447e 5039 767f 1a38
00000030: 07d1 9d3a 0cdd 8f39 6196 363a 0176 a938
00000040: 6d99 9e38 ce6a 3638 7d48 9538 17ea 6337
00000050: 5697 363a ab97 ed39 834d 7139 a4f8 1e38
00000060: 0000 0000 0000 0000 0000 0000 0000 0000
00000070: 7f37 a13a 3239 1c3a e3c7 a339 8516 7d38
00000080: 0000 0000 0000 0000 0000 0000 0000 0000
00000090: 0000 0000 0000 0000 0000 0000 0000 0000
000000a0: 42bf 293a e323 9639 4884 4d3a a94d 1a39
000000b0: 0000 0000 0000 0000 0000 0000 0000 0000
000000c0: 0000 0000 0000 0000 0000 0000 0000 0000
000000d0: 0000 0000 0000 0000 0000 0000 0000 0000
000000e0: 1978 e339 ac47 0539 9f5d eb39 77af a538
000000f0: 0aaa e239 36c1 4b39 7e21 e939 4e5a b238
00000100: 85c6 993a 219b 9639 384a 483a 142c f238
00000110: 321b 0a3b 8c9d fe39 852d db3a 4add 8b39
00000120: 0000 0000 0000 0000 0000 0000 0000 0000
00000130: 03b3 8139 043c ad38 203a 6839 91c4 2b38
00000140: c393 653a bc59 6b39 ac46 4e3a e2af 1139
00000150: 0000 0000 0000 0000 0000 0000 0000 0000
00000160: 0000 0000 0000 0000 0000 0000 0000 0000
00000170: 0000 0000 0000 0000 0000 0000 0000 0000
00000180: 8ce8 9538 3376 0938 0140 c636 76f6 2934
00000190: 0000 0000 0000 0000 0000 0000 0000 0000
000001a0: 0000 0000 0000 0000 0000 0000 0000 0000
000001b0: 0000 0000 0000 0000 0000 0000 0000 0000
000001c0: f004 7339 081f bd38 f6d2 9a39 568d 6138
000001d0: 29e8 6535 21b8 0c35 7988 6a33 557d ed30
000001e0: 6f09 db39 916c 6939 5c0c 023a bae2 c938
000001f0: ebf6 143a 8539 3539 020d b239 a9c3 3538
00000200: f0d6 133a a7ad 0239 4f14 e039 41f9 8a38
00000210: ef5b d93a 6aff 663a 2c24 063a c622 c038
00000220: 0000 0000 0000 0000 0000 0000 0000 0000
00000230: 0000 0000 0000 0000 0000 0000 0000 0000
00000240: 0000 0000 0000 0000 0000 0000 0000 0000
00000250: f90f 1a3b ee86 863a 6728 4e3a 27cc b838
00000260: 0000 0000 0000 0000 0000 0000 0000 0000
00000270: 9b15 ab39 efff 5039 62a9 a438 5d88 5e37
00000280: 0000 0000 0000 0000 0000 0000 0000 0000
00000290: d5c6 de38 3874 f637 a814 f038 3df7 9c37
000002a0: 9b72 f539 be0e 8239 5d1a 9c39 b3c1 3e38
000002b0: 9101 823b 1e7a 663a 9e77 123b beba 8d39
000002c0: 0000 0000 0000 0000 0000 0000 0000 0000
000002d0: 0000 0000 0000 0000 0000 0000 0000 0000
000002e0: b9a2 ef39 5213 8739 fcb4 d039 6a7e 8438
000002f0: 0000 0000 0000 0000 0000 0000 0000 0000
00000300: ef86 8f39 5032 1a39 edfc 7c39 4201 2738
00000310: 963c a739 6c37 f738 c8a2 ab39 41e7 7f38
00000320: ca6f dc39 d8a4 fb38 6581 6839 ded5 c037
00000330: 0000 0000 0000 0000 0000 0000 0000 0000
00000340: 0000 0000 0000 0000 0000 0000 0000 0000
00000350: af52 4037 30a4 3e36 a0df 1f37 5efc cc35
00000360: 56e4 743a 5dc0 4939 eaae 0d3a f635 7e38
00000370: 6e8b 083a 0533 4739 62d2 ff39 503a c238
00000380: e34a 7839 f533 2c38 5584 2339 447e 9f37
00000390: 0000 0000 0000 0000 0000 0000 0000 0000
000003a0: e3cb 3a3b 22a3 1f3a c50e 063b 6a10 9d39
000003b0: 0000 0000 0000 0000 0000 0000 0000 0000
000003c0: 0125 4839 d875 6838 83e4 3f39 aaef 0b38
000003d0: e866 a739 11e6 a138 ee08 3939 b788 9737
000003e0: 8391 163a db75 8239 700b b339 286c 7e38
000003f0: 0000 0000 0000 0000 0000 0000 0000 0000
0.0 0.0 0.0 0.0 2.802041e-06 7.443779e-07 2.2360407e-06 3.8786771e-07
0.00018838547 8.5014944e-05 0.00019883463 3.683517e-05 0.0012040444 0.00027439778 0.0006965157 8.080528e-05
7.562605e-05 4.349165e-05 7.118376e-05 1.3584758e-05 0.00069653 0.00045317164 0.00023012426 3.79017e-05
0.0 0.0 0.0 0.0 0.0012299864 0.00059594505 0.0003123871 6.0340873e-05
0.0 0.0 0.0 0.0 0.0 0.0 0.0 0.0
0.0006475338 0.00028636967 0.0007839841 0.00014715515 0.0 0.0 0.0 0.0
0.0 0.0 0.0 0.0 0.0 0.0 0.0 0.0
0.00043386294 0.00012710568 0.00044892446 7.900496e-05 0.00043232768 0.00019431565 0.00044466177 8.504522e-05
0.0011732137 0.0002872581 0.0007640454 0.000115476694 0.0021073339 0.00048564037 0.001672194 0.0002667702
0.0 0.0 0.0 0.0 0.00024738171 8.2604616e-05 0.00022146897 4.0952644e-05
0.0008757675 0.00022444775 0.00078688073 0.00013893799 0.0 0.0 0.0 0.0
0.0 0.0 0.0 0.0 0.0 0.0 0.0 0.0
7.148189e-05 3.2773427e-05 5.908311e-06 1.5829013e-07 0.0 0.0 0.0 0.0
0.0 0.0 0.0 0.0 0.0 0.0 0.0 0.0
0.00023176125 9.018002e-05 0.00029530347 5.377581e-05 8.5646985e-07 5.2422007e-07 5.460649e-08 1.7279641e-09
0.00041777964 0.00022261056 0.0004960948 9.626658e-05 0.00056825456 0.00017282933 0.00033960497 4.3335986e-05
0.0005639633 0.00012462457 0.0004273974 6.62678e-05 0.0016583184 0.00088118634 0.00051170844 9.1617505e-05
0.0 0.0 0.0 0.0 0.0 0.0 0.0 0.0
0.0 0.0 0.0 0.0 0.0023508056 0.0010263601 0.0007864297 8.81183e-05
0.0 0.0 0.0 0.0 0.0003263176 0.00019931768 7.8516794e-05 1.3263981e-05
0.0 0.0 0.0 0.0 0.0001062282 2.9379604e-05 0.00011447939 1.8711778e-05
0.0004681543 0.00024806516 0.0002977428 4.5479926e-05 0.003967472 0.00087920006 0.002234913 0.0002703275
0.0 0.0 0.0 0.0 0.0 0.0 0.0 0.0
0.0004570687 0.000257636 0.00039807695 6.317797e-05 0.0 0.0 0.0 0.0
0.0002737562 0.00014705327 0.00024126815 3.9817074e-05 0.00031897862 0.00011788201 0.00032736943 6.101211e-05
0.0004204496 0.00011999317 0.00022173447 2.2987773e-05 0.0 0.0 0.0 0.0
0.0 0.0 0.0 0.0 1.1463343e-05 2.8407776e-06 9.529205e-06 1.5272633e-06
0.0009341886 0.00019240515 0.00054047874 6.0608574e-05 0.0005208765 0.00018997125 0.00048794138 9.2615024e-05
0.0002367902 4.1056384e-05 0.00015594189 1.9013074e-05 0.0 0.0 0.0 0.0
0.0028502874 0.00060896773 0.002045558 0.00029957603 0.0 0.0 0.0 0.0
0.00019087271 5.542286e-05 0.00018300307 3.3363387e-05 0.00031929393 7.7199315e-05 0.00017646301 1.8064266e-05
0.0005743729 0.0002488334 0.00034150062 6.0659047e-05 0.0 0.0 0.0 0.0

exp_avg f4 [64]
00000000: 0000 0000 8b93 742e 4564 0bbb 9f7f 2e3b
00000010: e7c9 8b3a f9d8 d9bb 0000 0000 e3a4 f4bb
00000020: 0000 0000 0000 0000 8d9a 0abb 0000 0000
00000030: 0000 0000 0000 0000 764c f6ba 9c3f 24bb
00000040: 2498 04bc d015 b3bb 0000 0000 8784 123b
00000050: 4c18 373b 0000 0000 0000 0000 0000 0000
00000060: 6a7e 4339 0000 0000 0000 0000 0000 0000
00000070: bfbb 89ba d953 032e 115f b73a e3a0 56bb
00000080: b2a2 47bb 29e3 06bc 0000 0000 0000 0000
00000090: 0000 0000 ffc9 62ba 0000 0000 abdb a0bb
000000a0: 0000 0000 44fe 1aba 3b93 ddba d62a 073c
000000b0: 0000 0000 0000 0000 a15a 8aba 0000 0000
000000c0: 8556 ceba 6a67 023b f65c acba 0000 0000
000000d0: 0000 0000 8d3a 192e cfa2 623b 52a5 353b
000000e0: a8d3 6aba 0000 0000 f0f0 a53b 0000 0000
000000f0: ec19 b03a b26e 49bb 8cef d6bb 0000 0000
0.0 5.561022e-11 -0.0021269482 0.002662636 0.001066503 -0.0066481796 0.0 -0.007465945
0.0 0.0 -0.0021149248 0.0 0.0 0.0 -0.0018791098 -0.0025062328
-0.008092914 -0.0054652467 0.0 0.0022356824 0.0027938066 0.0 0.0 0.0
0.00018643742 0.0 0.0 0.0 -0.0010508223 2.9860423e-11 0.0013990124 -0.0032749705
-0.0030461964 -0.00823287 0.0 0.0 0.0 -0.00086513156 0.0 -0.004908999
0.0 -0.00059125223 -0.001690484 0.008249959 0.0 0.0 -0.0010555574 0.0
-0.0015742338 0.0019898065 -0.0013150263 0.0 0.0 3.4840176e-11 0.0034581905 0.0027716947
-0.0008957931 0.0 0.0050641224 0.0 0.001343546 -0.0030736146 -0.006559318 0.0

exp_avg_sq f4 [64]
00000000: 0000 0000 fbda a833 238b f036 f620 0838
00000010: 4fbb 6036 ad46 0f38 0000 0000 7b7b 5b38
00000020: 0000 0000 0000 0000 3566 cb37 0000 0000
00000030: 0000 0000 0000 0000 3ce1 5a37 257f 8a37
00000040: 4d4b 1238 e436 7338 0000 0000 c4d7 0b37
00000050: 29d9 cd37 0000 0000 0000 0000 0000 0000
00000060: abf4 4036 0000 0000 0000 0000 0000 0000
00000070: ec49 0537 f2b0 1433 0404 9537 9623 9337
00000080: 42c9 7e37 c2c2 9f38 0000 0000 0000 0000
00000090: 0000 0000 d63e bd38 0000 0000 15c1 8037
000000a0: 0000 0000 4ae3 4936 1e9e a437 c6a1 e238
000000b0: 0000 0000 0000 0000 5006 a437 0000 0000
000000c0: e791 3e37 70b5 3b37 85ff 4c37 0000 0000
000000d0: 0000 0000 33ab c834 44d8 da37 6759 9837
000000e0: 909d c636 0000 0000 0dca 9e38 0000 0000
000000f0: ebcd be36 f2e7 1837 aa52 c237 0000 0000
0.0 7.862942e-08 7.168755e-06 3.2455624e-05 3.348763e-06 3.415968e-05 0.0 5.232867e-05
0.0 0.0 2.424708e-05 0.0 0.0 0.0 1.3046254e-05 1.6510088e-05
3.4879242e-05 5.7986836e-05 0.0 8.3352825e-06 2.4539027e-05 0.0 0.0 0.0
2.8752645e-06 0.0 0.0 0.0 7.944629e-06 3.4619866e-08 1.7764054e-05 1.7540337e-05
1.5186439e-05 7.617987e-05 0.0 0.0 0.0 9.0239264e-05 0.0 1.53487e-05
0.0 3.0083634e-06 1.9623953e-05 0.000108066524 0.0 0.0 1.9553263e-05 0.0
1.1358853e-05 1.1188313e-05 1.221884e-05 0.0 0.0 3.7377467e-07 2.6088332e-05 1.8161443e-05
5.9192025e-06 0.0 7.571662e-05 0.0 5.6864133e-06 9.11391e-06 2.3165096e-05 0.0

exp_avg f4 [3, 64]
00000000: 0000 0000 b1c1 4f2e 7de5 60bc d6e8 66bc
00000010: d474 2c3d 4aba 3abd 0000 0000 ce20 30bd
00000020: 0000 0000 0000 0000 8144 173d 0000 0000
00000030: 0000 0000 0000 0000 4258 253d 14a8 01bd
00000040: 549f aabc 973c 8c3c 0000 0000 ff29 aa3d
00000050: bc60 a13d 0000 0000 0000 0000 0000 0000
00000060: b13b fbb9 0000 0000 0000 0000 0000 0000
00000070: f685 593c a411 dbad c685 4b3d 0e42 adbc
00000080: 9570 ed3c 0341 aabd 0000 0000 0000 0000
00000090: 0000 0000 7366 f4bc 0000 0000 4f10 84bd
000000a0: 0000 0000 c424 823d aa69 fdbc 549d f73c
000000b0: 0000 0000 0000 0000 8a60 903c 0000 0000
000000c0: d428 9bbc 5ae4 d43c 52fe ea3c 0000 0000
000000d0: 0000 0000 a2ef 8a2c d6ea 9b3b be61 863d
000000e0: a54a 0f3a 0000 0000 3cb5 94bc 0000 0000
000000f0: 2dd3 bc3d e8bc 9c3c d873 02bd 0000 0000
00000100: 0000 0000 53a6 572e 3e7b d7bc c16f 86bc
00000110: b68d 7abc dcd2 eebc 0000 0000 cf31 883c
00000120: 0000 0000 0000 0000 f31c 97bd 0000 0000
00000130: 0000 0000 0000 0000 7952 23bd ec7b 453b
00000140: 703b b4bc 0667 ebbc 0000 0000 8e31 66bd
00000150: 6e7d 23bd 0000 0000 0000 0000 0000 0000
00000160: 1604 c139 0000 0000 0000 0000 0000 0000
00000170: 6278 80bc 96b4 6d2d 394b b2bd 637c 863a
00000180: 5e35 92bd 324f 0ebd 0000 0000 0000 0000
00000190: 0000 0000 2957 913c 0000 0000 de24 84bc
000001a0: 0000 0000 4183 46bd b258 393c d445 20bc
000001b0: 0000 0000 0000 0000 e947 54bd 0000 0000
000001c0: f287 24bd 7b69 1bbd 12e2 37bc 0000 0000
000001d0: 0000 0000 2079 a22c bea4 843c 4a03 3dbd
000001e0: 9b5d 0f3b 0000 0000 03bb 78bc 0000 0000
000001f0: 07a2 0fbd 8ac0 13bd a1ba 87bc 0000 0000
00000200: 0000 0000 02b4 d3ae 00f7 233d 2ce4 f93c
00000210: c7a2 dbbc dd11 993d 0000 0000 cd0f d83c
00000220: 0000 0000 0000 0000 68f5 163d 0000 0000
00000230: 0000 0000 0000 0000 d970 01ba aca0 ea3c
00000240: 636d 2f3d e654 3e3c 0000 0000 e644 dcbc
00000250: 0744 1fbd 0000 0000 0000 0000 0000 0000
00000260: 6ede e838 0000 0000 0000 0000 0000 0000
00000270: 45ab 1d3b a96e 482d b810 193d 48da a43c
00000280: 73b2 2d3d 9e68 f13d 0000 0000 0000 0000
00000290: 0000 0000 921e 463c 0000 0000 8819 a53d
000002a0: 0000 0000 1219 77bc 51bd a03c 657a a7bc
000002b0: 0000 0000 0000 0000 a817 0c3d 0000 0000
000002c0: 5c1c 723d 4ddd 433c 440d 8fbc 0000 0000
000002d0: 0000 0000 68b4 16ad 759f abbc 5e80 9fbc
000002e0: 4430 33bb 0000 0000 5f89 083d 0000 0000
000002f0: 5204 6abd 2dc4 8a3c 2851 463d 0000 0000
0.0 4.7238383e-11 -0.013726589 -0.014093598 0.042103603 -0.045587815 0.0 -0.043000035
0.0 0.0 0.036930565 0.0 0.0 0.0 0.040367372 -0.031654432
-0.020827927 0.017118735 0.0 0.08308791 0.07879779 0.0 0.0 0.0
-0.00047918924 0.0 0.0 0.0 0.013276568 -2.4905251e-11 0.049688123 -0.021149661
0.028984347 -0.08313181 0.0 0.0 0.0 -0.029834008 0.0 -0.06448423
0.0 0.06354669 -0.030934174 0.030226387 0.0 0.0 0.017624158 0.0
-0.018940367 0.025987793 0.028685723 0.0 0.0 3.9488005e-12 0.0047582192 0.065616116
0.000546614 0.0 -0.018152826 0.0 0.09219966 0.019133046 -0.03184876 0.0
0.0 4.9033066e-11 -0.026303884 -0.01641071 -0.015292576 -0.02915328 0.0 0.016625313
0.0 0.0 -0.073785685 0.0 0.0 0.0 -0.039873574 0.0030133678
-0.022000998 -0.028735649 0.0 -0.056199603 -0.03991454 0.0 0.0 0.0
0.00036814873 0.0 0.0 0.0 -0.015682403 1.3511988e-11 -0.08705754 0.0010260459
-0.07139085 -0.034743495 0.0 0.0 0.0 0.017741757 0.0 -0.01613086
0.0 -0.048465017 0.0113126505 -0.009782273 0.0 0.0 -0.05182639 0.0
-0.04016871 -0.03794239 -0.011223333 0.0 0.0 4.6177645e-12 0.016191836 -0.046145715
0.0021875862 0.0 -0.015181306 0.0 -0.03506663 -0.03607229 -0.016568484 0.0
0.0 -9.627145e-11 0.04003048 0.030504309 -0.026811017 0.0747411 0.0 0.026374722
0.0 0.0 0.03685513 0.0 0.0 0.0 -0.0004937775 0.028641067
0.04282893 0.011616921 0.0 -0.026888322 -0.038883235 0.0 0.0 0.0
0.00011104053 0.0 0.0 0.0 0.0024058383 1.1393255e-11 0.03736946 0.020123616
0.04240651 0.11787532 0.0 0.0 0.0 0.0120922495 0.0 0.0806151
0.0 -0.015081661 0.019621523 -0.020444104 0.0 0.0 0.034202248 0.0
0.059109077 0.011954618 -0.01746238 0.0 0.0 -8.566571e-12 -0.020950058 -0.01947039
-0.0027342 0.0 0.033334132 0.0 -0.057133026 0.016939247 0.04841724 0.0

exp_avg_sq f4 [3, 64]
00000000: 0000 0000 1005 e033 4e1f 4a3a c380 ab3a
00000010: 3cb1 2e3b 6808 453b 0000 0000 95c7 5e3a
00000020: 0000 0000 0000 0000 2c67 263c 0000 0000
00000030: 0000 0000 0000 0000 f11e c13b 2d16 b83a
00000040: 4fff 143a 49d5 bc3a 0000 0000 1407 823c
00000050: 59b7 cf3b 0000 0000 0000 0000 0000 0000
00000060: 7e6b f537 0000 0000 0000 0000 0000 0000
00000070: 311a 5d3a c342 8733 474c 813c 0a9e c23a
00000080: d605 e63b 69e0 693c 0000 0000 0000 0000
00000090: 0000 0000 f0dc c239 0000 0000 bfdf ba3b
000000a0: 0000 0000 bcdd d33b 98d1 3b3a f9cc 053b
000000b0: 0000 0000 0000 0000 3ec8 db3b 0000 0000
000000c0: 36ae c23a 1eb2 cf3b 5fef 933a 0000 0000
000000d0: 0000 0000 0124 4532 41a4 0b3a c384 843b
000000e0: 6ae5 1f37 0000 0000 a71f 123b 0000 0000
000000f0: bca9 033c 033d 5439 e83d 523a 0000 0000
00000100: 0000 0000 9ef3 1434 c18e cd3a c497 913a
00000110: c5a3 213c fd77 1c3a 0000 0000 c811 8139
00000120: 0000 0000 0000 0000 9084 0d3d 0000 0000
00000130: 0000 0000 0000 0000 daa8 973c d16c 793a
00000140: 2a63 9139 b5d8 933b 0000 0000 c7f7 613d
00000150: 3729 d73b 0000 0000 0000 0000 0000 0000
00000160: 5e4d 2937 0000 0000 0000 0000 0000 0000
00000170: 325c f33a 59c9 da32 0581 5c3d b4e4 0d3a
00000180: 4db1 c83c 7e9d 213b 0000 0000 0000 0000
00000190: 0000 0000 f5eb b838 0000 0000 aa7c 8b3a
000001a0: 0000 0000 cb8f 483c 4bfa a639 026a cb3b
000001b0: 0000 0000 0000 0000 8cf2 993c 0000 0000
000001c0: a15d 263b cb24 a63c 64d4 733b 0000 0000
000001d0: 0000 0000 eab6 8e32 baa0 2239 3af1 0e3c
000001e0: ee54 1237 0000 0000 3963 893a 0000 0000
000001f0: 43a3 023c 3588 6d3a 7ea1 4239 0000 0000
00000200: 0000 0000 dda4 0135 f69d ce3a 190c 9b3a
00000210: acb5 273c 2e71 063b 0000 0000 a042 6d39
00000220: 0000 0000 0000 0000 9abd 0c3d 0000 0000
00000230: 0000 0000 0000 0000 d779 a63c 4cbb 6b3a
00000240: 3e5e 133a a438 9e3b 0000 0000 57c8 6c3d
00000250: b98c 143c 0000 0000 0000 0000 0000 0000
00000260: d19b b536 0000 0000 0000 0000 0000 0000
00000270: dea2 163b dfa9 1832 1cca 4d3d 7ae6 283a
00000280: 39bd c13c fd49 023c 0000 0000 0000 0000
00000290: 0000 0000 3223 0139 0000 0000 7a94 2e3b
000002a0: 0000 0000 8ff2 793c 536b 9739 7840 e73b
000002b0: 0000 0000 0000 0000 fd70 893c 0000 0000
000002c0: 67c8 2d3b 34f2 993c 4652 8c3b 0000 0000
000002d0: 0000 0000 a735 6f33 86d2 523a 351e 1f3c
000002e0: 82c8 0338 0000 0000 bd61 c13a 0000 0000
000002f0: 1a02 443c 178c 323a 774d 1a3a 0000 0000
0.0 1.0431734e-07 0.0007710353 0.0013084639 0.0026655933 0.0030064825 0.0 0.0008498368
0.0 0.0 0.010156434 0.0 0.0 0.0 0.005893581 0.0014044695
0.0005683796 0.0014406826 0.0 0.015872516 0.0063389954 0.0 0.0 0.0
2.925633e-05 0.0 0.0 0.0 0.0008434384 6.298571e-08 0.015783442 0.0014848125
0.0070197387 0.014274695 0.0 0.0 0.0 0.00037167175 0.0 0.005702942
0.0 0.006465642 0.0007164716 0.0020416363 0.0 0.0 0.0067072203 0.0
0.0014852944 0.006338372 0.0011286548 0.0 0.0 1.14750955e-08 0.0005326905 0.0040441467
9.530553e-06 0.0 0.0022296698 0.0 0.008036073 0.00020240624 0.0008020089 0.0
0.0 1.3872202e-07 0.0015682803 0.0011107852 0.009865706 0.00059688074 0.0 0.00024618045
0.0 0.0 0.03455025 0.0 0.0 0.0 0.018513132 0.0009514811
0.00027730438 0.0045119175 0.0 0.05516794 0.0065661925 0.0 0.0 0.0
1.0091198e-05 0.0 0.0 0.0 0.0018566905 2.5470102e-08 0.05383398 0.00054128026
0.024498606 0.0024660523 0.0 0.0 0.0 8.817754e-05 0.0 0.0010642011
0.0 0.012241314 0.0003184847 0.0062077055 0.0 0.0 0.018792413 0.0
0.0025385397 0.020281216 0.0037205452 0.0 0.0 1.6614155e-08 0.00015509399 0.008724505
8.722052e-06 0.0 0.0010481841 0.0 0.007973495 0.0009061129 0.00018561442 0.0
0.0 4.829615e-07 0.0015763629 0.0011829167 0.010236185 0.0020514238 0.0 0.00022626901
0.0 0.0 0.034360506 0.0 0.0 0.0 0.02032177 0.0008992448
0.0005621648 0.0048285294 0.0 0.057808246 0.009066754 0.0 0.0 0.0
5.4123598e-06 0.0 0.0 0.0 0.002298526 8.886189e-09 0.050241575 0.0006443035
0.023649799 0.0079522105 0.0 0.0 0.0 0.0001231551 0.0 0.0026638792
0.0 0.015255584 0.00028880927 0.007057246 0.0 0.0 0.01677751 0.0
0.0026517154 0.01879225 0.0042822687 0.0 0.0 5.569532e-08 0.00080422347 0.009711792
3.141957e-05 0.0 0.001475386 0.0 0.011963392 0.0006811036 0.0005886177 0.0

exp_avg f4 [3]
00000000: eb18 90ba 883f e9bc 1841 f23c
-0.0010993754 -0.028472677 0.029572055

exp_avg_sq f4 [3]
00000000: e384 6b3a 99da ec3a 0571 db3a
0.000898434 0.0018070518 0.0016742056
