assignments/pytorch_basics/session_5/lightning_logs/version_1/checkpoints/epoch=4-step=30.ckpt (torch, 13411 bytes, 12 tensors)

l1.weight f4 [64, 4]
0	0xbeba13d8	-0.36343265
1	0x3e57d424	0.21077019
2	0xbd840f70	-0.06448257
3	0xbcf0f320	-0.029412806
4	0xbed6ffb4	-0.4199196
5	0x3e043c2c	0.12913579
6	0xbda002e0	-0.07813048
7	0xbeb9ecbc	-0.36313426
8	0x3ecd05db	0.4004353
9	0xbe9c3e14	-0.30516112
10	0xbee8c140	-0.45459938
11	0xbebe75aa	-0.37199146
12	0x3eed954f	0.46402976
13	0xbe0f72a7	-0.1400858
14	0xbea0f37a	-0.31435758
15	0xbdbb2996	-0.09138791
16	0x3e67b0ab	0.22625987
17	0x3e8a1429	0.26968506
18	0x3e402505	0.18764122
19	0xbe668c8d	-0.22514553
20	0x3eeaa155	0.45826212
21	0xbe2cf5b8	-0.1689061
22	0xbe0e77fb	-0.13912956
23	0x3dac8585	0.08423904
24	0x3e16bce0	0.14720488
25	0xbe47a694	-0.19497138
26	0xbeecbfbc	-0.46240032
27	0xbe66e42c	-0.22547978
28	0x3dbb437b	0.0914373
29	0x3e88351d	0.26603022
30	0xbe91e6f0	-0.28496504
31	0x3dd07445	0.10178427
32	0xbd13b4d0	-0.036061108
33	0x3ec17a69	0.37788704
34	0x3e60d5b8	0.21956527
35	0x3e31d846	0.17367658
36	0xbe3fb5c0	-0.18721676
37	0xbe46cffc	-0.19415277
38	0xbe586d60	-0.21135473
39	0x3e85d86e	0.26141685
40	0x3ed855d9	0.42252997
41	0x3f00c5e6	0.5030197
42	0x3eb05002	0.3443604
43	0xbee37dbf	-0.44431874
44	0xbe99f434	-0.30069125
45	0x3e09a4c4	0.1344176
46	0x3e921692	0.28532845
47	0xbe96b8ac	-0.29437768
48	0xbe1d1068	-0.1533829
49	0x3eda499f	0.42634293
50	0xbda221f9	-0.07916636
51	0xbb43633f	-0.0029813794
52	0x3bdcc880	0.0067377687
53	0xbea9e114	-0.33179533
54	0x3cbc3a40	0.022976995
55	0xbe3f4ae0	-0.18680906
56	0x3ea93359	0.33046988
57	0xbebc264a	-0.36747962
58	0x3ed33c25	0.41256824
59	0x3eb35dd5	0.35032526
60	0x3efce126	0.49390525
61	0x3efcbc30	0.49362326
62	0xbe814171	-0.2524524
63	0xbece6501	-0.40311435
64	0xbede6278	-0.434345
65	0x3da76e18	0.081752956
66	0xbe74d9b8	-0.23911178
67	0xbe44b0d8	-0.19208086
68	0xbd243aba	-0.04009507
69	0xbecbba31	-0.3979049
70	0x3e90a40d	0.2825016
71	0xbea180bb	-0.31543526
72	0x3e87db43	0.2653447
73	0x3d0e28a5	0.03470673
74	0xbe82596e	-0.25458854
75	0xbea37d85	-0.319317
76	0xbe90c83b	-0.28277764
77	0x3f014673	0.5049812
78	0x3eb64431	0.355989
79	0x3ee5ad2a	0.44858676
80	0x3e7f3afc	0.24924845
81	0x3d7b44c6	0.061344884
82	0x3e839f6f	0.25707576
83	0xbe1eb08b	-0.15497033
84	0xbe3cb69c	-0.18429035
85	0x3e8e2330	0.2776122
86	0xbe841aa2	-0.2580157
87	0xbd628040	-0.05529809
88	0xbdd30738	-0.10304111
89	0xbcbaa000	-0.022781372
90	0x3e2553d8	0.16145265
91	0xbaf8d200	-0.0018983483
92	0xbe8a8b62	-0.27059466
93	0xbe179a0c	-0.14804858
94	0xbedcbefa	-0.43114454
95	0x3e675380	0.22590446
96	0xbe81f5b8	-0.2538278
97	0xbef1ee6e	-0.4725222
98	0xbe971812	-0.29510552
99	0xbe12c0b8	-0.14331329
100	0x3e53e15c	0.20691437
101	0x3ef543c1	0.47903255
102	0x3e73d553	0.23811845
103	0x3eda8f85	0.42687622
104	0x3e30b3e7	0.17256127
105	0x3dd43c4d	0.10363064
106	0xbe137771	-0.14401032
107	0xbe31f017	-0.17376743
108	0x3e8bdbad	0.27316037
109	0xbe723363	-0.23652415
110	0x3cf5c52e	0.03000125
111	0x3d83ef23	0.06442096
112	0x3b4eaab4	0.0031534852
113	0xbeac1663	-0.3361083
114	0x3e8c44bd	0.27396193
115	0x3e479261	0.19489433
116	0x3e68c5a3	0.22731642
117	0x3e11bcf1	0.14232232
118	0x3d84d5d7	0.06486099
119	0x3dbf2608	0.09333426
120	0x3daeac40	0.08528948
121	0xbef3b874	-0.47601664
122	0xbc938da0	-0.018011868
123	0x3df15f58	0.117857635
124	0xbd8a26f8	-0.06745714
125	0xbe95988a	-0.2921794
126	0x3e0ed5d4	0.13948756
127	0xbeebf5f8	-0.46086097
128	0x3e53a48a	0.20668235
129	0x3eecf1e3	0.46278295
130	0x3ee5a49f	0.44852158
131	0xbeca4353	-0.3950449
132	0x3d128fbb	0.035781603
133	0xbe9f79ad	-0.3114752
134	0x3ecd9153	0.40149936
135	0x3f024f3f	0.5090217
136	0x3deae873	0.114701174
137	0xbdcd4eee	-0.1002482
138	0x3e853643	0.2601796
139	0x3dcae130	0.09906232
140	0x3eb19602	0.3468476
141	0xbe9a723e	-0.30165285
142	0xbef6cc3c	-0.48202693
143	0xbe73cb1c	-0.23807949
144	0xbe4a35a2	-0.19747022
145	0x3e5e9861	0.21737815
146	0xbe9c5aa5	-0.30537906
147	0xbeae3b5d	-0.34029666
148	0x3eeb2173	0.45923957
149	0xbe8fb464	-0.28067315
150	0xbd490390	-0.049075663
151	0x3ebfec4e	0.37484974
152	0x3e11e1dd	0.14246316
153	0x3ec74657	0.38920853
154	0xbeb05c89	-0.344456
155	0x3eef7547	0.46769163
156	0xbdc1b64d	-0.09458599
157	0x3eff4067	0.49853823
158	0xbeb703e5	-0.3574516
159	0xbd3857da	-0.045005657
160	0xbed8281a	-0.42218095
161	0x3ec52972	0.38508183
162	0x3d57acf0	0.05265516
163	0xbeb07214	-0.34462035
164	0x3d996908	0.07490736
165	0xbe420d2c	-0.18950337
166	0xbeb172ec	-0.3465799
167	0x3e4fac00	0.20280457
168	0x3ea52d74	0.3226124
169	0x3eddcf19	0.43322065
170	0xbe1791df	-0.14801739
171	0x3e9b26ae	0.30302948
172	0xbc60018c	-0.013672244
173	0x3dcfbd1f	0.10143494
174	0x3ee83399	0.45351866
175	0xbe0c1f44	-0.13683802
176	0xbe88d498	-0.26724696
177	0xbc63eb80	-0.013911128
178	0xbeb0bd06	-0.34519213
179	0x3eee5a4e	0.46553272
180	0xbeb0fd28	-0.34568143
181	0xbe9a2afe	-0.30110925
182	0xbbb80180	-0.005615413
183	0xbe0652b8	-0.13117492
184	0xbeb50198	-0.35352778
185	0xbe958f40	-0.29210854
186	0x3e4ab0d4	0.19794017
187	0x3e8dfa84	0.2773019
188	0xbe318a24	-0.17337853
189	0x3ed04755	0.40679422
190	0xbc665c69	-0.014060118
191	0xbda277e3	-0.07933023
192	0xbecb3a0a	-0.39692718
193	0xbea483a4	-0.32131684
194	0x3d95cbd8	0.07314271
195	0xbea17a0a	-0.3153842
196	0x3eb02648	0.34404206
197	0x3e9d981e	0.3078012
198	0x3d9a871b	0.075453006
199	0x3ec991c7	0.39369032
200	0xbe96048c	-0.29300344
201	0x3d2bb340	0.041918993
202	0xbeb50e36	-0.35362405
203	0x3e6e635c	0.2328009
204	0xbe13d86e	-0.1443803
205	0xbd3c9f63	-0.04605044
206	0x3d564b3d	0.052317847
207	0x3e9067b4	0.2820412
208	0x3eb4e44a	0.3533042
209	0xbd67b5df	-0.05656993
210	0xbef18668	-0.47172856
211	0xbebfda46	-0.37471217
212	0xbd121f1b	-0.035674196
213	0x3ea77b15	0.32711092
214	0x3ecf30f5	0.4046704
215	0x3c9d85d0	0.019228846
216	0x3ead2d23	0.338235
217	0x3e0b60e6	0.13611183
218	0x3eae53ce	0.34048313
219	0x3e62c8f1	0.22146966
220	0xbe8b1692	-0.27165657
221	0xbee3b22e	-0.44471878
222	0x3e9bbc1c	0.30416954
223	0xbebc8252	-0.36818177
224	0x3eb935c5	0.36173835
225	0x3ece4cd9	0.40293005
226	0xbdad761f	-0.084697954
227	0x3e924089	0.2856486
228	0xbe0b68ac	-0.13614148
229	0xbe0dd8d0	-0.13852239
230	0xbefa1190	-0.48841524
231	0xbee966a6	-0.45586127
232	0xbdad5c8d	-0.08464918
233	0x3e424c7c	0.18974489
234	0xbe365e72	-0.17809466
235	0xbcadbfb2	-0.021209572
236	0x3c81ade7	0.015829993
237	0x3e5a6bf5	0.21330245
238	0xbe4bf1b7	-0.19916426
239	0xbe828151	-0.25489286
240	0x3eb43d8c	0.35203207
241	0x3edf8d8c	0.4366268
242	0xbd9509f2	-0.072772875
243	0xbe7e8fc7	-0.24859534
244	0x3ea41746	0.32049006
245	0xbcbe228e	-0.023209836
246	0xbe9178ce	-0.2841248
247	0x3e21b483	0.15791516
248	0xbe0d7b04	-0.13816458
249	0xbe0bcf98	-0.1365341
250	0x3ebd74d6	0.370032
251	0xbec0d268	-0.37660527
252	0xbd3742e0	-0.04474151
253	0x3de71420	0.112831354
254	0xbe8c91e8	-0.27455068
255	0xbebc1174	-0.36732066

l1.bias f4 [64]
0	0xbec47792	-0.38372475
1	0xbee06c18	-0.4383247
2	0xbe12dbb2	-0.1434162
3	0xbc093ae7	-0.00837586
4	0x3ee880b8	0.45410705
5	0x3e86d0e3	0.26331243
6	0x3eac57b0	0.3366065
7	0x3df5a394	0.11994091
8	0x3e582677	0.21108423
9	0xbd2850e0	-0.041092753
10	0x3e19bdad	0.15013762
11	0xbecf1042	-0.4044209
12	0x3e48c308	0.19605649
13	0x3e7cca94	0.24686652
14	0xbedb2481	-0.42801288
15	0xbe06384a	-0.1310741
16	0xbe8efcea	-0.27927333
17	0x3d93b190	0.07211602
18	0x3e084a03	0.13309483
19	0x3df49ccf	0.11943971
20	0x3e40729d	0.18793721
21	0xbe896fd8	-0.26843143
22	0xbed85704	-0.42253888
23	0xbc2462c0	-0.010033309
24	0x3ea57a2c	0.32319772
25	0x3d0ec1d1	0.034852806
26	0x3e67fd31	0.22655179
27	0x3ef539fb	0.47895798
28	0x3dc161ce	0.09442483
29	0x3eea345d	0.45743075
30	0x3e534da0	0.2063508
31	0x3e71947c	0.23591799
32	0x3e6897d2	0.22714165
33	0xbe45abc3	-0.19303803
34	0x3e0ef37b	0.13960068
35	0xbeaa486a	-0.33258373
36	0x3ef163ea	0.4714654
37	0x3ed52a94	0.41634047
38	0xbe63b249	-0.22235979
39	0xbe04fa8f	-0.12986206
40	0xbddb4fd8	-0.10708588
41	0xbba88300	-0.0051425695
42	0x3eb08747	0.34478208
43	0xbe8e3af6	-0.2777936
44	0x3ed3123c	0.4122485
45	0x3ebdcf2e	0.37072128
46	0x3e61cad4	0.22050029
47	0xbec2ef29	-0.3807309
48	0x3daaa450	0.08332121
49	0xbe2325d8	-0.15932405
50	0x3eb3d810	0.3512578
51	0x3d1e9ed0	0.038725674
52	0x3e1bc2e2	0.1521106
53	0x3d76a22d	0.060213257
54	0x3e015e9f	0.12633751
55	0x3e787b78	0.2426585
56	0xbedc4603	-0.43022165
57	0xbeb3d846	-0.3512594
58	0x3ecae46e	0.39627403
59	0x3e9ed94d	0.31025162
60	0x3e02776f	0.12740873
61	0xbe68d0ff	-0.22735976
62	0xbef441fa	-0.47706586
63	0xbe2550c8	-0.16144097

l2.weight f4 [3, 64]
0	0x3d75b408	0.059986144
1	0xbdc23d34	-0.0948433
2	0xbcf31217	-0.029671712
3	0xbd9a7c09	-0.07543189
4	0xbd4479e2	-0.0479678
5	0xbdc60563	-0.09668996
6	0xbc8e0cd8	-0.017340109
7	0x3d419920	0.047265172
8	0x3d123c62	0.035702117
9	0xbd54f4ec	-0.05199139
10	0xbd392940	-0.045205355
11	0xbdbca226	-0.09210615
12	0x3e090e29	0.13384308
13	0xbdd8aef4	-0.10580245
14	0x3d42c73b	0.047553282
15	0xbdb91773	-0.09037676
16	0x3dff45e8	0.124645054
17	0x3dda751d	0.10666869
18	0x3dbd244c	0.09235439
19	0xbe0805cc	-0.13283461
20	0x3d69796b	0.05700056
21	0x3d973608	0.073833525
22	0x3d8d94e4	0.06913164
23	0x3dd3f0e0	0.10348678
24	0xbdc75d32	-0.097345725
25	0x3d50b8eb	0.0509576
26	0xbc358c3f	-0.011080801
27	0x3d05897a	0.03260181
28	0xbe10e33a	-0.1414918
29	0xbd0b388a	-0.033989467
30	0xbc102ed0	-0.0088002235
31	0xbd182348	-0.03714302
32	0x3db7dd34	0.08977738
33	0xbc8ffc44	-0.017576344
34	0x3cc3e17e	0.023911234
35	0x3d6775e0	0.0565089
36	0xbd390fdd	-0.045181144
37	0x3dab3f23	0.08361652
38	0x3db7e530	0.08979261
39	0x3e03f816	0.12887606
40	0xbdfe21b4	-0.12408772
41	0x3de4c5c2	0.11170532
42	0xbe0ce670	-0.1375978
43	0x3c9eea86	0.019398939
44	0x3d2f87c8	0.0428541
45	0xbdf8a972	-0.12141694
46	0x3d454150	0.04815799
47	0x3d0f370e	0.034964614
48	0xbd5308ec	-0.05152218
49	0x3d94688a	0.07246502
50	0xbca82d08	-0.020529285
51	0x3d756265	0.05990829
52	0xbd4f3cc4	-0.05059506
53	0xbd156ff6	-0.036483727
54	0xbd9e492b	-0.077287994
55	0x3dad55e2	0.084636465
56	0xbcf48c07	-0.029851926
57	0x3dd1f5ae	0.10251938
58	0x3cf4bd9c	0.029875569
59	0x3da02d6d	0.07821164
60	0xbd6030bd	-0.05473398
61	0xbccfa960	-0.025349319
62	0x3c50cf10	0.01274468
63	0xbbfa5660	-0.0076396912
64	0x3d84b054	0.064789444
65	0x3db7dec6	0.089780375
66	0xba613ba8	-0.00085919583
67	0xbd549d08	-0.05190757
68	0xbcc2c428	-0.023775175
69	0xbda0a3dc	-0.07843754
70	0xbdcd3a08	-0.10020834
71	0x3d1aa114	0.037751272
72	0xbd1c5503	-0.03816701
73	0xbd1493bc	-0.036273703
74	0xbb9a5dea	-0.0047109025
75	0xbda74b76	-0.0816869
76	0x3da5d3dc	0.080970496
77	0x3df8cf94	0.121489674
78	0x3deaa87e	0.114579186
79	0xbde90d98	-0.11379546
80	0x3dd86a74	0.10567179
81	0xbde1f73c	-0.11033484
82	0xbda754ee	-0.08170496
83	0xbde161ff	-0.110050194
84	0x3d68fee5	0.05688371
85	0x3dc4262e	0.09577595
86	0xbdcea8b4	-0.10090771
87	0xbd3bfbc4	-0.0458944
88	0xbc92f130	-0.017937273
89	0x3d6b6b99	0.05747566
90	0x39c8d1f0	0.00038303388
91	0x3da1cfc2	0.07900955
92	0x3d25690f	0.040383395
93	0xbd4990e1	-0.049210433
94	0x3d9848d6	0.07435767
95	0x3de70a1c	0.11281225
96	0x3c2d9c51	0.010596351
97	0x3db817b8	0.08988899
98	0xbdb0fb44	-0.08641675
99	0x3a287100	0.000642553
100	0xbd9a0c1e	-0.075218424
101	0xbc8a1a8e	-0.016858365
102	0xbdea12c2	-0.11429359
103	0x3d0fb6a7	0.0350863
104	0xbcaa9f40	-0.02082789
105	0xbd404240	-0.04693818
106	0xbd986937	-0.07441943
107	0xbda06407	-0.07831579
108	0x3db41fd8	0.08795136
109	0xbd7567d4	-0.05991347
110	0xbdae2b58	-0.08504361
111	0xbda0a02b	-0.078430496
112	0x3df56ea0	0.11983991
113	0x3d9d260e	0.07673274
114	0x3dc10e84	0.09426597
115	0xbc465567	-0.012105322
116	0xbd346e26	-0.04405036
117	0xbd5c12c3	-0.05372883
118	0xbc241b61	-0.010016293
119	0xbda9d6d4	-0.08292928
120	0xbdf7965a	-0.12089224
121	0xbb975720	-0.0046185404
122	0xbe0ef1e4	-0.13959461
123	0xbbea5f7c	-0.007152496
124	0xbc4af2f6	-0.012387028
125	0x3caceb31	0.021108242
126	0x3d80569a	0.06266518
127	0x3be85480	0.0070901513
128	0xbdcebf7e	-0.10095118
129	0x3de5eabe	0.11226414
130	0xbd917a12	-0.07103361
131	0x3da9f3e5	0.08298472
132	0xbcd8286c	-0.026386462
133	0xbd06069c	-0.032721147
134	0x3d67d4dc	0.056599483
135	0xbd99d8cd	-0.075120546
136	0x3de6ec8d	0.11275587
137	0x3d4425b8	0.047887534
138	0x3c922bae	0.017843094
139	0xbcae7868	-0.021297649
140	0xbd9a5b9d	-0.07537005
141	0x3bda4e80	0.00666219
142	0x3d7294c8	0.05922392
143	0xbd479fcc	-0.04873638
144	0xbdbc7062	-0.09201123
145	0xbdcb906b	-0.09939655
146	0xbe18a14c	-0.1490528
147	0xbcfe3902	-0.031033043
148	0x3d704b9a	0.05866585
149	0x3d54d030	0.051956356
150	0x3d90c328	0.07068473
151	0xbd7caba0	-0.06168711
152	0x3c56a180	0.013100028
153	0xbd4fcf39	-0.050734732
154	0x3db95da7	0.09051066
155	0xbdb69c8c	-0.08916578
156	0xbce045a2	-0.027376954
157	0xbcee313e	-0.029076215
158	0xbdc61654	-0.096722275
159	0x3d86c628	0.06580764
160	0x3d9f6a84	0.07783988
161	0x3d9f1cf2	0.07769193
162	0xbc06e5a2	-0.00823346
163	0x3dbc3a8c	0.091908544
164	0xbc22fb81	-0.0099476585
165	0xbcf034ef	-0.029322116
166	0xbdb2a5af	-0.08723008
167	0xbccfd00b	-0.025367757
168	0x3db37ea0	0.08764386
169	0x3da7fcd6	0.082025215
170	0x39c78802	0.00038057572
171	0xbd791332	-0.06080932
172	0xbd626708	-0.05527404
173	0x3db7623e	0.08954285
174	0x3d098994	0.03357847
175	0xbd2ada6d	-0.041712213
176	0xbd6f9e20	-0.05850041
177	0xbd829f26	-0.063780114
178	0xbd4adf24	-0.04952921
179	0xbdd92d3e	-0.106043324
180	0x3d758032	0.05993671
181	0xbd63d180	-0.055619717
182	0xbd37680a	-0.044776954
183	0xbcb1e570	-0.02171585
184	0xbd5ac187	-0.05340722
185	0xbd236b18	-0.039897054
186	0x3da7d524	0.0819495
187	0x3db616fc	0.08891103
188	0x3d9d973d	0.07694862
189	0xbbf58be2	-0.007493482
190	0x3dcafc7c	0.09911439
191	0xbdfafd90	-0.122553945

l2.bias f4 [3]
0	0xbe017296	-0.12641367
1	0x3d9c68d6	0.07637183
2	0x3dbeb16e	0.09311186

exp_avg f4 [64, 4]
0	0x00000000	0.0
1	0x00000000	0.0
2	0x00000000	0.0
3	0x00000000	0.0
4	0x00000000	0.0
5	0x00000000	0.0
6	0x00000000	0.0
7	0x00000000	0.0
8	0xba573cdb	-0.00082106673
9	0xb9f70328	-0.00047113863
10	0xb926290b	-0.00015846283
11	0x36c45abc	5.851818e-06
12	0xbc9622a0	-0.018327057
13	0x3ccf8dd2	0.02533618
14	0xbdd0c5fa	-0.10194011
15	0xbd4793d9	-0.048724983
16	0x3bc825f4	0.00610804
17	0x3c017834	0.007902194
18	0xbbb5781a	-0.005537999
19	0xbb321496	-0.0027172915
20	0x3aa8f905	0.0012891596
21	0x3c531ce9	0.012885311
22	0xbcf4c46c	-0.029878817
23	0xbc72dbb0	-0.014822885
24	0x00000000	0.0
25	0x00000000	0.0
26	0x00000000	0.0
27	0x00000000	0.0
28	0xbb570462	-0.003280901
29	0xbca58cbd	-0.02020871
30	0x3d4e91c4	0.05043198
31	0x3cdd85df	0.027041374
32	0xbba604c3	-0.0050664856
33	0x3b770860	0.00376942
34	0xbcff0e8f	-0.031134872
35	0xbc9467ea	-0.018115956
36	0x00000000	0.0
37	0x00000000	0.0
38	0x00000000	0.0
39	0x00000000	0.0
40	0x3b4b17a6	0.0030989437
41	0x3c7cb526	0.0154240485
42	0xbcf565eb	-0.029955825
43	0xbc69be4b	-0.014266561
44	0x00000000	0.0
45	0x00000000	0.0
46	0x00000000	0.0
47	0x00000000	0.0
48	0xbe01aa64	-0.12662655
49	0xbdbe4178	-0.09289831
50	0xbc0fa639	-0.008767658
51	0x3c2f5b29	0.010702887
52	0x00000000	0.0
53	0x00000000	0.0
54	0x00000000	0.0
55	0x00000000	0.0
56	0x3c4517f4	0.012029637
57	0x3c37031f	0.011170178
58	0x3b47d714	0.0030493187
59	0x3b19251e	0.002336807
60	0xbb9142be	-0.004433005
61	0x3ba61635	0.0050685653
62	0xbccd5cf5	-0.02506874
63	0xbc52b983	-0.012861612
64	0x00000000	0.0
65	0x00000000	0.0
66	0x00000000	0.0
67	0x00000000	0.0
68	0x39a01a72	0.0003053728
69	0x38e8e0a7	0.00011104467
70	0x398b4f87	0.00026571398
71	0x38a65750	7.93176e-05
72	0xbe49d10d	-0.19708653
73	0xbe145343	-0.14484887
74	0xbd20f0fa	-0.039292313
75	0xbb1fef57	-0.0024404132
76	0xb8a60fa2	-7.918409e-05
77	0x3c972fd2	0.01845542
78	0xbd42ddce	-0.04757481
79	0xbcc1d40e	-0.023660686
80	0x3bf075c2	0.0073382566
81	0x3b10db7d	0.0022103481
82	0x3c111d63	0.008857104
83	0x3b6852eb	0.0035449814
84	0x00000000	0.0
85	0x00000000	0.0
86	0x00000000	0.0
87	0x00000000	0.0
88	0x00000000	0.0
89	0x00000000	0.0
90	0x00000000	0.0
91	0x00000000	0.0
92	0x00000000	0.0
93	0x00000000	0.0
94	0x00000000	0.0
95	0x00000000	0.0
96	0x00000000	0.0
97	0x00000000	0.0
98	0x00000000	0.0
99	0x00000000	0.0
100	0x3c98bc43	0.018644458
101	0xbc2f79bb	-0.010710175
102	0x3d8c005b	0.06836005
103	0x3d06dafe	0.03292369
104	0xbc876b74	-0.01653073
105	0x3c7b45a3	0.015336427
106	0xbd94d0e4	-0.07266405
107	0xbd0cac97	-0.034344282
108	0x3cbe5849	0.023235457
109	0xbc126728	-0.008935727
110	0x3da07881	0.07835484
111	0x3d1f52c0	0.038897276
112	0xbe12bb19	-0.14329185
113	0xbd87bafd	-0.06627462
114	0xbdd5d0fd	-0.10440252
115	0xbd06184b	-0.03273801
116	0x3bb54cfe	0.00553286
117	0x3a807b5d	0.000980239
118	0x3bd6d9c0	0.0065567195
119	0x3b087213	0.0020819947
120	0x00000000	0.0
121	0x00000000	0.0
122	0x00000000	0.0
123	0x00000000	0.0
124	0x00000000	0.0
125	0x00000000	0.0
126	0x00000000	0.0
127	0x00000000	0.0
128	0x3b4955ab	0.0030721228
129	0xbc11037f	-0.008850931
130	0x3c9e37ab	0.019313654
131	0x3bd7161d	0.0065639154
132	0xbdcfa82c	-0.10139498
133	0xbd3f1ab1	-0.046656314
134	0xbd9f4539	-0.07776875
135	0xbcd51ec1	-0.026015641
136	0x3b88dd2e	0.0041767573
137	0xbc7f0f30	-0.015567586
138	0x3d0fd06b	0.035110872
139	0x3c594020	0.0132599175
140	0x00000000	0.0
141	0x00000000	0.0
142	0x00000000	0.0
143	0x00000000	0.0
144	0x390a8978	0.00013211917
145	0x38d7965b	0.00010280005
146	0x37f3339a	2.8991886e-05
147	0x36bbf91d	5.602035e-06
148	0x3c4dc9fa	0.012560362
149	0xbccd2ea3	-0.025046652
150	0x3da3721b	0.07980748
151	0x3d11afda	0.035568096
152	0x3bf4f377	0.0074753123
153	0xbd394ab8	-0.045237273
154	0x3de3ff46	0.11132674
155	0x3d4883fe	0.048954003
156	0xbe0e9dea	-0.13927427
157	0xbdc29361	-0.095007665
158	0xbd2ad1b7	-0.041703906
159	0xbbecf94d	-0.0072318674
160	0x00000000	0.0
161	0x00000000	0.0
162	0x00000000	0.0
163	0x00000000	0.0
164	0x00000000	0.0
165	0x00000000	0.0
166	0x00000000	0.0
167	0x00000000	0.0
168	0xbb79afc5	-0.0038099152
169	0x3ce7f60a	0.028315563
170	0xbd9b5f22	-0.075865045
171	0xbd139da3	-0.036039006
172	0x3c25aa01	0.010111333
173	0xbca7f962	-0.020504657
174	0x3d801419	0.06253833
175	0x3cdd99f4	0.02705095
176	0x00000000	0.0
177	0x00000000	0.0
178	0x00000000	0.0
179	0x00000000	0.0
180	0x00000000	0.0
181	0x00000000	0.0
182	0x00000000	0.0
183	0x00000000	0.0
184	0x00000000	0.0
185	0x00000000	0.0
186	0x00000000	0.0
187	0x00000000	0.0
188	0xbd45d97f	-0.048303124
189	0xbd0d2eb7	-0.03446838
190	0xbc6ca160	-0.014442772
191	0xbb1ec1e0	-0.0024224445
192	0x00000000	0.0
193	0x00000000	0.0
194	0x00000000	0.0
195	0x00000000	0.0
196	0x3cb372b5	0.021905283
197	0xbc7f6479	-0.015587919
198	0x3db466ad	0.08808646
199	0x3d2e55da	0.042562343
200	0x00000000	0.0
201	0x00000000	0.0
202	0x00000000	0.0
203	0x00000000	0.0
204	0x3cdf21ab	0.027237734
205	0x3c573a33	0.013136434
206	0x3cc3850b	0.02386715
207	0x3c1b9d2f	0.009497925
208	0x3de030b9	0.10946793
209	0x3d9796e7	0.07401829
210	0x3d097202	0.033555992
211	0x3bc73d9b	0.006080342
212	0x3c10b36f	0.008831843
213	0xbb297b3e	-0.0025860812
214	0x3cb8c7f7	0.022556288
215	0x3c1f8868	0.009737112
216	0x3c157921	0.009123118
217	0x3c6ab688	0.014325745
218	0xbc362e3e	-0.011119423
219	0xbb91eff9	-0.004453656
220	0x00000000	0.0
221	0x00000000	0.0
222	0x00000000	0.0
223	0x00000000	0.0
224	0x3b4bd02c	0.0031099422
225	0xbc3e96df	-0.01163265
226	0x3cd12a21	0.025532784
227	0x3c198d13	0.009372014
228	0x00000000	0.0
229	0x00000000	0.0
230	0x00000000	0.0
231	0x00000000	0.0
232	0xbc3d8231	-0.011566685
233	0xbbfe4051	-0.007759132
234	0xbb65b637	-0.0035051235
235	0xba20a187	-0.0006127585
236	0xbbdd84ae	-0.0067602014
237	0xbba42fbc	-0.005010573
238	0xbab31976	-0.0013664204
239	0x3813a877	3.5204426e-05
240	0xbbcba3d1	-0.006214597
241	0x3ccd0829	0.025028305
242	0xbd987efb	-0.074460946
243	0xbd123886	-0.035698436
244	0x3a882de0	0.0010389648
245	0x3c23349f	0.009961276
246	0xbc8c43dd	-0.017122203
247	0xbbdf69bd	-0.006818025
248	0x00000000	0.0
249	0x00000000	0.0
250	0x00000000	0.0
251	0x00000000	0.0
252	0x00000000	0.0
253	0x00000000	0.0
254	0x00000000	0.0
255	0x00000000	0.0

exp_avg_sq f4 [64, 4]
0	0x00000000	0.0
1	0x00000000	0.0
2	0x00000000	0.0
3	0x00000000	0.0
4	0x00000000	0.0
5	0x00000000	0.0
6	0x00000000	0.0
7	0x00000000	0.0
8	0x37d0b1a0	2.4878245e-05
9	0x373f534e	1.1403883e-05
10	0x360ec795	2.127582e-06
11	0x3389fad7	6.425187e-08
12	0x3aca69fa	0.001544296
13	0x3995f193	0.0002859948
14	0x3acb8014	0.0015525841
15	0x397d388e	0.00024149028
16	0x379eca4f	1.8929275e-05
17	0x36c28bed	5.79794e-06
18	0x3735db29	1.0839468e-05
19	0x35c3a965	1.4577932e-06
20	0x38afcc66	8.3827224e-05
21	0x37a77e09	1.9966641e-05
22	0x38afa7e7	8.3759245e-05
23	0x37665efd	1.37311845e-05
24	0x00000000	0.0
25	0x00000000	0.0
26	0x00000000	0.0
27	0x00000000	0.0
28	0x3a406ac2	0.0007340127
29	0x3928e3c3	0.00016106576
30	0x3a19bcc5	0.00058646157
31	0x38bd309b	9.021276e-05
32	0x3a004e5b	0.00048944884
33	0x38f363a3	0.00011605702
34	0x39a774b0	0.0003193966
35	0x384709f4	4.7454567e-05
36	0x00000000	0.0
37	0x00000000	0.0
38	0x00000000	0.0
39	0x00000000	0.0
40	0x3863c3a6	5.430323e-05
41	0x378595b6	1.592455e-05
42	0x38813e67	6.162823e-05
43	0x372837cb	1.0026571e-05
44	0x00000000	0.0
45	0x00000000	0.0
46	0x00000000	0.0
47	0x00000000	0.0
48	0x3a16378d	0.00057303236
49	0x398279ef	0.0002488638
50	0x390762a1	0.00012911345
51	0x37a82b0f	2.0047211e-05
52	0x00000000	0.0
53	0x00000000	0.0
54	0x00000000	0.0
55	0x00000000	0.0
56	0x3926f044	0.000159205
57	0x3825a1bc	3.9489692e-05
58	0x38c7d91d	9.5295e-05
59	0x3757b066	1.285607e-05
60	0x39057547	0.00012727558
61	0x37d3df17	2.5257044e-05
62	0x38ec2ed8	0.00011262082
63	0x379466e6	1.769089e-05
64	0x00000000	0.0
65	0x00000000	0.0
66	0x00000000	0.0
67	0x00000000	0.0
68	0x368901ee	4.083143e-06
69	0x3510eeff	5.3991965e-07
70	0x364f76c5	3.0914537e-06
71	0x3493e434	2.7546923e-07
72	0x3a8358f3	0.0010021016
73	0x3a0a9f28	0.00052879984
74	0x3879fb9b	5.9600552e-05
75	0x360b9108	2.0797033e-06
76	0x398cfb97	0.0002689033
77	0x387cae27	6.0243674e-05
78	0x39855306	0.00025429594
79	0x382b7614	4.0879546e-05
80	0x3831e10e	4.2409687e-05
81	0x36ed108e	7.0650776e-06
82	0x3826c473	3.976044e-05
83	0x36c3baf5	5.8332175e-06
84	0x00000000	0.0
85	0x00000000	0.0
86	0x00000000	0.0
87	0x00000000	0.0
88	0x00000000	0.0
89	0x00000000	0.0
90	0x00000000	0.0
91	0x00000000	0.0
92	0x00000000	0.0
93	0x00000000	0.0
94	0x00000000	0.0
95	0x00000000	0.0
96	0x00000000	0.0
97	0x00000000	0.0
98	0x00000000	0.0
99	0x00000000	0.0
100	0x3a8c875e	0.0010721495
101	0x3956a5d9	0.00020470413
102	0x3a7b8db1	0.0009596004
103	0x39196dcf	0.00014632124
104	0x3a63002b	0.0008659388
105	0x39226620	0.00015487568
106	0x3a66b217	0.0008800341
107	0x390ea5aa	0.0001360389
108	0x3ae668e0	0.0017578863
109	0x39b75b80	0.00034972653
110	0x3abfdbc1	0.0014637635
111	0x39689a2f	0.00022182682
112	0x3a504387	0.00079446327
113	0x3932723f	0.00017017963
114	0x39da3030	0.00041616103
115	0x3827b4d3	3.998431e-05
116	0x37b02d6e	2.100199e-05
117	0x3658b22e	3.2290222e-06
118	0x37b7ed70	2.1925865e-05
119	0x36543502	3.1621316e-06
120	0x00000000	0.0
121	0x00000000	0.0
122	0x00000000	0.0
123	0x00000000	0.0
124	0x00000000	0.0
125	0x00000000	0.0
126	0x00000000	0.0
127	0x00000000	0.0
128	0x38922837	6.969313e-05
129	0x37a00e75	1.9080218e-05
130	0x38807301	6.124937e-05
131	0x37003244	7.641098e-06
132	0x39cb7b07	0.0003881084
133	0x38ac583d	8.218035e-05
134	0x396b14ad	0.00022419049
135	0x37cde5fb	2.4544997e-05
136	0x3917f74b	0.00014492606
137	0x3824832d	3.9222814e-05
138	0x391c15a3	0.0001488538
139	0x37a3972a	1.9501505e-05
140	0x00000000	0.0
141	0x00000000	0.0
142	0x00000000	0.0
143	0x00000000	0.0
144	0x32e8b49a	2.7090483e-08
145	0x328c2f93	1.631978e-08
146	0x30b55ffa	1.3196761e-09
147	0x2e545cf2	4.828577e-11
148	0x3a3618ae	0.00069464266
149	0x3906bda2	0.0001284988
150	0x3a521297	0.00080136344
151	0x39001fde	0.00012218903
152	0x3a84c2b2	0.0010128825
153	0x39696a59	0.00022260229
154	0x3a9f0a87	0.0012133875
155	0x393fdd18	0.00018297543
156	0x39e8cad8	0.0004440162
157	0x39588691	0.00020649495
158	0x3826c732	3.9763e-05
159	0x35a3b329	1.2196589e-06
160	0x00000000	0.0
161	0x00000000	0.0
162	0x00000000	0.0
163	0x00000000	0.0
164	0x00000000	0.0
165	0x00000000	0.0
166	0x00000000	0.0
167	0x00000000	0.0
168	0x3a137beb	0.000562607
169	0x38f93b6a	0.00011884312
170	0x3a1f2a55	0.00060716766
171	0x38ca010c	9.6323056e-05
172	0x39cd2bec	0.0003913337
173	0x3899e0a2	7.33745e-05
174	0x39f8f5ec	0.00047485472
175	0x389569be	7.12457e-05
176	0x00000000	0.0
177	0x00000000	0.0
178	0x00000000	0.0
179	0x00000000	0.0
180	0x00000000	0.0
181	0x00000000	0.0
182	0x00000000	0.0
183	0x00000000	0.0
184	0x00000000	0.0
185	0x00000000	0.0
186	0x00000000	0.0
187	0x00000000	0.0
188	0x384b994a	4.8541733e-05
189	0x37cea198	2.4632362e-05
190	0x3691537b	4.331055e-06
191	0x34041237	1.2300085e-07
192	0x00000000	0.0
193	0x00000000	0.0
194	0x00000000	0.0
195	0x00000000	0.0
196	0x3adcf1a3	0.0016856681
197	0x39a9e8c8	0.00032407627
198	0x3ac69399	0.0015150189
199	0x397311d6	0.0002318093
200	0x00000000	0.0
201	0x00000000	0.0
202	0x00000000	0.0
203	0x00000000	0.0
204	0x3a6a601a	0.0008940712
205	0x394ee360	0.00019730395
206	0x3a2b09ba	0.00065245817
207	0x38cde64c	9.818058e-05
208	0x39b06cb4	0.00033650326
209	0x39241c76	0.00015650861
210	0x37fae514	2.9908995e-05
211	0x35810178	9.611676e-07
212	0x38dedb5e	0.00010626645
213	0x37909617	1.7236029e-05
214	0x38e9a91d	0.000111418056
215	0x378bdd64	1.6673184e-05
216	0x3890b162	6.899495e-05
217	0x37c38dd1	2.331185e-05
218	0x3808d516	3.262338e-05
219	0x367bf12f	3.7542302e-06
220	0x00000000	0.0
221	0x00000000	0.0
222	0x00000000	0.0
223	0x00000000	0.0
224	0x38b7b797	8.760316e-05
225	0x37c52277	2.3500279e-05
226	0x38b33113	8.544526e-05
227	0x37392489	1.1035366e-05
228	0x00000000	0.0
229	0x00000000	0.0
230	0x00000000	0.0
231	0x00000000	0.0
232	0x37cd74ef	2.4492356e-05
233	0x373d8f7c	1.1298685e-05
234	0x36129957	2.184495e-06
235	0x3396fbae	7.0306996e-08
236	0x362a8356	2.5408422e-06
237	0x358a0f5c	1.0286271e-06
238	0x34eb1184	4.3784905e-07
239	0x3341052f	4.494103e-08
240	0x3a251080	0.0006296709
241	0x3905eda2	0.00012772394
242	0x3a2b88f3	0.00065435393
243	0x38d93e42	0.00010358963
244	0x381599a5	3.566746e-05
245	0x37665503	1.3728862e-05
246	0x37deff1a	2.6583253e-05
247	0x36537b7f	3.1513334e-06
248	0x00000000	0.0
249	0x00000000	0.0
250	0x00000000	0.0
251	0x00000000	0.0
252	0x00000000	0.0
253	0x00000000	0.0
254	0x00000000	0.0
255	0x00000000	0.0

exp_avg f4 [64]
0	0x00000000	0.0
1	0x00000000	0.0
2	0xb9336fff	-0.00017112492
3	0x3bbadbda	0.005702478
4	0x3ae93aee	0.0017794052
5	0x3b4fe88e	0.0031724307
6	0x00000000	0.0
7	0xbbbebe0e	-0.005820996
8	0x3b30997f	0.002694696
9	0x00000000	0.0
10	0x3b5e7971	0.0033946896
11	0x00000000	0.0
12	0xbce7896f	-0.028263776
13	0x00000000	0.0
14	0x3aff916b	0.0019498294
15	0x3ad6ee42	0.0016397911
16	0x00000000	0.0
17	0x38265750	3.96588e-05
18	0xbd29050c	-0.04126458
19	0x3b97d992	0.0046340907
20	0x3a617b76	0.0008601466
21	0x00000000	0.0
22	0x00000000	0.0
23	0x00000000	0.0
24	0x00000000	0.0
25	0xbb2986a7	-0.0025867613
26	0x3b549fa4	0.0032443786
27	0xbb3d2801	-0.0028862956
28	0xbcc69cf4	-0.024244763
29	0x3a51485e	0.0007983501
30	0x00000000	0.0
31	0x00000000	0.0
32	0xb9f36058	-0.00046420353
33	0xbc877645	-0.016535887
34	0xbac17f66	-0.0014762699
35	0x00000000	0.0
36	0x37f1d43d	2.882827e-05
37	0xbb880a35	-0.0041516074
38	0xbbfba143	-0.007679136
39	0xbce5ade9	-0.028037028
40	0x00000000	0.0
41	0x00000000	0.0
42	0x3bcad3b5	0.006189788
43	0xbb4370ec	-0.0029821945
44	0x00000000	0.0
45	0x00000000	0.0
46	0x00000000	0.0
47	0xbc1f9c67	-0.009741879
48	0x00000000	0.0
49	0xbb7939e9	-0.0038028902
50	0x00000000	0.0
51	0x3b8d21a5	0.0043069893
52	0x3cb4285c	0.021991901
53	0xb72b6d75	-1.0217879e-05
54	0x3b2f0f22	0.00267119
55	0x00000000	0.0
56	0xba81d890	-0.000990646
57	0x00000000	0.0
58	0xbb1a39e5	-0.0023533043
59	0xbab60e83	-0.0013889823
60	0x3bb93a2e	0.0056526875
61	0x3abbffe7	0.0014343233
62	0x00000000	0.0
63	0x00000000	0.0

exp_avg_sq f4 [64]
0	0x00000000	0.0
1	0x00000000	0.0
2	0x3586776f	1.0018538e-06
3	0x3808c7d6	3.261104e-05
4	0x3510b8d3	5.3913135e-07
5	0x360b6438	2.077095e-06
6	0x00000000	0.0
7	0x378efa9d	1.704442e-05
8	0x37492c50	1.1990851e-05
9	0x00000000	0.0
10	0x35d21758	1.5653013e-06
11	0x00000000	0.0
12	0x37c29ee5	2.3200593e-05
13	0x00000000	0.0
14	0x36846bdd	3.9464635e-06
15	0x363b444c	2.7904925e-06
16	0x00000000	0.0
17	0x3393e434	6.886731e-08
18	0x3837d271	4.382659e-05
19	0x36d615d3	6.3802377e-06
20	0x3561c879	8.411076e-07
21	0x00000000	0.0
22	0x00000000	0.0
23	0x00000000	0.0
24	0x00000000	0.0
25	0x37beeb7b	2.275942e-05
26	0x37963bb9	1.7909204e-05
27	0x381ffc40	3.814348e-05
28	0x37c187f9	2.307071e-05
29	0x34e2d389	4.2249692e-07
30	0x00000000	0.0
31	0x00000000	0.0
32	0x360a6656	2.062317e-06
33	0x37301765	1.0495864e-05
34	0x368e4660	4.2401225e-06
35	0x00000000	0.0
36	0x30b1fdde	1.2950598e-09
37	0x377bba77	1.5004181e-05
38	0x37cefb5f	2.4674167e-05
39	0x3797ca55	1.8094821e-05
40	0x00000000	0.0
41	0x00000000	0.0
42	0x375963c0	1.2957433e-05
43	0x37119852	8.678138e-06
44	0x00000000	0.0
45	0x00000000	0.0
46	0x00000000	0.0
47	0x36057c49	1.9890888e-06
48	0x00000000	0.0
49	0x3816d0f9	3.5957408e-05
50	0x00000000	0.0
51	0x37b0bbcf	2.106829e-05
52	0x3767019f	1.376905e-05
53	0x360ced7d	2.0999862e-06
54	0x360f48a2	2.1350938e-06
55	0x00000000	0.0
56	0x362b6377	2.5538882e-06
57	0x00000000	0.0
58	0x3583afe9	9.811457e-07
59	0x33dba28e	1.0227551e-07
60	0x376c255f	1.4075397e-05
61	0x35a985c8	1.2630417e-06
62	0x00000000	0.0
63	0x00000000	0.0

exp_avg f4 [3, 64]
0	0x00000000	0.0
1	0x00000000	0.0
2	0xbcbfc1fa	-0.023407925
3	0xbe378bcf	-0.17924426
4	0xbcd23f00	-0.025664806
5	0xbced65b1	-0.028979154
6	0x00000000	0.0
7	0xbe541997	-0.20712887
8	0x3d8bff59	0.06835813
9	0x00000000	0.0
10	0xbd2a8075	-0.041626412
11	0x00000000	0.0
12	0xbe23a8ab	-0.1598231
13	0x00000000	0.0
14	0x3ef730fd	0.48279563
15	0xbec2cf8b	-0.38048968
16	0x00000000	0.0
17	0x36a45ffa	4.898754e-06
18	0xbe6ddc25	-0.2322851
19	0x3e42ad2b	0.19011371
20	0x3ddf3e19	0.10900516
21	0x00000000	0.0
22	0x00000000	0.0
23	0x00000000	0.0
24	0x00000000	0.0
25	0x3e24b6fd	0.1608543
26	0xbe36a185	-0.17835052
27	0x3dc07ef3	0.09399214
28	0x3e089127	0.13336621
29	0x3cc66c36	0.02422152
30	0x00000000	0.0
31	0x00000000	0.0
32	0x3d64d675	0.055868585
33	0x3eb8c0e2	0.36084658
34	0x3e6190ce	0.22027895
35	0x00000000	0.0
36	0xb8a4244d	-7.826891e-05
37	0x3e1bfa6f	0.15232252
38	0xbe1fbd2e	-0.1559951
39	0xbddf4679	-0.109021135
40	0x00000000	0.0
41	0x00000000	0.0
42	0xbe088469	-0.1333176
43	0x3e763920	0.24045229
44	0x00000000	0.0
45	0x00000000	0.0
46	0x00000000	0.0
47	0xbc496766	-0.0122927185
48	0x00000000	0.0
49	0x3ddc99c3	0.10771515
50	0x00000000	0.0
51	0x3aa1e01f	0.0012350118
52	0xbe783ca0	-0.24241877
53	0x3e376cfe	0.17912671
54	0x3e7af920	0.24509096
55	0x00000000	0.0
56	0xbd0efe46	-0.034910463
57	0x00000000	0.0
58	0xbd966dd1	-0.073451646
59	0xbe3258b9	-0.17416658
60	0xbe6a9d6b	-0.22911613
61	0xbde71648	-0.11283547
62	0x00000000	0.0
63	0x00000000	0.0
64	0x00000000	0.0
65	0x00000000	0.0
66	0x3c179ae9	0.009253242
67	0x3cc82534	0.024431802
68	0x3d3727a2	0.04471553
69	0x3c8b417c	0.016998999
70	0x00000000	0.0
71	0x3d635784	0.055503383
72	0x3d065107	0.032792117
73	0x00000000	0.0
74	0x3d8e02f2	0.069341555
75	0x00000000	0.0
76	0x3d3ec667	0.04657593
77	0x00000000	0.0
78	0xbd1c52e8	-0.038165003
79	0x3dc2ec54	0.09517732
80	0x00000000	0.0
81	0x36421e71	2.8925972e-06
82	0x3d4bd673	0.04976506
83	0x3cd4a3fa	0.025957096
84	0x3c8aa9da	0.016926695
85	0x00000000	0.0
86	0x00000000	0.0
87	0x00000000	0.0
88	0x00000000	0.0
89	0x3d88dc7e	0.066826805
90	0x3ce774cc	0.028253935
91	0xbaf0afbf	-0.0018362923
92	0x3b2b7350	0.002616126
93	0x3d17df0e	0.037077956
94	0x00000000	0.0
95	0x00000000	0.0
96	0x3d4c14bc	0.04982446
97	0xbc96378a	-0.01833703
98	0xbc47ba38	-0.012190394
99	0x00000000	0.0
100	0x382cf867	4.123934e-05
101	0x3c2072aa	0.009792963
102	0x3d969a59	0.07353658
103	0x3d1515b4	0.03639765
104	0x00000000	0.0
105	0x00000000	0.0
106	0x3da7d798	0.08195418
107	0xbc1f9433	-0.009739923
108	0x00000000	0.0
109	0x00000000	0.0
110	0x00000000	0.0
111	0x3b6d82ff	0.003624141
112	0x00000000	0.0
113	0x3d78161f	0.06056797
114	0x00000000	0.0
115	0x3a56f507	0.0008199964
116	0x3dafb183	0.085787795
117	0x3cb8714a	0.022514958
118	0x3cf0a16f	0.029373853
119	0x00000000	0.0
120	0x3d9720dd	0.07379315
121	0x00000000	0.0
122	0x3cca65e2	0.024706785
123	0x3d78dcd8	0.060757488
124	0x3d99f0be	0.07516621
125	0x3cf40f32	0.029792402
126	0x00000000	0.0
127	0x00000000	0.0
128	0x00000000	0.0
129	0x00000000	0.0
130	0x3c67e90b	0.014154683
131	0x3e1e8727	0.15481244
132	0xbc9c1061	-0.019050779
133	0x3c44487a	0.01198017
134	0x00000000	0.0
135	0x3e1b43b6	0.15162548
136	0xbdcf27e1	-0.10115028
137	0x00000000	0.0
138	0xbce30ae2	-0.02771515
139	0x00000000	0.0
140	0x3de7ee24	0.113247186
141	0x00000000	0.0
142	0xbee3a69e	-0.44463056
143	0x3e921477	0.28531238
144	0x00000000	0.0
145	0xb702b79a	-7.791352e-06
146	0x3e3ae688	0.18252003
147	0xbe5d41ab	-0.21607082
148	0xbe00f447	-0.12593184
149	0x00000000	0.0
150	0x00000000	0.0
151	0x00000000	0.0
152	0x00000000	0.0
153	0xbe69253f	-0.22768115
154	0x3e19b2ed	0.15009661
155	0xbdbcbc32	-0.09215583
156	0xbe0b3ef6	-0.13598236
157	0xbd7b152a	-0.06129948
158	0x00000000	0.0
159	0x00000000	0.0
160	0xbdd8759c	-0.10569307
161	0xbeaf5d69	-0.34250954
162	0xbe55152d	-0.20808859
163	0x00000000	0.0
164	0x381b502e	3.7029553e-05
165	0xbe260196	-0.16211542
166	0x3da8e004	0.082458526
167	0x3d94bb9f	0.072623484
168	0x00000000	0.0
169	0x00000000	0.0
170	0x3d52626d	0.051363397
171	0xbe6c3fdd	-0.23071237
172	0x00000000	0.0
173	0x00000000	0.0
174	0x00000000	0.0
175	0x3c0e06a7	0.008668578
176	0x00000000	0.0
177	0xbe2c5267	-0.16828309
178	0x00000000	0.0
179	0xbb06ad51	-0.0020550082
180	0x3e2063df	0.15663098
181	0xbe4e7b2a	-0.20164171
182	0xbe8c86a8	-0.27446485
183	0x00000000	0.0
184	0xbd1f4375	-0.03888269
185	0x00000000	0.0
186	0x3d47a8b1	0.04874486
187	0x3de84305	0.11340908
188	0x3e1da50e	0.15394995
189	0x3daa127b	0.08304306
190	0x00000000	0.0
191	0x00000000	0.0

exp_avg_sq f4 [3, 64]
0	0x00000000	0.0
1	0x00000000	0.0
2	0x381ebd70	3.7846563e-05
3	0x3a87abab	0.0010350844
4	0x3c032cba	0.008006269
5	0x3b263a54	0.0025364356
6	0x00000000	0.0
7	0x3a9ca682	0.0011951479
8	0x3b8cc40d	0.004295832
9	0x00000000	0.0
10	0x3c940ed9	0.018073486
11	0x00000000	0.0
12	0x3a35092e	0.000690597
13	0x00000000	0.0
14	0x3c9dae4e	0.019248154
15	0x3bcdfbe6	0.006286132
16	0x00000000	0.0
17	0x30906a7a	1.0507641e-09
18	0x3ac10a0d	0.0014727727
19	0x3bac2cd9	0.0052543697
20	0x3c09e245	0.008415763
21	0x00000000	0.0
22	0x00000000	0.0
23	0x00000000	0.0
24	0x00000000	0.0
25	0x3ca559fb	0.020184508
26	0x3a7ddc4d	0.00096840115
27	0x3b6f1f58	0.0036487188
28	0x3a3e9dc0	0.00072714314
29	0x3bdb16b1	0.0066860546
30	0x00000000	0.0
31	0x00000000	0.0
32	0x3c82d66a	0.015971381
33	0x3bda420e	0.0066607064
34	0x3bc76fa3	0.006086306
35	0x00000000	0.0
36	0x32766b56	1.434349e-08
37	0x3c1368c6	0.008997148
38	0x3aa581d6	0.0012627195
39	0x3990ea5b	0.0002764043
40	0x00000000	0.0
41	0x00000000	0.0
42	0x3bef313c	0.0072995704
43	0x3bd035c8	0.0063540675
44	0x00000000	0.0
45	0x00000000	0.0
46	0x00000000	0.0
47	0x367573cc	3.6575248e-06
48	0x00000000	0.0
49	0x3c6b0447	0.0143442815
50	0x00000000	0.0
51	0x364640ef	2.9542095e-06
52	0x3afd0ba0	0.0019305833
53	0x3c13e729	0.009027281
54	0x3cb19583	0.021677738
55	0x00000000	0.0
56	0x3bf7e3fd	0.00756502
57	0x00000000	0.0
58	0x39050817	0.00012686882
59	0x3a5c0042	0.00083923724
60	0x3bafb008	0.0053615607
61	0x39f3ca08	0.00046499097
62	0x00000000	0.0
63	0x00000000	0.0
64	0x00000000	0.0
65	0x00000000	0.0
66	0x375acfec	1.3042223e-05
67	0x39ccb838	0.00039047166
68	0x3bb67c63	0.0055690273
69	0x3af8b3ad	0.0018974446
70	0x00000000	0.0
71	0x39c5f374	0.00037756155
72	0x3b253fd4	0.0025215046
73	0x00000000	0.0
74	0x3c56387b	0.013074989
75	0x00000000	0.0
76	0x38ff81d7	0.00012183532
77	0x00000000	0.0
78	0x3b8779ea	0.0041344063
79	0x3b89f219	0.0042097685
80	0x00000000	0.0
81	0x2fc968cd	3.6636152e-10
82	0x3964307c	0.00021761836
83	0x3b01b3bc	0.0019790968
84	0x3b8f1605	0.0043666386
85	0x00000000	0.0
86	0x00000000	0.0
87	0x00000000	0.0
88	0x00000000	0.0
89	0x3c32f60d	0.010922921
90	0x398aec1b	0.00026497323
91	0x3ad9c53f	0.001661457
92	0x39140b5b	0.0001411861
93	0x3b88e93d	0.004178195
94	0x00000000	0.0
95	0x00000000	0.0
96	0x3c20ba28	0.009810008
97	0x3a8a0e7c	0.0010532881
98	0x3ae70383	0.0017624948
99	0x00000000	0.0
100	0x31ac5f24	5.016675e-09
101	0x3b871a65	0.0041230195
102	0x3a859c84	0.001019374
103	0x3832012e	4.2439606e-05
104	0x00000000	0.0
105	0x00000000	0.0
106	0x3bc66fc1	0.0060558026
107	0x3adddfa8	0.0016927617
108	0x00000000	0.0
109	0x00000000	0.0
110	0x00000000	0.0
111	0x34ab9190	3.1957143e-07
112	0x00000000	0.0
113	0x3c058d7c	0.008151408
114	0x00000000	0.0
115	0x35926dda	1.0909819e-06
116	0x39e5047c	0.00043681625
117	0x3b7f376d	0.0038942948
118	0x3c2767d2	0.010217624
119	0x00000000	0.0
120	0x3bb0acf5	0.005391712
121	0x00000000	0.0
122	0x37a1982d	1.9263558e-05
123	0x392ee716	0.0001668002
124	0x3b938e97	0.004503082
125	0x3990e3c3	0.00027635516
126	0x00000000	0.0
127	0x00000000	0.0
128	0x00000000	0.0
129	0x00000000	0.0
130	0x37069c6a	8.02344e-06
131	0x3a3f7db7	0.0007304805
132	0x3c8b59ee	0.017010655
133	0x3ba9559c	0.005167676
134	0x00000000	0.0
135	0x3a2c7ae0	0.0006579589
136	0x3c167425	0.009182964
137	0x00000000	0.0
138	0x3d1d8074	0.03845258
139	0x00000000	0.0
140	0x39945b09	0.00028296586
141	0x00000000	0.0
142	0x3ce9e512	0.028551612
143	0x3bec9a90	0.0072205737
144	0x00000000	0.0
145	0x3136a881	2.658027e-09
146	0x3a3bc27c	0.00071624643
147	0x3c269ae1	0.010168762
148	0x3c89d2aa	0.016824085
149	0x00000000	0.0
150	0x00000000	0.0
151	0x00000000	0.0
152	0x00000000	0.0
153	0x3d2f0bad	0.042735744
154	0x3a143938	0.0005654278
155	0x3be063af	0.0068478207
156	0x3a99322d	0.0011687927
157	0x3c686318	0.014183782
158	0x00000000	0.0
159	0x00000000	0.0
160	0x3d091ae2	0.033472903
161	0x3c18e7a8	0.009332575
162	0x3c2401fe	0.010010241
163	0x00000000	0.0
164	0x31353ca2	2.6373432e-09
165	0x3c8e25e9	0.017352061
166	0x3b00cf83	0.0019654937
167	0x38eb0feb	0.00011208638
168	0x00000000	0.0
169	0x00000000	0.0
170	0x3c7d492c	0.01545934
171	0x3c299830	0.010351226
172	0x00000000	0.0
173	0x00000000	0.0
174	0x00000000	0.0
175	0x35f6ee22	1.8397734e-06
176	0x00000000	0.0
177	0x3cfbc652	0.030734215
178	0x00000000	0.0
179	0x36ffab6f	7.6195497e-06
180	0x3a21ed48	0.000617702
181	0x3c90bcbf	0.017668126
182	0x3d2f8749	0.042853627
183	0x00000000	0.0
184	0x3c8b1408	0.016977325
185	0x00000000	0.0
186	0x38568ede	5.115463e-05
187	0x399acd99	0.0002952635
188	0x3c19e9c3	0.009394112
189	0x39ddb6c3	0.00042288573
190	0x00000000	0.0
191	0x00000000	0.0

exp_avg f4 [3]
0	0xbd38d6e8	-0.045126826
1	0x3c315f74	0.01082598
2	0x3d0c7f0c	0.03430085

exp_avg_sq f4 [3]
0	0x3a3fff17	0.0007324083
1	0x3a130e0a	0.0005609697
2	0x3ab4a687	0.0013782539
