assignments/pytorch_basics/session_5/lightning_logs/version_0/checkpoints/epoch=4-step=30.ckpt (torch, 13411 bytes, 12 tensors)

l1.weight f4 [64, 4]
000000 76 51 ca 3e 0e ea 17 bc 97 82 ad bd c8 41 55 3d
       0.39515275 -0.009272112 -0.08472174 0.052064687
000010 fc f3 f6 3e 88 5f 5f bc cf 4c cd 3e 12 d7 e1 be
       0.4823302 -0.013633616 0.40097663 -0.44109398
000020 87 42 03 bd 5e d8 a2 3e 89 1f b3 3b ab c1 1c 3d
       -0.032045867 0.318057 0.005466406 0.038270634
000030 07 84 d7 bd 4d e0 7b be 6b 79 bb 3e 09 e7 3c bd
       -0.10523229 -0.24597283 0.36616072 -0.04611877
000040 b2 0f d4 3e bf d4 d3 3e 7f 0a 75 be 1d 09 15 be
       0.41418225 0.4137325 -0.23929785 -0.14554258
000050 f4 ba 6a 3e 3f b4 d4 be 85 89 a5 3e eb 2d b0 be
       0.2292288 -0.41543767 0.32331482 -0.34410033
000060 ec 7a a9 be c0 52 b5 bc 80 da 7f 3d f8 d2 d0 3d
       -0.33101594 -0.022134185 0.062464237 0.10196489
000070 6c ac 0e 3e 9b 81 bc 3c df 20 c8 be 57 b6 01 3f
       0.13932961 0.02301102 -0.3908758 0.50668854
000080 59 d6 82 3b 15 8c 2f be 5a 23 85 3e ac ed 3f be
       0.0039928374 -0.17143281 0.26003534 -0.18743008
000090 6b 23 c2 3e 72 df aa 3e ae 87 69 3d 1a 27 33 bd
       0.37917647 0.333736 0.05701416 -0.043738462
0000a0 78 a1 a9 bd 9e 42 ea be 44 8a 9b be dc e1 a7 3e
       -0.08282751 -0.4575395 -0.30378926 0.32789505
0000b0 d8 4b 5a be 9e af c2 be 1c 3b c2 be e4 d4 70 be
       -0.21317995 -0.3802461 -0.37935722 -0.23518711
0000c0 bb 90 0c bd 8b cb f0 3d 52 c3 5c 3e 1c 3a a4 be
       -0.034317713 0.11757573 0.21558884 -0.32075584
0000d0 ae 87 f0 be a0 b6 fc 3c 22 86 b0 be 24 74 cf 3e
       -0.46978515 0.030848801 -0.34477335 0.40518296
0000e0 aa 30 8b be b8 21 6c be 3c b5 41 be 70 0b 8d be
       -0.27185565 -0.23059738 -0.18916792 -0.2754779
0000f0 d8 47 df 3e 14 a7 35 3d 97 e3 f3 be 67 f4 72 3d
       0.436095 0.04434879 -0.47634575 0.05931511
000100 b6 f5 29 3e b9 c4 67 3e 9c 40 b6 3e ca 3f da be
       0.16597638 0.22633637 0.35596168 -0.42626792
000110 90 30 ef 3d 66 8a bd be 6e 78 81 be b0 ba 62 be
       0.116791844 -0.37019652 -0.25287193 -0.22141528
000120 a1 77 e8 3e 2a 71 3b bd 6a 8d 35 3e de d2 c5 3e
       0.4540377 -0.04576222 0.17729726 0.3863744
000130 eb c9 82 3e 32 ec db 3e ff 9e ec 3d 47 c5 a3 3d
       0.25544676 0.4295364 0.115537636 0.07996612
000140 5b 55 e7 3e 93 be e5 be 37 2a 5d be 86 fe 07 3e
       0.4518231 -0.4487196 -0.21598135 0.13280687
000150 76 18 91 3e 9c 2a a8 3e 2c 75 5b 3d 72 ea 82 be
       0.28338975 0.32845008 0.05357854 -0.25569493
000160 a4 fb 3d be 34 5a 9a be 08 97 ba bd 2e 5c b9 be
       -0.18553025 -0.30146945 -0.09110838 -0.3620314
000170 21 83 29 3e 72 39 b4 be 2a a2 94 bd 61 0d df 3e
       0.16553928 -0.35200077 -0.07257493 0.43564895
000180 ac db 88 3e 34 20 c9 bd 67 31 86 3e 37 71 e9 be
       0.26730096 -0.098205954 0.26209566 -0.4559419
000190 83 cd 00 3f c8 2d db bd 71 2b fe be 2b 72 93 be
       0.50313586 -0.107020915 -0.49642518 -0.2879804
0001a0 12 ca 40 3e e8 35 d3 3e 86 1d 04 be 42 81 f0 3e
       0.18827084 0.41252065 -0.12901887 0.46973616
0001b0 2c da b6 bd a3 c0 0b 3e 7e 96 49 3e 9a 53 29 be
       -0.08928332 0.13647704 0.19686314 -0.16535798
0001c0 36 b6 f9 be e0 e8 4c 3e 5c 59 25 3e 8c b2 b1 3e
       -0.48771828 0.2001071 0.16147369 0.34706533
0001d0 08 ee ef bd 20 4d 03 bd 9c af fc be 94 98 ab be
       -0.11715323 -0.032055974 -0.4935273 -0.33514845
0001e0 7c 28 a5 be e9 64 d4 3e bf e1 36 3c c7 a8 66 3e
       -0.3225745 0.41483238 0.0111622205 0.22525321
0001f0 96 0e be be d2 21 d7 be 16 e8 b0 be 90 a4 00 be
       -0.37120503 -0.4201799 -0.34552068 -0.12562776
000200 c2 95 a6 be 94 a8 80 3e 34 3c 34 be 2a c6 f3 3e
       -0.3253613 0.25128615 -0.1760109 0.47612125
000210 57 ea 15 3e 6c 82 c0 3d 52 00 db be 02 cb da 3d
       0.14640175 0.09399876 -0.42773682 0.10683252
000220 80 6e 55 be 2e 89 f4 3e 8e 15 b8 be 40 1f e0 be
       -0.20842934 0.4776091 -0.35953945 -0.43773842
000230 0b f8 8d 3e 83 e6 c8 3e 4f 59 24 3e 0c 39 e6 3c
       0.27728304 0.39238366 0.16049694 0.028103374
000240 1b 2a ba 3e 0b 08 71 be 34 8c b5 3e 05 f1 34 be
       0.3636025 -0.23538224 0.3545853 -0.17670067
000250 06 63 cb be 00 ec bc bd 48 a2 9d 3d c0 2d 34 bc
       -0.39723986 -0.09224701 0.07696968 -0.010997236
000260 c8 f8 6c be 80 cc 6f bd 10 16 67 bd f4 f3 89 3e
       -0.23141778 -0.058544636 -0.056417525 0.26943934
000270 3b 8b 73 3e 4d b0 02 be 55 9f 29 3e 56 35 3f be
       0.23783581 -0.12762566 0.16564687 -0.1867269
000280 ec e6 90 3e f9 f4 d1 3e 00 9f d8 be 58 68 02 bf
       0.2830118 0.41007212 -0.42308807 -0.50940466
000290 d4 68 57 be 08 6d a0 be 90 b6 1b 3d ce 11 c5 3e
       -0.21036083 -0.31333184 0.038015902 0.38490146
0002a0 a8 c0 55 be a0 e2 97 bd 3c 9e 22 3e 60 e8 54 3e
       -0.20874274 -0.07416272 0.15880674 0.20791769
0002b0 3f 9b b4 bb 04 2b 02 3f 48 d2 fa 3d 03 fe fd 3b
       -0.005511671 0.50846887 0.12247139 0.007751228
0002c0 d8 81 f9 bd 5c c3 c9 be e0 65 8e bd 5a ac b2 3e
       -0.12182969 -0.3940686 -0.06953025 0.3489712
0002d0 1a 96 53 3e f9 58 84 3d 3e fc 43 3e 80 46 09 be
       0.20662728 0.06462283 0.19139192 -0.134058
0002e0 3a d1 5c 3e 09 9c 90 be 5f 93 f8 3e 00 60 f8 3e
       0.21564189 -0.28244045 0.48549935 0.48510742
0002f0 48 a4 0e 3e 3f 75 4f 3e 2a 46 7b bc ac 65 65 3d
       0.13929856 0.2025957 -0.015336553 0.056005165
000300 38 8c b1 bd a8 91 67 be 30 a1 3f be f8 a0 64 3e
       -0.08669323 -0.22614157 -0.18713832 0.2232703
000310 2f 1a b1 3e e3 73 01 be 04 fb 9d 3e 79 99 42 3e
       0.3459029 -0.12641864 0.30855572 0.19003858
000320 da 83 9f be 50 07 0e be 14 4d 1f be 9c 40 d8 be
       -0.31155282 -0.13869977 -0.15556747 -0.42236793
000330 80 c7 d4 bb 24 67 c9 be d0 18 c8 be c0 8e d8 bc
       -0.006493509 -0.39336503 -0.3908143 -0.026435256
000340 de 13 e4 bd a1 dc e7 3d 67 c4 78 3e 83 a3 20 3d
       -0.11136602 0.113213785 0.24293672 0.039218437
000350 c7 ef 59 3e 25 a5 9a bd b9 f9 88 be 1c da bd be
       0.21282874 -0.0755103 -0.26753023 -0.37080467
000360 2b 89 b8 3e 60 c8 3d bd 83 45 f1 3e b6 ba e2 3e
       0.3604215 -0.04633367 0.47123346 0.44283074
000370 ce f6 e4 be 58 cb ff be 44 61 94 3e 3a 1b 84 be
       -0.44719547 -0.49959826 0.28980458 -0.25802022
000380 3e 35 9c 3e 15 be d6 3c 35 27 05 bf d0 14 ac bd
       0.3050937 0.026213685 -0.5201295 -0.08402407
000390 4a ad d5 be 7a 52 85 be 84 76 a2 3e 90 18 5c be
       -0.41733772 -0.26039487 0.31731045 -0.21493745
0003a0 b8 d7 95 be 38 ad a9 be 0a 01 c4 3e 08 29 27 be
       -0.29266143 -0.33139968 0.38282043 -0.16324246
0003b0 5b 68 c7 3e ae 90 fb be 3b c2 16 3e 80 29 a6 be
       0.38946804 -0.4913382 0.1472253 -0.32453537
0003c0 10 3a 03 bd 9c 0c 11 be 98 d7 f7 3d 24 28 b4 be
       -0.032037795 -0.14164966 0.12101668 -0.35186875
0003d0 f5 d9 1a 3e c8 b1 d6 3e a9 30 5d be 4d 36 c1 3e
       0.15122207 0.4193251 -0.21600594 0.3773674
0003e0 bb 21 b0 bd 33 95 21 3e 99 02 54 be 69 d3 f8 3e
       -0.086001836 0.15779571 -0.20704116 0.48598793
0003f0 10 c5 0f be c0 82 7c bd 5a a8 9a 3e fe ad d9 be
       -0.14040017 -0.06164813 0.30206567 -0.42515558

l1.bias f4 [64]
000000 3d 74 83 3e 1d 68 4a 3d 72 98 df bd e1 a3 a1 be
       0.2567462 0.049415696 -0.109177485 -0.31570342
000010 74 35 c9 3e 5d b0 cb 3e d4 23 1c 3e d1 c1 c2 3e
       0.39298594 0.39782992 0.15248042 0.38038495
000020 0d b3 48 be 12 86 f2 bd 48 92 2d be c0 75 b0 bd
       -0.19599552 -0.11841978 -0.16950333 -0.08616209
000030 c0 2e a7 bd 70 da 03 3d a0 dc f2 3c c0 de bc 3e
       -0.08163214 0.03219074 0.029646218 0.36888695
000040 e9 59 6e 3e 58 93 b8 3d 4f 2f d3 3e 49 d7 b9 bd
       0.23276486 0.090124786 0.4124703 -0.090742655
000050 45 30 ff 3d 72 cc d6 3e c8 d9 f0 3d 16 f4 e3 3e
       0.124603786 0.41952854 0.117602885 0.4452216
000060 85 3f 49 be 33 bc 47 bd 80 6a f7 3e 2a 1a f3 3e
       -0.19653137 -0.048763465 0.4832344 0.474809
000070 70 c3 a0 bd e8 dc 08 be f6 2e e7 3e 1c 72 42 3e
       -0.07849777 -0.13365519 0.45153016 0.18988842
000080 54 8b 2e be 2a ea c3 3e 28 cf fd be 66 42 81 be
       -0.17045337 0.3826459 -0.4957211 -0.2524597
000090 99 56 bb 3e 30 c5 ee 3d 90 1e 73 3e ca 5f 68 3c
       0.36589506 0.11658704 0.23742127 0.014182994
0000a0 53 bb 00 3f 84 f7 1c 3e 70 ef 40 3d 9d f7 88 3e
       0.50285834 0.15328795 0.047103345 0.26751414
0000b0 d0 cd 18 be 7d 35 cb be 9e 77 54 be 45 43 fe be
       -0.14922261 -0.39689246 -0.20748755 -0.49660698
0000c0 34 ba 83 be 7f 8d bf be b8 80 76 be 74 76 3a 3e
       -0.25728 -0.3741264 -0.2407254 0.18209249
0000d0 40 00 e9 be af 0d 6d 3d 5a 7c 0f 3e 02 8d fc be
       -0.45508003 0.057874378 0.1401228 -0.4932633
0000e0 fa ba bd 3e 0a ba ec be 7a 7c bb 3e f6 da 20 be
       0.37056714 -0.46235687 0.36618406 -0.15708527
0000f0 4e 93 8d 3e c4 5e c7 3d e1 b4 a7 3e 74 a4 33 be
       0.27651447 0.09734872 0.32755187 -0.17543203

l2.weight f4 [3, 64]
000000 01 c4 dc 3d bc 54 9c bd de 53 89 3d f5 1c aa bd
       0.10779572 -0.07633349 0.067054495 -0.08306304
000010 24 cd c4 3a 56 e0 92 bd 0a 5b aa bd 9c 55 09 bd
       0.001501475 -0.07171695 -0.083181456 -0.03352891
000020 83 0f 17 bd 29 db dc 3d 74 94 06 3d bc ca 9f bd
       -0.036880028 0.10783989 0.03285642 -0.078023404
000030 ff c2 e0 bd 00 82 7d bd f8 90 f9 3c 7d fd d0 3d
       -0.109746926 -0.061891556 0.030464634 0.10204599
000040 6c b7 cb bd f8 a4 3f bd 7c 09 97 3d 83 35 b9 bd
       -0.09947094 -0.046788186 0.07374856 -0.0904341
000050 ee ce df 3d 8f f9 8b 39 a0 84 7d 3c e8 2c e2 bd
       0.109281406 0.00026698082 0.015473515 -0.110437214
000060 4a f1 c5 bc 4f 2b c0 bc dc 35 57 3d 4a 9a 9e 3d
       -0.024162907 -0.023458151 0.0525416 0.07744272
000070 bc fd 2a bd e4 43 9b 3d 2f d8 08 3e 40 ea 77 bb
       -0.041745886 0.075813085 0.13363717 -0.0037828833
000080 00 36 ab bd 55 80 be 3c c6 cf f1 bd 70 7d b9 bd
       -0.08359909 0.023254553 -0.11807208 -0.090571284
000090 03 df a3 bc f0 10 ce bd 64 bd 8f 3d db 31 26 3d
       -0.020003801 -0.10061824 0.07018545 0.04057489
0000a0 0e dc eb 3d 30 ea 19 3c 88 67 de 3d 2d 01 c5 3d
       0.115165815 0.009394214 0.10859591 0.09619365
0000b0 f4 d7 14 3d 45 87 fc bd f8 1b e2 bc 76 ca 8b bd
       0.03633876 -0.12330488 -0.027601227 -0.06825726
0000c0 b6 d9 f2 bd 29 93 29 3d 00 54 74 bb 08 0f 07 3d
       -0.11857931 0.04140011 -0.0037281513 0.03297332
0000d0 e5 47 dc bd 39 e9 a9 bd 01 83 0c bc d8 8d 44 3d
       -0.107559 -0.08296437 -0.008576156 0.047986835
0000e0 14 7c 24 bd b4 a0 ce bd ce bd d7 3d 16 8b 4f 3b
       -0.040157393 -0.100892454 0.10534249 0.0031668595
0000f0 ae 98 da bd c8 b5 85 bd ea 2f 88 3d 60 7f 31 bd
       -0.106736526 -0.06528813 0.06649764 -0.043334365
000100 57 08 d7 3d 9f d6 8a bd 44 8c 8f bd af 4b 97 bd
       0.104996376 -0.06779217 -0.070091754 -0.073874824
000110 e8 71 b2 3b b6 ea 8f bd 92 70 af bd 4b 69 22 bd
       0.0054457076 -0.070271894 -0.08566393 -0.039651196
000120 d5 a1 a1 bd b1 80 bc 3c 4a 1a 8c 3d ba 76 87 bd
       -0.07892195 0.023010584 0.06840952 -0.06614442
000130 36 a9 28 bd 54 22 87 3d 06 3c 8f bd 17 d0 35 bd
       -0.041176997 0.065983444 -0.069938704 -0.044387903
000140 13 1c b5 3d 90 b8 d2 bd 62 91 8e 3d 53 c7 66 3d
       0.08843245 -0.10289109 0.06961323 0.056342434
000150 89 2d 19 bd 28 2c bd 3d 80 0b af bd 20 95 e0 bd
       -0.03739694 0.09236938 -0.08547115 -0.10965943
000160 ec 8a 54 3d 04 76 0d be dd 14 bb bd d3 ab 97 bd
       0.0518903 -0.1381455 -0.09134839 -0.0740582
000170 b8 cc 91 bc 8a 37 95 3d 00 e6 54 3d 3a 98 b7 3d
       -0.017797813 0.07285984 0.051977158 0.08964582
000180 ee ed b6 bd c3 a4 4b bd 4c 39 1f 3d cf 73 56 bd
       -0.089321 -0.049717676 0.038873002 -0.052356537
000190 8a 93 e2 bd a0 cd ab bb da f8 91 3d ad 1f f3 bd
       -0.11063297 -0.0052430183 0.07127543 -0.11871276
0001a0 a9 3f 93 3d e8 6e 93 bc b4 76 c3 bd 26 9a c9 bd
       0.071898766 -0.01799722 -0.09544125 -0.098438546
0001b0 90 5f 7b 3d 03 5f eb 3d 7c 49 c9 bc 9c 72 66 bd
       0.061370432 0.114927314 -0.024571173 -0.056261644
0001c0 b8 95 fd 3d 95 fb eb 3d 00 41 59 ba 0e a1 bf bd
       0.12382072 0.11522595 -0.0008287579 -0.093568906
0001d0 b5 4b 44 bd de 22 a3 3d 4a 0c 65 bd 18 b9 b6 bd
       -0.047923762 0.07965635 -0.055919923 -0.089220226
0001e0 5d f1 18 be e4 aa 51 bd 1e 59 c2 3d ca 81 b6 3d
       -0.14935823 -0.051188365 0.09489654 0.08911474
0001f0 60 17 d0 bc 2b 28 da 3d 84 c7 e2 bd 7e 2e 92 bd
       -0.025401771 0.10652193 -0.11073211 -0.07137774
000200 20 18 98 bd ad e2 17 3d 61 56 fb 3c c4 bb c4 bd
       -0.074264765 0.03708141 0.030680837 -0.09606126
000210 61 68 24 3d 59 fd b4 bc ac 37 74 3d 3b b1 c4 3b
       0.040138606 -0.022093462 0.059623405 0.006002573
000220 6f 4e 0d 3d 26 2b 8c 3c 34 72 74 bd d2 15 ae bd
       0.03449863 0.017110419 -0.059679225 -0.08500256
000230 ae 11 c6 3d 40 97 95 3b 40 df 3f bb 3a 9e b5 3c
       0.09671341 0.0045651495 -0.0029277354 0.022170175
000240 d5 86 e1 bd 88 9f 8d bd 8a 96 f7 bc 09 c7 8b 3c
       -0.11012045 -0.06915194 -0.03022315 0.01706268
000250 49 8e 1b bd dc e5 02 be 90 f9 01 bc 5d b8 d8 3d
       -0.03797749 -0.12782997 -0.0079330355 0.105820395
000260 cb 2f b9 3d 80 a4 b5 bd e9 dc d4 3d dc f8 33 bd
       0.09042319 -0.088692665 0.10393698 -0.043938503
000270 f0 0a ed bc a6 25 98 bd af 5f 76 3d a8 ff b3 bd
       -0.02893588 -0.07429056 0.060149845 -0.08788997
000280 8a 9d c7 3d c4 c4 18 be ac 96 b8 bd 01 53 82 3d
       0.09746845 -0.1491881 -0.090131134 0.06363488
000290 79 cd c4 3d e0 e2 38 3d b0 1a 59 3c 49 bc d1 3c
       0.09609503 0.04513824 0.013250992 0.025602477
0002a0 0f a5 e3 bb 00 09 09 bd b8 6a df bc fe 9e f7 bd
       -0.0069471668 -0.03345585 -0.027272567 -0.12090872
0002b0 38 01 c0 bd 1b 90 9c 3d 4d 90 fe 3d 1c ab 98 bc
       -0.093752325 0.076446734 0.12429867 -0.018636279
0002c0 44 36 a8 bd ec 11 1d 3a 40 32 4f bd d0 22 dc bd
       -0.08213475 0.0005991745 -0.05058503 -0.107488275
0002d0 91 51 1e 3e 0d 2c b0 bc ea 33 ac bd 8c a7 88 3d
       0.15460803 -0.02150538 -0.08408339 0.06672582
0002e0 be fc 41 3c 60 9b db 3c 70 cf c1 bc e8 10 e4 3d
       0.011840044 0.026807487 -0.023658484 0.11136037
0002f0 1a 8c f0 3d c0 e3 a0 b8 ef fc b2 bb 50 29 ba bd
       0.11745472 -7.671816e-05 -0.005462281 -0.09089911

l2.bias f4 [3]
000000 5e 83 a0 3d 4c f0 7a bd 3f 9b e2 bc
       0.07837556 -0.06126432 -0.027661918

exp_avg f4 [64, 4]
000000 d7 d5 c6 bc 15 dd 07 bd a2 1a 34 3d 64 0e dd 3c
       -0.024271889 -0.033169825 0.04397071 0.026984401
000010 f6 9b 83 3c ce 08 b7 3c fe 12 ed bc 38 01 8f bc
       0.016065579 0.022343066 -0.02893972 -0.017456636
000020 bb 54 29 3b 07 ae 85 bc 83 31 00 3d 07 3b 38 3c
       0.0025837857 -0.016318334 0.031297218 0.011244542
000030 a3 4b ab 3c c6 b3 1c 3c 71 bc 97 3c 76 46 f2 3b
       0.02091009 0.009564346 0.018522473 0.0073936535
000040 e2 ff e0 3b 1f 46 31 3c 28 ae 6f bc c6 fa 07 bc
       0.006866441 0.010819941 -0.014628924 -0.008299535
000050 41 10 c7 3b d3 5d d2 3b df 67 ed bb 52 96 a9 bb
       0.0060749357 0.006419876 -0.0072450484 -0.0051753903
000060 00 00 00 00 00 00 00 00 00 00 00 00 00 00 00 00
       0.0 0.0 0.0 0.0
000070 19 53 5e 3c 2d dc 5a 3c 23 37 1b bc 75 4f e8 bb
       0.013569617 0.013358158 -0.009473595 -0.00708955
000080 47 f4 cc 3b c6 68 6f 3b f8 98 b4 bb f4 08 ca bb
       0.006254706 0.0036530956 -0.0055113994 -0.006165618
000090 52 19 00 bc ea ba be bc d2 b1 17 3d 2c c4 90 3c
       -0.007818537 -0.023282487 0.037034817 0.017671667
0000a0 00 00 00 00 00 00 00 00 00 00 00 00 00 00 00 00
       0.0 0.0 0.0 0.0
0000b0 00 00 00 00 00 00 00 00 00 00 00 00 00 00 00 00
       0.0 0.0 0.0 0.0
0000c0 48 43 db 3c 0f 51 3d 3d 93 8d 84 bd 6d e3 11 bd
       0.02676548 0.04621988 -0.06472316 -0.03561728
0000d0 00 00 00 00 00 00 00 00 00 00 00 00 00 00 00 00
       0.0 0.0 0.0 0.0
0000e0 00 00 00 00 00 00 00 00 00 00 00 00 00 00 00 00
       0.0 0.0 0.0 0.0
0000f0 67 e9 34 bb b8 c3 c6 bc 93 68 2a 3d 95 30 8d 3c
       -0.002760494 -0.024263248 0.041603636 0.01723508
000100 12 fb 15 bc 9f 93 7f 3c 34 52 08 bd b3 6a 12 bc
       -0.009154098 0.01559916 -0.03328152 -0.008936572
000110 00 00 00 00 00 00 00 00 00 00 00 00 00 00 00 00
       0.0 0.0 0.0 0.0
000120 37 84 68 bc 21 5c aa bc cf b4 e9 3c 21 07 8b 3c
       -0.014191679 -0.020795884 0.028528599 0.016971173
000130 da 2a 1a 3c a6 76 0e 3d a3 25 63 bd 69 a5 cc bc
       0.009409631 0.03478112 -0.055455815 -0.024981217
000140 1c ff 5f bc 6d 2e 2a bd 61 7f 86 3d f7 f4 fd 3c
       -0.013671663 -0.04154818 0.06567264 0.031000597
000150 a0 ee a9 bc a8 52 61 bc ad 75 3c 3c 11 0b 55 3c
       -0.020743668 -0.013752617 0.0115026655 0.013003127
000160 00 00 00 00 00 00 00 00 00 00 00 00 00 00 00 00
       0.0 0.0 0.0 0.0
000170 fe b2 1a 3c 01 c4 b7 3c cd ea 58 bd 9f 01 fc bc
       0.009442089 0.02243233 -0.0529583 -0.030762492
000180 8a 1e 57 3c 2c 94 e8 3c e3 c7 2a bd c0 c6 ad bc
       0.01312984 0.028390966 -0.041694533 -0.021212935
000190 13 33 c7 bc ae 8d eb bc e0 94 5b 3c 01 f0 ea 3b
       -0.024316346 -0.028754082 0.013402194 0.007169724
0001a0 92 a5 73 3c 5b 53 ab ba 96 2a 4d 3c f2 64 7a ba
       0.014871018 -0.0013071107 0.01252236 -0.0009551785
0001b0 88 a6 1d bc 17 27 15 bd 63 eb 72 3d c0 02 dd 3c
       -0.009622224 -0.036414232 0.059306514 0.02697885
0001c0 00 00 00 00 00 00 00 00 00 00 00 00 00 00 00 00
       0.0 0.0 0.0 0.0
0001d0 00 00 00 00 00 00 00 00 00 00 00 00 00 00 00 00
       0.0 0.0 0.0 0.0
0001e0 5d a9 fd bc c5 e2 df bc 3f af cc 3b 64 40 c6 3b
       -0.030964548 -0.027329812 0.006246477 0.0060501564
0001f0 00 00 00 00 00 00 00 00 00 00 00 00 00 00 00 00
       0.0 0.0 0.0 0.0
000200 00 00 00 00 00 00 00 00 00 00 00 00 00 00 00 00
       0.0 0.0 0.0 0.0
000210 7f 2d e5 bd ab 53 9b bd 79 f8 0a bd 8c 65 c0 bb
       -0.11190318 -0.07584318 -0.03392837 -0.0058714803
000220 00 00 00 00 00 00 00 00 00 00 00 00 00 00 00 00
       0.0 0.0 0.0 0.0
000230 91 08 aa 3c 5d ce 09 3d 0e 97 3c bd 0d 6d d4 bc
       0.020756038 0.03364407 -0.046042494 -0.025930906
000240 88 4e a6 3c 0a 7f 4c 3c e5 e3 0c bc 1f d1 39 bc
       0.020301118 0.01248146 -0.008599256 -0.011341362
000250 00 00 00 00 00 00 00 00 00 00 00 00 00 00 00 00
       0.0 0.0 0.0 0.0
000260 00 00 00 00 00 00 00 00 00 00 00 00 00 00 00 00
       0.0 0.0 0.0 0.0
000270 c8 ad a9 3b 01 cc 94 bc 55 ae 14 3d d8 33 46 3c
       0.005178187 -0.018163683 0.03629907 0.012097321
000280 64 39 e2 bc d9 50 ec bc 00 b4 9b 3c ea 7a 54 3c
       -0.027615257 -0.028847145 0.01900673 0.012968758
000290 00 00 00 00 00 00 00 00 00 00 00 00 00 00 00 00
       0.0 0.0 0.0 0.0
0002a0 00 00 00 00 00 00 00 00 00 00 00 00 00 00 00 00
       0.0 0.0 0.0 0.0
0002b0 f1 93 a7 bc 0f 39 68 bd 58 4b b5 3d 43 be 2e 3d
       -0.020456286 -0.05669504 0.08852261 0.042661916
0002c0 00 00 00 00 00 00 00 00 00 00 00 00 00 00 00 00
       0.0 0.0 0.0 0.0
0002d0 34 d2 8f 3c 43 7c 70 3d 9b 2f be bd d0 f2 2e bd
       0.017556287 0.058712255 -0.09286424 -0.042712033
0002e0 b6 59 a4 3c 06 bc d0 3c b9 5c 03 bd 78 d1 a6 bc
       0.020062309 0.025480282 -0.03207085 -0.020363554
0002f0 1c 37 f9 3b dc 84 4b 3c fc b8 88 bc 39 15 18 bc
       0.0076054465 0.012421813 -0.01668977 -0.009282404
000300 00 00 00 00 00 00 00 00 00 00 00 00 00 00 00 00
       0.0 0.0 0.0 0.0
000310 49 71 1d bc 50 91 68 bb 04 c3 23 3a 33 07 8d 3b
       -0.009609529 -0.0035487004 0.0006247016 0.0043038367
000320 00 00 00 00 00 00 00 00 00 00 00 00 00 00 00 00
       0.0 0.0 0.0 0.0
000330 00 00 00 00 00 00 00 00 00 00 00 00 00 00 00 00
       0.0 0.0 0.0 0.0
000340 78 a0 09 be 58 20 75 bd 90 17 fc bd 37 6a 4b bd
       -0.1344012 -0.0598453 -0.12309182 -0.04966184
000350 60 fe 06 3e f7 87 b8 3d d5 d6 1f 3d 78 1a d6 3b
       0.13182974 0.09010308 0.03902324 0.006533917
000360 87 12 11 bc 18 09 a9 bc 05 a7 01 3d 68 f6 82 3c
       -0.008854515 -0.020634219 0.031653423 0.015986636
000370 00 00 00 00 00 00 00 00 00 00 00 00 00 00 00 00
       0.0 0.0 0.0 0.0
000380 72 b2 88 3d af 0c e1 3c de a1 4e 3d d6 61 81 3c
       0.06674661 0.027471868 0.050447337 0.015793722
000390 00 00 00 00 00 00 00 00 00 00 00 00 00 00 00 00
       0.0 0.0 0.0 0.0
0003a0 00 00 00 00 00 00 00 00 00 00 00 00 00 00 00 00
       0.0 0.0 0.0 0.0
0003b0 4a 29 0e 3c fe 3d c1 3c 0a 99 1b bd 8b ac 99 bc
       0.008676836 0.02358913 -0.037987746 -0.018759033
0003c0 00 00 00 00 00 00 00 00 00 00 00 00 00 00 00 00
       0.0 0.0 0.0 0.0
0003d0 fa 78 3a 3b 3e 88 f9 3c 5e 8a 55 bd 71 b6 ac bc
       0.0028453455 0.030460473 -0.05213391 -0.021083089
0003e0 32 ec ac bd de 08 7a bd 0c 3b 90 bc 37 41 63 ba
       -0.08443488 -0.061043613 -0.01760628 -0.00086690806
0003f0 00 00 00 00 00 00 00 00 00 00 00 00 00 00 00 00
       0.0 0.0 0.0 0.0

exp_avg_sq f4 [64, 4]
000000 4c dc c2 39 32 91 f3 38 38 77 a6 39 56 d9 7b 38
       0.00037166697 0.00011614188 0.00031750812 6.0045473e-05
000010 4b ac 04 39 8b d9 40 38 7c 97 f0 38 49 4b c0 37
       0.00012652685 4.597897e-05 0.00011472308 2.2923241e-05
000020 c8 72 56 39 cc 0b 8b 38 05 e4 d1 38 fa 82 24 37
       0.0002045139 6.630234e-05 0.000100083686 9.805657e-06
000030 6b 16 46 38 19 0b 26 37 24 b5 18 38 0f 36 b9 36
       4.7227757e-05 9.896955e-06 3.6408324e-05 5.519723e-06
000040 32 a7 cc 37 e3 4d 63 37 63 f5 df 37 b1 66 c5 36
       2.4396551e-05 1.3548389e-05 2.6697939e-05 5.8830124e-06
000050 c7 75 ee 37 58 d8 05 37 1e f8 83 37 59 ec 20 36
       2.8426655e-05 7.977789e-06 1.5731956e-05 2.397943e-06
000060 00 00 00 00 00 00 00 00 00 00 00 00 00 00 00 00
       0.0 0.0 0.0 0.0
000070 ff 62 08 38 cf 68 91 37 5c ca f2 37 e7 41 e2 36
       3.2517124e-05 1.7334152e-05 2.8942879e-05 6.742997e-06
000080 3d f9 d9 38 34 7f bb 37 d8 1f 84 38 49 6e 10 37
       0.000103937906 2.235137e-05 6.300182e-05 8.608747e-06
000090 54 7b 8b 38 d1 4e 31 38 f1 89 6c 38 4e f1 35 37
       6.651008e-05 4.2273492e-05 5.6395253e-05 1.0844624e-05
0000a0 00 00 00 00 00 00 00 00 00 00 00 00 00 00 00 00
       0.0 0.0 0.0 0.0
0000b0 00 00 00 00 00 00 00 00 00 00 00 00 00 00 00 00
       0.0 0.0 0.0 0.0
0000c0 df 77 ae 39 4c 0d 32 39 8a a7 b1 39 e1 dc 98 38
       0.00033277177 0.00016980356 0.00033884897 7.289067e-05
0000d0 00 00 00 00 00 00 00 00 00 00 00 00 00 00 00 00
       0.0 0.0 0.0 0.0
0000e0 00 00 00 00 00 00 00 00 00 00 00 00 00 00 00 00
       0.0 0.0 0.0 0.0
0000f0 a1 8d 46 39 4a 4e a1 38 8c 05 ce 38 30 3a 3c 37
       0.00018935512 7.691661e-05 9.823879e-05 1.1219221e-05
000100 10 02 36 3a 1f 1d 59 39 b3 e2 a3 39 6c 48 00 38
       0.00069430564 0.00020705581 0.00031258687 3.0585026e-05
000110 00 00 00 00 00 00 00 00 00 00 00 00 00 00 00 00
       0.0 0.0 0.0 0.0
000120 c7 ad 05 39 d9 7c 36 38 62 d0 fc 38 42 63 c6 37
       0.00012748606 4.3508455e-05 0.00012055111 2.364966e-05
000130 a3 00 8e 39 07 b2 1e 39 21 04 18 39 88 7f bc 37
       0.00027084825 0.00015134375 0.00014497388 2.2470733e-05
000140 da 2c 87 39 d2 fb 2b 39 77 f1 46 39 4c a7 14 38
       0.00025782624 0.00016401641 0.00018972704 3.5441757e-05
000150 53 26 15 3a a9 fd 0d 39 e5 e5 b0 39 6f 3a 48 38
       0.00056896097 0.00013541304 0.0003374062 4.7738136e-05
000160 00 00 00 00 00 00 00 00 00 00 00 00 00 00 00 00
       0.0 0.0 0.0 0.0
000170 b5 66 07 3a 84 38 0e 39 e6 3c de 39 03 9c 9d 38
       0.0005165146 0.00013563229 0.00042388513 7.515403e-05
000180 c6 28 cf 38 46 68 87 38 9a ad b7 38 31 fd 9d 37
       9.878124e-05 6.456724e-05 8.758456e-05 1.883376e-05
000190 29 63 9d 38 c6 64 21 38 5f de c6 37 01 0c 31 36
       7.5048134e-05 3.8479244e-05 2.3706989e-05 2.6382043e-06
0001a0 d2 c0 fa 39 bd 3b ec 38 26 25 88 39 c3 79 00 38
       0.00047827378 0.00011264484 0.0002596762 3.0630978e-05
0001b0 37 8c 78 39 79 d4 10 39 6b 5c 20 39 c4 b1 d4 37
       0.00023703357 0.00013812062 0.00015293217 2.5355148e-05
0001c0 00 00 00 00 00 00 00 00 00 00 00 00 00 00 00 00
       0.0 0.0 0.0 0.0
0001d0 00 00 00 00 00 00 00 00 00 00 00 00 00 00 00 00
       0.0 0.0 0.0 0.0
0001e0 ad b9 3c 38 63 fe d8 37 b9 23 b2 36 55 02 94 35
       4.4995617e-05 2.5867665e-05 5.308972e-06 1.1027538e-06
0001f0 00 00 00 00 00 00 00 00 00 00 00 00 00 00 00 00
       0.0 0.0 0.0 0.0
000200 00 00 00 00 00 00 00 00 00 00 00 00 00 00 00 00
       0.0 0.0 0.0 0.0
000210 40 c7 c9 39 fe f6 38 39 19 c8 13 38 81 0b 98 35
       0.0003848616 0.00017639619 3.5233887e-05 1.1328231e-06
000220 00 00 00 00 00 00 00 00 00 00 00 00 00 00 00 00
       0.0 0.0 0.0 0.0
000230 9a e7 4c 39 64 73 c2 38 06 5c 4b 39 87 1e 2d 38
       0.00019541234 9.272134e-05 0.0001939387 4.1274845e-05
000240 a1 a4 fa 39 3c 76 e8 38 5a 75 96 39 e6 62 29 38
       0.00047806374 0.00011084645 0.00028697663 4.0384846e-05
000250 00 00 00 00 00 00 00 00 00 00 00 00 00 00 00 00
       0.0 0.0 0.0 0.0
000260 00 00 00 00 00 00 00 00 00 00 00 00 00 00 00 00
       0.0 0.0 0.0 0.0
000270 36 93 d8 39 d2 14 10 39 62 f4 41 39 6f 61 92 37
       0.0004130841 0.00013740666 0.00018496954 1.7449927e-05
000280 60 23 d0 38 7a 84 3b 38 6e 24 41 38 b6 09 18 37
       9.924802e-05 4.4707653e-05 4.6048714e-05 9.062167e-06
000290 00 00 00 00 00 00 00 00 00 00 00 00 00 00 00 00
       0.0 0.0 0.0 0.0
0002a0 00 00 00 00 00 00 00 00 00 00 00 00 00 00 00 00
       0.0 0.0 0.0 0.0
0002b0 16 ad d4 39 2f e7 89 39 3b 6f af 39 95 1f 8a 38
       0.0004056475 0.00026302921 0.00033461474 6.5862354e-05
0002c0 00 00 00 00 00 00 00 00 00 00 00 00 00 00 00 00
       0.0 0.0 0.0 0.0
0002d0 15 c1 23 3a 73 70 bf 39 37 0c c4 39 1b 11 83 38
       0.0006246728 0.0003651414 0.00037393134 6.249753e-05
0002e0 3b 36 78 39 d7 23 94 38 69 aa 3c 39 16 bb 09 38
       0.00023671325 7.0638656e-05 0.0001799256 3.2837583e-05
0002f0 8b fb d9 37 5b 67 7d 37 58 a3 d1 37 3a c5 b9 36
       2.598555e-05 1.5104039e-05 2.4990804e-05 5.53639e-06
000300 00 00 00 00 00 00 00 00 00 00 00 00 00 00 00 00
       0.0 0.0 0.0 0.0
000310 40 ea 30 39 bf 42 1d 38 a6 3c e0 38 2c 25 7b 37
       0.00016871933 3.749388e-05 0.00010692449 1.4969421e-05
000320 00 00 00 00 00 00 00 00 00 00 00 00 00 00 00 00
       0.0 0.0 0.0 0.0
000330 00 00 00 00 00 00 00 00 00 00 00 00 00 00 00 00
       0.0 0.0 0.0 0.0
000340 d7 30 91 3a 85 9d 6f 39 60 70 5a 3a 33 f2 02 39
       0.0011077177 0.00022851497 0.0008332785 0.00012487992
000350 c0 15 6b 3a 3b a8 dd 39 6d 2c a1 38 84 f2 16 36
       0.00089677796 0.00042277746 7.685353e-05 2.2492904e-06
000360 5c 7d 6c 38 39 c3 1d 38 11 c8 7d 38 e8 dc 5a 37
       5.6383535e-05 3.7613532e-05 6.0506227e-05 1.3045246e-05
000370 00 00 00 00 00 00 00 00 00 00 00 00 00 00 00 00
       0.0 0.0 0.0 0.0
000380 5f 75 ce 39 ad e9 b1 38 d4 e4 41 39 13 72 8e 37
       0.0003937883 8.483543e-05 0.0001849116 1.6980839e-05
000390 00 00 00 00 00 00 00 00 00 00 00 00 00 00 00 00
       0.0 0.0 0.0 0.0
0003a0 00 00 00 00 00 00 00 00 00 00 00 00 00 00 00 00
       0.0 0.0 0.0 0.0
0003b0 2c 2d 92 38 24 be 30 38 56 63 73 38 1b dd 45 37
       6.9702364e-05 4.2138752e-05 5.802823e-05 1.1793595e-05
0003c0 00 00 00 00 00 00 00 00 00 00 00 00 00 00 00 00
       0.0 0.0 0.0 0.0
0003d0 1d 7c e7 39 02 78 4c 39 ee 04 4a 39 ad 18 b4 37
       0.00044152225 0.00019499662 0.00019266058 2.1469163e-05
0003e0 6e 7d 59 39 e6 d2 d4 38 49 87 ad 37 d2 5f 04 36
       0.00020741459 0.00010148231 2.0686204e-05 1.9725308e-06
0003f0 00 00 00 00 00 00 00 00 00 00 00 00 00 00 00 00
       0.0 0.0 0.0 0.0

exp_avg f4 [64]
000000 a4 86 2a bc d4 72 de 3b 7c d3 ad ba 2d f6 44 3b
       -0.010408077 0.006788591 -0.001326188 0.0030053959
000010 9f dc 46 3b 30 c2 18 3b 00 00 00 00 41 1b 85 3b
       0.0030343903 0.0023309104 0.0 0.004062087
000020 14 e9 28 3b 9e 8a a0 bb 00 00 00 00 00 00 00 00
       0.002577369 -0.004899337 0.0 0.0
000030 2d c1 4b 3c 00 00 00 00 00 00 00 00 65 bb 6c bb
       0.012436193 0.0 0.0 -0.0036122438
000040 87 86 31 ba 00 00 00 00 3a 3c ce bb fc 5f d4 3b
       -0.00067720603 0.0 -0.0062938007 0.006481169
000050 37 2e 0c bc 7f 59 eb bb 00 00 00 00 46 21 05 3c
       -0.00855594 -0.0071822996 0.0 0.008125609
000060 4b 95 dc 3b b9 09 d7 bb b2 72 71 3b c2 7c e2 bb
       0.0067316643 -0.0065624383 0.0036842045 -0.006911845
000070 00 00 00 00 00 00 00 00 b7 3c f1 bb 00 00 00 00
       0.0 0.0 -0.007361974 0.0
000080 00 00 00 00 a1 62 b8 bc 00 00 00 00 7c 27 19 3c
       0.0 -0.022507967 0.0 0.009347793
000090 74 88 dd 3b 00 00 00 00 00 00 00 00 a4 ae 5c ba
       0.0067606512 0.0 0.0 -0.00084183575
0000a0 c5 13 09 bc 00 00 00 00 00 00 00 00 b0 79 47 bc
       -0.00836653 0.0 0.0 -0.012175009
0000b0 00 00 00 00 18 9d 3b 3c 02 35 07 3c e3 f6 5c 3b
       0.0 0.011451028 0.008252384 0.0033716492
0000c0 00 00 00 00 ca cf 46 bb 00 00 00 00 00 00 00 00
       0.0 -0.0030336254 0.0 0.0
0000d0 b8 1a 9b bc 7b 5f d9 3c 29 db 9e bb 00 00 00 00
       -0.018933639 0.026534786 -0.0048479033 0.0
0000e0 07 d9 35 3c 00 00 00 00 00 00 00 00 fb 75 ad 3b
       0.011099107 0.0 0.0 0.0052936054
0000f0 00 00 00 00 44 51 8b 3b 72 b9 8e bc 00 00 00 00
       0.0 0.004251631 -0.017422412 0.0

exp_avg_sq f4 [64]
000000 57 de 47 37 4b 02 96 36 27 ae d7 36 a0 72 88 35
       1.1913092e-05 4.4706153e-06 6.4277733e-06 1.016615e-06
000010 f2 89 93 35 18 24 6b 35 00 00 00 00 b6 ee c6 35
       1.0992501e-06 8.7596845e-07 0.0 1.4821624e-06
000020 63 76 45 36 f0 ac 4f 36 00 00 00 00 00 00 00 00
       2.9424198e-06 3.0946067e-06 0.0 0.0
000030 96 ba 6b 37 00 00 00 00 00 00 00 00 38 5c de 36
       1.4050534e-05 0.0 0.0 6.6268512e-06
000040 28 a0 af 37 00 00 00 00 76 7b 8e 36 8b c8 41 37
       2.0936204e-05 0.0 4.2463025e-06 1.1550389e-05
000050 8e 86 49 37 31 1f 85 37 00 00 00 00 49 e9 78 37
       1.2011862e-05 1.586936e-05 0.0 1.4836268e-05
000060 fc f0 a0 36 76 38 4f 36 d5 7f 5e 37 d5 25 2e 37
       4.796426e-06 3.0878268e-06 1.3261994e-05 1.0380017e-05
000070 00 00 00 00 00 00 00 00 0d 6e 09 36 00 00 00 00
       0.0 0.0 2.0478649e-06 0.0
000080 00 00 00 00 a6 ed 81 37 00 00 00 00 bc 57 05 37
       0.0 1.5488662e-05 0.0 7.947845e-06
000090 6c f2 5f 37 00 00 00 00 00 00 00 00 65 fa 5c 37
       1.3348279e-05 0.0 0.0 1.3171321e-05
0000a0 bb 7e 8a 36 00 00 00 00 00 00 00 00 1c 1d a1 37
       4.127474e-06 0.0 0.0 1.920625e-05
0000b0 00 00 00 00 78 5a e6 37 5d 6e fc 36 a1 9b a1 35
       0.0 2.7460264e-05 7.523033e-06 1.2040729e-06
0000c0 00 00 00 00 fb e9 97 36 00 00 00 00 00 00 00 00
       0.0 4.5273896e-06 0.0 0.0
0000d0 b8 de ce 37 f0 fe 17 38 60 2d 38 36 00 00 00 00
       2.4660825e-05 3.6238634e-05 2.7444548e-06 0.0
0000e0 21 2c 44 37 00 00 00 00 00 00 00 00 81 30 56 36
       1.1692785e-05 0.0 0.0 3.1916718e-06
0000f0 00 00 00 00 10 9e 88 37 3a a8 0d 37 00 00 00 00
       0.0 1.6286067e-05 8.443423e-06 0.0

exp_avg f4 [3, 64]
000000 6a 76 91 bd 54 74 08 3d ec 10 85 bd 0b 4b dc 3c
       -0.07102664 0.033314064 -0.06497368 0.026891252
000010 df a4 a2 be 06 4b 0d 3e 00 00 00 00 2b bb e6 bd
       -0.31766412 0.1379815 0.0 -0.11266168
000020 fd 3a 3b 3d e8 7f c9 bd 00 00 00 00 00 00 00 00
       0.045710552 -0.09838849 0.0 0.0
000030 b4 6f 74 bb 00 00 00 00 00 00 00 00 2b 7e 87 be
       -0.0037298026 0.0 0.0 -0.26463446
000040 a0 3c e0 bc 00 00 00 00 e4 8f dd 3d 9f 32 a1 bd
       -0.027372658 0.0 0.108184606 -0.07870983
000050 79 0d 81 3c 17 6d 2e be 00 00 00 00 4f c7 de 3d
       0.015753495 -0.17033802 0.0 0.10877859
000060 08 fe d3 3c 0b 21 7f be 00 2e f5 bd 9f e2 03 3b
       0.025877967 -0.24914949 -0.119716644 0.002012409
000070 00 00 00 00 00 00 00 00 41 53 2d bd 00 00 00 00
       0.0 0.0 -0.042315725 0.0
000080 00 00 00 00 5f 08 1b be 00 00 00 00 20 93 53 bd
       0.0 -0.15139912 0.0 -0.05165398
000090 0a 56 01 3e 00 00 00 00 00 00 00 00 9e 59 4a 3d
       0.12630478 0.0 0.0 0.04940187
0000a0 58 e9 e7 be 00 00 00 00 00 00 00 00 98 20 c0 bd
       -0.45295215 0.0 0.0 -0.09381217
0000b0 00 00 00 00 0c 44 0a 3d f7 43 c1 3e 8c ba 2e bd
       0.0 0.0337563 0.37747166 -0.042658374
0000c0 00 00 00 00 0a db 4b 3e 00 00 00 00 00 00 00 00
       0.0 0.19907776 0.0 0.0
0000d0 48 7e 43 3d 40 be c3 bd c7 a1 8c 3e 00 00 00 00
       0.047727853 -0.09557772 0.27467176 0.0
0000e0 77 40 84 be 00 00 00 00 00 00 00 00 22 b3 c8 3d
       -0.25830433 0.0 0.0 0.09799792
0000f0 00 00 00 00 96 4d 22 be 11 af da bc 00 00 00 00
       0.0 -0.15849909 -0.026694806 0.0
000100 91 42 e1 bb 8f 6d 96 bd d9 7c cd 3c 60 cb 80 3c
       -0.0068743904 -0.073451154 0.025083946 0.015721977
000110 99 7f 94 3d 14 92 b8 bd 00 00 00 00 72 e6 31 3d
       0.072509 -0.09012237 0.0 0.04343266
000120 aa 01 37 bc af f3 fe 3a 00 00 00 00 00 00 00 00
       -0.01116983 0.0019451285 0.0 0.0
000130 b2 6b 16 bc 00 00 00 00 00 00 00 00 34 9e 8b 3d
       -0.00918095 0.0 0.0 0.06817284
000140 ae e4 f7 bc 00 00 00 00 c0 c6 a5 bd 22 99 4d 3b
       -0.03026041 0.0 -0.08094549 0.0031371792
000150 50 6d f2 bc 91 0d a3 3c 00 00 00 00 29 24 44 bd
       -0.02959314 0.01990393 0.0 -0.047886048
000160 2f 6c 2f bd d0 33 ca 3d b4 aa d1 3c e3 e2 76 bc
       -0.04282778 0.09873164 0.025594093 -0.015068742
000170 00 00 00 00 00 00 00 00 3c 31 d6 3c 00 00 00 00
       0.0 0.0 0.026146524 0.0
000180 00 00 00 00 9d e9 99 3d 00 00 00 00 ce 0e ed bb
       0.0 0.07515261 0.0 -0.007234431
000190 80 8d c3 bd 00 00 00 00 00 00 00 00 d6 0a 38 bd
       -0.09548473 0.0 0.0 -0.04493221
0001a0 6d 0e 05 3e 00 00 00 00 00 00 00 00 5c 9e 9d 3c
       0.12993784 0.0 0.0 0.01924055
0001b0 00 00 00 00 a0 95 f0 bc e3 b1 1b be 2d 3a 6a 3c
       0.0 -0.029368222 -0.15204577 0.014296097
0001c0 00 00 00 00 93 12 c2 bd 00 00 00 00 00 00 00 00
       0.0 -0.09476199 0.0 0.0
0001d0 a9 71 a7 3a f8 68 43 3d 26 47 0b be 00 00 00 00
       0.0012774962 0.047707528 -0.1360136 0.0
0001e0 24 fa e7 3d 00 00 00 00 00 00 00 00 89 c6 8c bd
       0.113270074 0.0 0.0 -0.06873805
0001f0 00 00 00 00 dc 1a 58 3d 78 82 8b 3c 00 00 00 00
       0.0 0.05275999 0.017029986 0.0
000200 93 8a 9f 3d cb 66 24 3d 6c 63 23 3d 36 8b 2e bd
       0.07790103 0.040137094 0.039889738 -0.04261323
000210 f1 09 7b 3e ee 07 44 bd 00 00 00 00 f2 c7 8d 3d
       0.24515511 -0.047859125 0.0 0.06922902
000220 93 7a 0d bd 17 84 c5 3d 00 00 00 00 00 00 00 00
       -0.034540724 0.09644335 0.0 0.0
000230 9e 87 53 3c 00 00 00 00 00 00 00 00 3b 2d 49 3e
       0.012910752 0.0 0.0 0.1964616
000240 a6 10 6c 3d 00 00 00 00 9a 24 df bc d4 c5 9a 3d
       0.057633065 0.0 -0.027239133 0.07557264
000250 ad bf 62 3c 64 0b 1a 3e 00 00 00 00 75 6a 79 bd
       0.013839644 0.15043408 0.0 -0.06089254
000260 53 da 8a 3c 23 07 1a 3e 53 c3 c0 3d 3a ea 55 3c
       0.016949808 0.15041785 0.09412255 0.013056332
000270 00 00 00 00 00 00 00 00 46 75 84 3c 00 00 00 00
       0.0 0.0 0.016169202 0.0
000280 00 00 00 00 1f 27 9c 3d 00 00 00 00 f8 34 71 3d
       0.0 0.07624649 0.0 0.058888406
000290 60 7a fc bc 00 00 00 00 00 00 00 00 4e 76 92 bb
       -0.030820072 0.0 0.0 -0.0044696694
0002a0 23 62 a5 3e 00 00 00 00 00 00 00 00 00 b9 98 3d
       0.32301435 0.0 0.0 0.07457161
0002b0 00 00 00 00 f7 c9 8f bb 10 d6 66 be 01 58 e8 3c
       0.0 -0.0043880898 -0.22542596 0.028362276
0002c0 00 00 00 00 84 a3 d5 bd 00 00 00 00 00 00 00 00
       0.0 -0.10431579 0.0 0.0
0002d0 d6 b9 48 bd 88 13 44 3d 68 fc 0d be 00 00 00 00
       -0.049005352 0.04787019 -0.13865817 0.0
0002e0 dc 83 14 3e 00 00 00 00 00 00 00 00 67 b2 ef bc
       0.14503425 0.0 0.0 -0.029259874
0002f0 00 00 00 00 bf 8d d8 3d 32 59 1e 3c 00 00 00 00
       0.0 0.10573911 0.0096648205 0.0

exp_avg_sq f4 [3, 64]
000000 88 16 02 3b 3d c3 85 3b 33 7a c9 39 16 a2 60 38
       0.0019849855 0.004082112 0.00038428753 5.3556716e-05
000010 e9 eb 0a 3c f7 98 64 3a 00 00 00 00 ff c5 37 3a
       0.008479097 0.00087203033 0.0 0.00070104
000020 f6 27 9e 38 b3 28 82 3b 00 00 00 00 00 00 00 00
       7.5414704e-05 0.003972137 0.0 0.0
000030 3f b7 c7 38 00 00 00 00 00 00 00 00 c9 16 76 3b
       9.523192e-05 0.0 0.0 0.0037550202
000040 33 d8 1a 3b 00 00 00 00 d8 7f 8e 3b 70 4a 7a 3b
       0.00236274 0.0 0.0043487363 0.003819134
000050 59 76 26 39 c4 0e 98 3b 00 00 00 00 bd 32 d1 39
       0.00015875082 0.004640432 0.0 0.0003990139
000060 29 55 2b 3a b6 f8 24 3b f3 47 6c 3b e0 ac 6f 39
       0.0006535822 0.0025172657 0.0036053627 0.00022857217
000070 00 00 00 00 00 00 00 00 30 48 5f 38 00 00 00 00
       0.0 0.0 5.3234573e-05 0.0
000080 00 00 00 00 8a 19 45 3a 00 00 00 00 9a 88 62 3b
       0.0 0.0007518759 0.0 0.0034566284
000090 49 3c 19 3b 00 00 00 00 00 00 00 00 da c2 0e 3a
       0.002338188 0.0 0.0 0.0005445905
0000a0 c2 68 12 3c 00 00 00 00 00 00 00 00 7e 78 09 3b
       0.008936109 0.0 0.0 0.002097636
0000b0 00 00 00 00 ed 92 2e 3a 34 2d b0 3b ac 2f ee 39
       0.0 0.0006659467 0.0053764824 0.00045430416
0000c0 00 00 00 00 46 0f 27 3b 00 00 00 00 00 00 00 00
       0.0 0.0025491281 0.0 0.0
0000d0 84 8a 61 38 8b 94 0c 3a 7b 46 ca 3b 00 00 00 00
       5.3773183e-05 0.0005362711 0.0061729527 0.0
0000e0 a2 11 4c 3b 00 00 00 00 00 00 00 00 bc 54 cb 39
       0.003113844 0.0 0.0 0.0003878231
0000f0 00 00 00 00 d6 cd 2c 3b fa ff 91 37 00 00 00 00
       0.0 0.0026367805 1.7404545e-05 0.0
000100 dc 53 34 3b 45 82 f6 3b e8 32 97 39 1a aa 04 38
       0.0027515804 0.0075228536 0.00028838892 3.1629672e-05
000110 82 48 a9 3b 4d e4 89 3a 00 00 00 00 08 2f 50 39
       0.0051661143 0.001052031 0.0 0.00019853946
000120 86 a4 d9 37 1c 87 b4 3b 00 00 00 00 00 00 00 00
       2.5945028e-05 0.0055092704 0.0 0.0
000130 51 2b 14 39 00 00 00 00 00 00 00 00 56 f7 98 3a
       0.00014130517 0.0 0.0 0.0011670392
000140 de 3c 81 3b 00 00 00 00 db 31 0b 3c 24 aa b1 3b
       0.0039440235 0.0 0.008495773 0.0054218937
000150 c5 bb a8 39 e2 a4 9d 3b 00 00 00 00 bb fe 63 39
       0.00032183356 0.0048109153 0.0 0.00021743301
000160 27 72 a3 3a 11 2d 03 3a 1a a5 8c 3b 0d 86 e1 39
       0.0012469933 0.0005003969 0.0042921426 0.0004301522
000170 00 00 00 00 00 00 00 00 e5 56 99 37 00 00 00 00
       0.0 0.0 1.8279485e-05 0.0
000180 00 00 00 00 cf 97 49 39 00 00 00 00 4d 92 ac 3b
       0.0 0.00019225407 0.0 0.005266464
000190 21 b6 8f 3b 00 00 00 00 00 00 00 00 40 22 88 3a
       0.004385725 0.0 0.0 0.0010386184
0001a0 43 b4 c4 3a 00 00 00 00 00 00 00 00 c8 fe 2b 3b
       0.0015007335 0.0 0.0 0.002624439
0001b0 00 00 00 00 b9 7d a6 3a d2 87 80 3b e1 a8 02 3a
       0.0 0.0012702263 0.003922441 0.00049842714
0001c0 00 00 00 00 f9 67 7b 3b 00 00 00 00 00 00 00 00
       0.0 0.0038361533 0.0 0.0
0001d0 4f c7 86 37 87 2d 1b 39 eb 6c 25 3c 00 00 00 00
       1.6066855e-05 0.00014798912 0.010096769 0.0
0001e0 45 b3 27 3a 00 00 00 00 00 00 00 00 c6 b0 fd 39
       0.00063972577 0.0 0.0 0.00048387627
0001f0 00 00 00 00 5b 21 07 3b 7a 75 c8 36 00 00 00 00
       0.0 0.0020619247 5.9741405e-06 0.0
000200 4f 59 e7 3a ab cb a2 3b 4d c4 5b 39 67 13 1a 39
       0.0017650517 0.004968127 0.00020958595 0.00014693812
000210 b1 81 86 3b da a7 4f 3a 00 00 00 00 ea a1 6e 39
       0.004104816 0.0007921435 0.0 0.00022757766
000220 3f c1 98 38 94 c5 70 3b 00 00 00 00 00 00 00 00
       7.28392e-05 0.003673886 0.0 0.0
000230 82 bd af 38 00 00 00 00 00 00 00 00 fd d3 d0 3a
       8.379949e-05 0.0 0.0 0.0015932318
000240 6f 19 26 3b 00 00 00 00 4f f8 d4 3b 91 2b 69 3b
       0.002534475 0.0 0.0064993273 0.0035578946
000250 f7 c2 49 39 3e 22 50 3b 00 00 00 00 3b a2 a9 39
       0.00019241484 0.0031758691 0.0 0.00032355063
000260 a1 9b 44 3a 06 1f 59 3a e1 4b 3f 3b d5 3b a4 39
       0.0007499997 0.0008282516 0.0029189514 0.00031325096
000270 00 00 00 00 00 00 00 00 01 b4 88 37 00 00 00 00
       0.0 0.0 1.6296284e-05 0.0
000280 00 00 00 00 a7 ea 43 39 00 00 00 00 38 05 66 3b
       0.0 0.00018684064 0.0 0.0035098325
000290 1d 97 55 3b 00 00 00 00 00 00 00 00 26 05 42 3a
       0.0032591291 0.0 0.0 0.000740128
0002a0 69 d2 77 3b 00 00 00 00 00 00 00 00 4e 99 eb 3a
       0.0037814623 0.0 0.0 0.0017974766
0002b0 00 00 00 00 cf 67 68 3a 46 21 c0 3b 71 ba a1 39
       0.0 0.00088655663 0.0058633415 0.00030847223
0002c0 00 00 00 00 e7 b3 77 3b 00 00 00 00 00 00 00 00
       0.0 0.003779644 0.0 0.0
0002d0 58 18 b7 38 2e 04 02 39 50 a0 1d 3c 00 00 00 00
       8.7306544e-05 0.00012399323 0.009620741 0.0
0002e0 a8 85 80 3a 00 00 00 00 00 00 00 00 63 7f 94 39
       0.0009805458 0.0 0.0 0.0002832367
0002f0 00 00 00 00 78 72 b4 3a f4 b7 ae 36 00 00 00 00
       0.0 0.0013767025 5.207019e-06 0.0

exp_avg f4 [3]
000000 17 de 6c bd f1 45 bf ba 45 d8 72 3d
       -0.05782899 -0.0014592988 0.059288282

exp_avg_sq f4 [3]
000000 b0 5f 0a 3a 8b 74 0b 3a 0a b3 c4 39
       0.0005278541 0.00053197955 0.00037517428
