assignments/pytorch_basics/session_5/lightning_logs/version_4/checkpoints/epoch=4-step=30.ckpt (torch, 13411 bytes, 12 tensors)

l1.weight f4 [64, 4]
0	0xbed659b5	-0.41865316
1	0x3ef80662	0.4844237
2	0x3dddfa8b	0.10838803
3	0x3ec6fbd2	0.38864
4	0x3e638ad0	0.22220922
5	0xbd91c3d3	-0.07117429
6	0x3eb17818	0.34661937
7	0x3ea21444	0.31656086
8	0x3e281cd8	0.16417253
9	0xbebe4c36	-0.3716752
10	0xbdc79808	-0.097457945
11	0xbed5f17c	-0.417858
12	0x3e80bd2e	0.25144333
13	0xbe8d77cc	-0.2763046
14	0xbe947b5a	-0.2900036
15	0xbd35aa00	-0.044351578
16	0x3e9eb050	0.3099389
17	0xbeb68ae0	-0.35652828
18	0x3d8ae78b	0.067824446
19	0xbe561976	-0.2090815
20	0xbcf8a900	-0.030354023
21	0xbed7cacc	-0.4214691
22	0xbdc47a40	-0.0959363
23	0xbe6bc494	-0.23024207
24	0x3ec99095	0.3936812
25	0x3ee71472	0.45132786
26	0xbe466a2a	-0.19376436
27	0x3ed17d69	0.40915993
28	0xbef4572c	-0.47722757
29	0x3e1887b0	0.1489551
30	0x3e28dd84	0.16490752
31	0x3eff419a	0.49854738
32	0x3eb69087	0.3565714
33	0xbe8e286a	-0.27765208
34	0x3e8fe76d	0.2810625
35	0x3e9d452b	0.30716833
36	0x3e951dd3	0.29124317
37	0xbe978fe9	-0.29601982
38	0x3ea4350e	0.32071728
39	0xbea1e4e6	-0.31619948
40	0x3e70d7d6	0.23519835
41	0xbe8dcff0	-0.27697706
42	0x3ea343d5	0.3188769
43	0x3eb039bc	0.34419048
44	0x3e578854	0.21048099
45	0xbdde2a88	-0.10847956
46	0xbec0282a	-0.37530643
47	0x3c613695	0.0137459235
48	0x3ee5bb64	0.4486953
49	0xbe0f9350	-0.14021039
50	0x3e56f007	0.2099
51	0x3e941697	0.28923485
52	0xbe4ff588	-0.20308506
53	0x3cbf45a0	0.02334863
54	0xbea39e2e	-0.3195662
55	0xbd170890	-0.0368734
56	0x3e87b16e	0.26502556
57	0xbeacac20	-0.3372507
58	0xbe96f254	-0.29481757
59	0x3d8b35c8	0.06797367
60	0x3eb55a71	0.35420564
61	0x3ea5053b	0.32230553
62	0x3eed628d	0.4636425
63	0x3dbbdd97	0.09173124
64	0xbea3b77d	-0.31975928
65	0x3ee82171	0.45338014
66	0x3daaf8ea	0.08348258
67	0x3e2364f6	0.15956482
68	0xbeb2b6f0	-0.34905195
69	0x3d5c2220	0.05374348
70	0xbeb3047e	-0.34964365
71	0x3e72ee4c	0.23723716
72	0xbde3e588	-0.11127764
73	0xbeac2e30	-0.33628988
74	0x3dcb8668	0.09937745
75	0xbef612cc	-0.48061216
76	0x3e07906a	0.13238683
77	0x3ef0d24f	0.47035453
78	0x3d90b62d	0.07065997
79	0xbeb70e8c	-0.35753286
80	0xbe6420c4	-0.22278124
81	0xbed14e62	-0.40880114
82	0xbe4a0fb8	-0.19732559
83	0x3e5d7828	0.21627867
84	0xbe6e949c	-0.23298877
85	0xbd756c99	-0.05991802
86	0x3eedbac2	0.46431547
87	0x3e77894f	0.24173473
88	0xbe8c058e	-0.27347988
89	0xbe5b7078	-0.21429622
90	0xbe50ca00	-0.20389557
91	0x3ee10d6a	0.43955547
92	0xbe955f47	-0.29174253
93	0x3eb81443	0.35952958
94	0x3e99cc6c	0.30038774
95	0x3d10821f	0.035280343
96	0x3e9ec0c8	0.31006455
97	0x3dc4404b	0.095825754
98	0x3eac01d8	0.33595157
99	0xbeffe26b	-0.4997743
100	0xbd264d00	-0.040600777
101	0x3d7fef04	0.062483802
102	0x3ec19fcc	0.37817228
103	0xbe07794f	-0.1322987
104	0x3e3677e0	0.17819166
105	0x3eb410e9	0.3516915
106	0x3e8ad388	0.2711451
107	0x3e1a6b08	0.15079892
108	0xbdb0276d	-0.0860127
109	0x3e9cf472	0.30655247
110	0x3e8a7f9e	0.2705049
111	0x3e67e445	0.22645672
112	0xbdbc28b8	-0.09187454
113	0x3e5d3c38	0.21605003
114	0xbebd13d0	-0.36929178
115	0x3e437ab4	0.19089776
116	0xbd0dd008	-0.034622222
117	0xbe09869e	-0.13430259
118	0x3e8f4340	0.27980995
119	0x3eaeb913	0.34125575
120	0xbe8167d4	-0.25274527
121	0xbe4a3668	-0.19747317
122	0x3e5fea90	0.21866822
123	0xbe9a3f30	-0.30126333
124	0x3e99bcc4	0.3002683
125	0xbe8927e3	-0.26788244
126	0xbe24e66a	-0.16103521
127	0x3edadc94	0.42746413
128	0x3de0def2	0.109800234
129	0xbe047517	-0.12935291
130	0x3e5af147	0.21381103
131	0x3efb9250	0.49135065
132	0x3e8ac9dd	0.27107134
133	0xbec2e82f	-0.38067767
134	0x3ed6f242	0.41981703
135	0x3be24e68	0.0069063194
136	0x3d574b40	0.052562
137	0xbe7b01a8	-0.2451235
138	0xbdbb91b8	-0.09158653
139	0x3ef078fa	0.46967298
140	0xbeb076f8	-0.34465766
141	0x3eeb7180	0.4598503
142	0xbeec55a8	-0.461591
143	0x3e701be8	0.23448145
144	0xbe0aada2	-0.13542798
145	0xbccfb2d5	-0.025353828
146	0x3eaa9ac8	0.33321214
147	0xbdaa5a04	-0.0831795
148	0xbef853ba	-0.48501378
149	0xbe92ac9a	-0.2864731
150	0xbec99cc6	-0.3937742
151	0x3e88a484	0.26688015
152	0x3e33ce83	0.17559247
153	0x3e063731	0.13106991
154	0xbed17d4b	-0.40915903
155	0x3e0cb896	0.13742289
156	0x3ea48fbe	0.32140917
157	0x3eb417a4	0.35174286
158	0x3f02c6dd	0.5108469
159	0xbe60a48b	-0.21937768
160	0x3e91551f	0.28385255
161	0x3eeeef32	0.46666867
162	0xbee642a0	-0.44972706
163	0x3eb72930	0.3577361
164	0xbdbcf888	-0.09227091
165	0xbeedb304	-0.4642564
166	0xbc4ddb40	-0.01256448
167	0xbedb858e	-0.42875332
168	0x3e31b72f	0.17355035
169	0xbe044475	-0.1291674
170	0xbe647dbd	-0.2231359
171	0xbef9a876	-0.48761338
172	0xbe7adbc8	-0.24497902
173	0x3d575070	0.052566946
174	0xbeea0898	-0.45709682
175	0xbdd610a8	-0.10452396
176	0xbe4f5cec	-0.2025029
177	0x3ea60352	0.32424408
178	0xbc69e474	-0.014275659
179	0xbea9908b	-0.3311809
180	0x3d1176b0	0.03551358
181	0xbedad99a	-0.42744142
182	0xbe40690c	-0.18790072
183	0xbe2c810c	-0.16846102
184	0xbe343eda	-0.17602101
185	0xbeac80a0	-0.33691883
186	0x3e87ab8e	0.26498073
187	0x3ebe29bd	0.3714122
188	0x3e779ec4	0.24181658
189	0xbe98b460	-0.29825115
190	0xbedbc326	-0.42922324
191	0xbec6daae	-0.38838714
192	0xbebfc0ae	-0.3745169
193	0xbe07ae68	-0.13250124
194	0x3e5a3f74	0.21313268
195	0x3e6f120c	0.23346728
196	0xbc6491c0	-0.013950765
197	0xbe0897d4	-0.13339168
198	0xbed8fa4e	-0.42378467
199	0xbeabe340	-0.33571815
200	0x3e54c813	0.20779447
201	0x3ef1267b	0.4709967
202	0x3e0a03ae	0.13477966
203	0xbd90053c	-0.070322484
204	0x3c820d00	0.01587534
205	0xbde0bc88	-0.109734595
206	0xbeaf6ec0	-0.34264183
207	0xbdcbcf48	-0.09951645
208	0xbe91d8f0	-0.28485823
209	0x3eaf405a	0.34228784
210	0xbe6b6a5c	-0.22989792
211	0xbe55e3c0	-0.20887661
212	0xbeabcbac	-0.33553827
213	0xbec89c3a	-0.3918169
214	0xbdccee38	-0.10006374
215	0x3ec79fc8	0.3898909
216	0x3ec3973d	0.38201323
217	0x3ea9fec2	0.33202177
218	0xbc8e4095	-0.01736478
219	0xbd9c9f9c	-0.076476306
220	0xbe42aa30	-0.19010234
221	0xbeb746d0	-0.35796213
222	0xbccbe3a0	-0.024888813
223	0x3eb7072c	0.3574766
224	0xbe0b9784	-0.13632017
225	0x3dcd8d38	0.10036701
226	0xbeac4876	-0.33649033
227	0x3e9839d6	0.29731625
228	0x3dca3301	0.098730095
229	0x3dd924e8	0.106027424
230	0x3ee74007	0.45166036
231	0xbe88a146	-0.26685542
232	0x3e1389a4	0.14407974
233	0xbe56cb88	-0.20976079
234	0xbe5d6888	-0.21621907
235	0xbe310514	-0.17287093
236	0x3e32f06f	0.1747453
237	0xbef689a1	-0.48151878
238	0x3e6b409d	0.22973867
239	0x3e77de87	0.24205981
240	0x3e36a9ac	0.17838162
241	0xbeff7068	-0.49890447
242	0xbeac273e	-0.3362369
243	0xbd81f0b0	-0.063447356
244	0x3ed3202e	0.4123549
245	0xbec61e84	-0.38695157
246	0xbe062032	-0.13098219
247	0x3ca81822	0.02051932
248	0xbefa640e	-0.4890446
249	0xbe3a57b4	-0.18197519
250	0xbe1aec6c	-0.1512925
251	0x3e5a947c	0.21345705
252	0x3ec51db1	0.38499215
253	0x3afe4805	0.0019400126
254	0xbe576489	-0.21034445
255	0xbe72e859	-0.23721446

l1.bias f4 [64]
0	0x3e8473b7	0.25869533
1	0xbdbec089	-0.09314067
2	0x3ea8dad0	0.3297944
3	0xbe55ea48	-0.20890152
4	0x3e0540c3	0.13012986
5	0xbd680240	-0.05664277
6	0x3a87588a	0.0010326069
7	0x3e280190	0.16406846
8	0xbf044cdf	-0.51679796
9	0xbe300b64	-0.17191845
10	0x3d473bcf	0.048641022
11	0xbe382bc3	-0.17985444
12	0x3ea80066	0.32812804
13	0xbe6d10e4	-0.23150975
14	0xbe4f5908	-0.20248806
15	0xbe1ea614	-0.15493041
16	0xbc5d8d6f	-0.01352249
17	0x3e9d22f2	0.30690724
18	0x3efacd9c	0.48984993
19	0x3e9e5f93	0.30932292
20	0x3ee7ca1c	0.45271385
21	0x3eb0f49c	0.34561622
22	0xbda3e7f8	-0.08003229
23	0xbe36b44d	-0.17842217
24	0xbe6e8b18	-0.23295248
25	0xbecebb25	-0.40377155
26	0x3e8aa22c	0.27076852
27	0x3ed960c9	0.42456654
28	0xbe9ff516	-0.31241673
29	0x3cc4b62e	0.024012651
30	0xbd9f5788	-0.07780367
31	0x3c6ae19a	0.014336014
32	0xbece93f8	-0.40347266
33	0x3e95d7fc	0.29266346
34	0xbea6a84e	-0.3255028
35	0x3d921050	0.071320176
36	0xbd71f925	-0.059075493
37	0xbee739ae	-0.45161194
38	0x3e6b5f72	0.22985628
39	0xbdd2e2e9	-0.10297186
40	0xbeaf5913	-0.34247646
41	0x3ec86fbe	0.39147753
42	0x3eb1373f	0.34612462
43	0x3ee49420	0.4464426
44	0x3ef11476	0.47085923
45	0x3eddb722	0.43303782
46	0x3ec1eba6	0.37875098
47	0x3d0a1da0	0.03371966
48	0xbec5594c	-0.3854469
49	0xbd15c0f0	-0.036560953
50	0xbef40b00	-0.47664642
51	0xbd84f1d0	-0.064914346
52	0x3e412124	0.18860298
53	0xbeab7db2	-0.33494335
54	0xbdfa2c23	-0.1221545
55	0xbe81fac8	-0.25386643
56	0xbdfec6e8	-0.12440282
57	0x3ea4d86a	0.3219636
58	0x3d98c3f8	0.07459253
59	0x3ec95ca5	0.39328495
60	0x3e964202	0.29347235
61	0x3d09bc47	0.03362682
62	0x3e985fe2	0.29760653
63	0xbef127c3	-0.47100648

l2.weight f4 [3, 64]
0	0xbddc6482	-0.10761358
1	0x3d91e559	0.07123823
2	0x3d9b7d6c	0.07592282
3	0xbb5cc380	-0.0033685863
4	0x3c8ae044	0.016952641
5	0x3db6a588	0.08918291
6	0xbdb9f31b	-0.09079572
7	0x3de23bb0	0.11046541
8	0x3bef13a9	0.007296045
9	0xbda5e7d9	-0.08100862
10	0x3d5f8dcd	0.05457859
11	0xbd0e1eaa	-0.034697212
12	0xbd9bf4c5	-0.076150455
13	0x3d9c3606	0.07627492
14	0xbd2e68c8	-0.042580396
15	0x3c82f5c3	0.015986329
16	0x3d05dcd4	0.0326813
17	0xbdaf9f08	-0.08575255
18	0x3d8caac4	0.068685085
19	0xbd094acd	-0.0335186
20	0x3cd61570	0.02613327
21	0x3cfa2006	0.030532848
22	0xbb49ad40	-0.003077343
23	0xbd762a3e	-0.06009888
24	0x3cb77a7b	0.02239727
25	0x3d3ad198	0.04561004
26	0x3e07c70e	0.13259527
27	0x3dcfb781	0.101424225
28	0x3deaa4a4	0.11457184
29	0xbdbe2762	-0.092848554
30	0xbd9bf41c	-0.076149195
31	0x3b211088	0.0024576504
32	0xbe163ea1	-0.14672329
33	0xbd898d08	-0.06716353
34	0xbcd55160	-0.02603978
35	0xbd677698	-0.056509584
36	0x3d1872f5	0.037219007
37	0x3d9078b0	0.07054269
38	0x3db72bec	0.08943924
39	0xbd842f6f	-0.0645436
40	0x3b9ea918	0.004841935
41	0xbdd1881c	-0.10231039
42	0x3baa9f51	0.0052069803
43	0xbdd1d1ac	-0.1024507
44	0xbc743096	-0.014904162
45	0x3dca6ce4	0.098840505
46	0x3d9c9024	0.0764468
47	0xbd593a1c	-0.053033933
48	0x3cf220f8	0.029556736
49	0xbc904ba8	-0.0176142
50	0x3ddfae16	0.10921876
51	0xbdec177c	-0.11527917
52	0x3d577020	0.052597165
53	0x3cda9a28	0.026684836
54	0x3dc5eb21	0.09663988
55	0x3cac9198	0.021065518
56	0xbd0bf900	-0.03417301
57	0xbdb8320c	-0.08993921
58	0xbd9d5d7e	-0.07683848
59	0xbdc95bc2	-0.098319545
60	0x3d559ef8	0.052153558
61	0xbca7b0d0	-0.020470053
62	0x3d3c3588	0.04594949
63	0x3e10cd3a	0.14140788
64	0xbe15c860	-0.14627218
65	0xbdb909d3	-0.09035077
66	0x3db7ba04	0.089710265
67	0xbde197ac	-0.11015257
68	0x3d17d0b0	0.037064254
69	0x3ca871a8	0.020562008
70	0xbb9a5d9f	-0.0047108675
71	0xbcd20c00	-0.025640488
72	0x3d031b71	0.032008592
73	0x3bda12c0	0.006655067
74	0x3d2fb232	0.04289455
75	0x3dcb33d7	0.09921997
76	0x3cbb9211	0.022896798
77	0x3c2c92f0	0.0105330795
78	0x3d031604	0.032003418
79	0xbd965874	-0.0734109
80	0xbd34d13e	-0.04414486
81	0xbc52e550	-0.012872055
82	0xbdea6a38	-0.11446041
83	0x3dcf3923	0.1011832
84	0xbdfbf5fc	-0.12302777
85	0x3d13d6c9	0.036093507
86	0x3da3f888	0.08006388
87	0x3d1d8f21	0.038466576
88	0x3dc6a4fe	0.096994385
89	0x3d695eaf	0.056975063
90	0xbc5ed7f1	-0.013601289
91	0xba66b59e	-0.0008800867
92	0xbb491900	-0.0030685067
93	0x3de2b86f	0.11070334
94	0x3d5cc0cc	0.053894803
95	0xbdd2e262	-0.10297085
96	0x3d68a839	0.056801055
97	0x3d340427	0.043949272
98	0xbcf5a840	-0.029987454
99	0xbd706e44	-0.058698907
100	0x3d8560f2	0.065126315
101	0x3c1204e0	0.008912295
102	0x3bd51d6f	0.006503753
103	0xbdf26b9d	-0.11836932
104	0xbdc47f60	-0.09594607
105	0x3d39b158	0.045335144
106	0x3cb10f69	0.021613793
107	0x3d81f982	0.06346418
108	0xbd8ef412	-0.069801465
109	0x3d1b9704	0.037985817
110	0xbddede6d	-0.10882268
111	0xbd03219c	-0.032014474
112	0xbd2e0db8	-0.042493552
113	0xbdca6adc	-0.09883663
114	0xbd8f4811	-0.069961675
115	0xbdc81282	-0.09769155
116	0x3dd0cf1e	0.101957545
117	0x3dc26a62	0.09492947
118	0x3dbc659b	0.09199067
119	0xbd1afc10	-0.03783804
120	0xbd979ad0	-0.07402575
121	0x3ddb50e1	0.10708786
122	0xbdc3709e	-0.095429644
123	0x3da7c6a8	0.081921875
124	0xbd537474	-0.05162473
125	0xbdb34cac	-0.087548584
126	0x3d850658	0.064953506
127	0xbdde29fd	-0.108478524
128	0x3d77193f	0.06032681
129	0x3bff622a	0.0077936845
130	0xbdf1b5ac	-0.11802229
131	0xbd077510	-0.033070624
132	0xbd2c2586	-0.042027973
133	0x3d9c256c	0.07624325
134	0xbd94b4d7	-0.07261055
135	0xbde5ef3e	-0.112272725
136	0x3d69e800	0.057106018
137	0x3cfc0d38	0.030768022
138	0x3d6a2635	0.057165343
139	0x3d15b8b7	0.03655311
140	0x3d89b11b	0.06723233
141	0xbdafc19a	-0.085818484
142	0xbcb36730	-0.02189979
143	0x3c08a837	0.008340887
144	0x3d27f84a	0.04100827
145	0x3ca8dd60	0.020613372
146	0x3ddfe498	0.10932273
147	0xbdb9a3e1	-0.090644605
148	0x3df98ea6	0.12185411
149	0xbcccf825	-0.025020668
150	0x3b95f6a0	0.004576519
151	0x3da9aea0	0.0828526
152	0xbcbdef7c	-0.023185484
153	0x3df33d17	0.11876886
154	0xbc1f8714	-0.009736795
155	0x3d48be95	0.04900988
156	0xbc7ab5f0	-0.015302166
157	0x3d8f32ee	0.06992136
158	0xbd72e930	-0.059304416
159	0x3da8f433	0.08249702
160	0xbcccbcaf	-0.024992315
161	0x3db8071a	0.089857295
162	0xbb3cf580	-0.0028832853
163	0xbda2050e	-0.0791112
164	0x3d50bb33	0.050959777
165	0x39a11600	0.00030724704
166	0x3d2f9153	0.0428632
167	0x3d149102	0.036271103
168	0xbe016479	-0.12635984
169	0x3d2958a0	0.041344285
170	0x3c95423b	0.018220058
171	0x3dca1308	0.09866911
172	0xbca0e7ed	-0.01964184
173	0x3d66484c	0.05622129
174	0x3d87db52	0.06633629
175	0xbd891544	-0.06693509
176	0xbdd51fa2	-0.10406424
177	0x3d1073d8	0.035266727
178	0xbc903038	-0.017601117
179	0x3d5b11e4	0.05348386
180	0x3c2f3fb0	0.010696337
181	0xbd8fd10a	-0.07022293
182	0xbde0fd35	-0.109857954
183	0xbda79c4c	-0.08184108
184	0x3daa0d84	0.08303359
185	0x3dbaa120	0.091127634
186	0xbcc5c808	-0.024143234
187	0xbd48f0f2	-0.04905791
188	0xbdb97886	-0.09056191
189	0x3de305fe	0.11085127
190	0xbd299ef4	-0.041411355
191	0x3d0410bc	0.03224252

l2.bias f4 [3]
0	0xbd2389b6	-0.039926253
1	0x3da86dfb	0.08224102
2	0x3b7ba18e	0.0038395855

exp_avg f4 [64, 4]
0	0xbca42611	-0.020037683
1	0x3ab944f1	0.0014134926
2	0xbd328b84	-0.043590084
3	0xbcbbbbf7	-0.022916777
4	0xbc02ecb0	-0.007991001
5	0xbcedcd41	-0.029028537
6	0x3d26b44b	0.040699285
7	0x3c841697	0.016124053
8	0x00000000	0.0
9	0x00000000	0.0
10	0x00000000	0.0
11	0x00000000	0.0
12	0x00000000	0.0
13	0x00000000	0.0
14	0x00000000	0.0
15	0x00000000	0.0
16	0xbca7830a	-0.020448226
17	0xbc7c631e	-0.015404491
18	0x3b86768c	0.0041034874
19	0x3bb9d8ad	0.0056715817
20	0x00000000	0.0
21	0x00000000	0.0
22	0x00000000	0.0
23	0x00000000	0.0
24	0x3ae41810	0.0017402191
25	0x3c5d33e4	0.013501141
26	0xbca8506a	-0.020546157
27	0xbbf48d26	-0.0074631153
28	0x00000000	0.0
29	0x00000000	0.0
30	0x00000000	0.0
31	0x00000000	0.0
32	0x3c341c2d	0.010993046
33	0x3c34ec55	0.011042674
34	0xbbde2ed9	-0.006780487
35	0xbb969a5e	-0.0045960387
36	0x3cd82a23	0.02638728
37	0x3d04e940	0.032449007
38	0xbcd8356f	-0.026392667
39	0xbc704e18	-0.0146670565
40	0xba8e1b5f	-0.0010841897
41	0xbb80a4a3	-0.003925876
42	0x3bb3476a	0.0054711597
43	0x3b0ec0fe	0.0021782513
44	0x3d86f617	0.06589907
45	0x3d34d068	0.044144064
46	0x3c995e7b	0.01872181
47	0x3b56387a	0.0032687471
48	0x3d1b02a6	0.037844323
49	0x3d3693ec	0.044574663
50	0xbd0c7fe7	-0.034301665
51	0xbca17bfd	-0.019712443
52	0x00000000	0.0
53	0x00000000	0.0
54	0x00000000	0.0
55	0x00000000	0.0
56	0x00000000	0.0
57	0x00000000	0.0
58	0x00000000	0.0
59	0x00000000	0.0
60	0x3bd8e16e	0.00661867
61	0xbbc9d4ef	-0.006159417
62	0x3c933f52	0.01797453
63	0x3ba9c000	0.005180359
64	0xbc7cd4a5	-0.015431558
65	0xbc1e0619	-0.0096450085
66	0xbc07af4d	-0.008281541
67	0xbb3a631e	-0.0028440426
68	0x00000000	0.0
69	0x00000000	0.0
70	0x00000000	0.0
71	0x00000000	0.0
72	0x00000000	0.0
73	0x00000000	0.0
74	0x00000000	0.0
75	0x00000000	0.0
76	0xbccfff5e	-0.025390323
77	0xbb2fb5ab	-0.0026811163
78	0xbcb7f942	-0.022457723
79	0xbb2c73ff	-0.0026314256
80	0x00000000	0.0
81	0x00000000	0.0
82	0x00000000	0.0
83	0x00000000	0.0
84	0x3c877b2b	0.016538223
85	0x3be11a88	0.006869618
86	0x3ca49b6e	0.020093646
87	0x3c1b3aba	0.009474451
88	0x00000000	0.0
89	0x00000000	0.0
90	0x00000000	0.0
91	0x00000000	0.0
92	0xbc9c466a	-0.019076545
93	0x3bc7b168	0.0060941465
94	0xbd395ffb	-0.04525755
95	0xbca12fe7	-0.019676162
96	0xbc9594eb	-0.018259486
97	0xbbabe930	-0.005246304
98	0xbc2ac558	-0.010423027
99	0x3942cc54	0.000185774
100	0x3c982a88	0.018574968
101	0x3c7d1e68	0.015449144
102	0xbbc9ebdb	-0.0061621494
103	0xbbc34d39	-0.0059601334
104	0xbcf88c34	-0.030340292
105	0xbd35c739	-0.044379447
106	0x3d2f9beb	0.042873304
107	0x3cb0800f	0.021545438
108	0xbbe04505	-0.0068441653
109	0xbc9e366a	-0.019313056
110	0x3cd2fcf6	0.025755387
111	0x3c2f2ec6	0.010692304
112	0x00000000	0.0
113	0x00000000	0.0
114	0x00000000	0.0
115	0x00000000	0.0
116	0xbe076969	-0.13223805
117	0xbd763eb6	-0.0601184
118	0xbdce5d5a	-0.10076399
119	0xbd0679d8	-0.032831043
120	0x00000000	0.0
121	0x00000000	0.0
122	0x00000000	0.0
123	0x00000000	0.0
124	0x3d076895	0.03305872
125	0x3c53fa77	0.012938133
126	0x3c648e7d	0.0139499875
127	0xbadeeafc	-0.0017007287
128	0x3c4b19c6	0.012396282
129	0x3d137c87	0.03600743
130	0xbd4b6e2f	-0.049665626
131	0xbcaae9ec	-0.020863496
132	0x3d1b01a1	0.03784335
133	0x3d3828ff	0.044960972
134	0xbd10778f	-0.03527027
135	0xbca52f04	-0.02016402
136	0x00000000	0.0
137	0x00000000	0.0
138	0x00000000	0.0
139	0x00000000	0.0
140	0x00000000	0.0
141	0x00000000	0.0
142	0x00000000	0.0
143	0x00000000	0.0
144	0xbc1d96e5	-0.009618496
145	0xbb938733	-0.004502201
146	0xbbb38b95	-0.005479286
147	0xba92556d	-0.0011164375
148	0x00000000	0.0
149	0x00000000	0.0
150	0x00000000	0.0
151	0x00000000	0.0
152	0xbc74a501	-0.014931918
153	0xbc892e07	-0.01674558
154	0x3bfa447a	0.0076375576
155	0x3b89063f	0.004181653
156	0x3d1bfcc1	0.03808284
157	0x3ccd4cb2	0.025060985
158	0xba80eb51	-0.0009835755
159	0xbc026b32	-0.007960128
160	0xbce65378	-0.028115973
161	0xbd110c0b	-0.035411876
162	0x3cf64136	0.030060392
163	0x3c876632	0.016528223
164	0x00000000	0.0
165	0x00000000	0.0
166	0x00000000	0.0
167	0x00000000	0.0
168	0x3cf238c9	0.029568093
169	0x3ca47ca1	0.020078959
170	0x3c104b52	0.00880702
171	0x3ac70c86	0.0015186227
172	0x00000000	0.0
173	0x00000000	0.0
174	0x00000000	0.0
175	0x00000000	0.0
176	0xbc582a23	-0.01319364
177	0xbc1144bd	-0.008866486
178	0xbb806197	-0.0039178836
179	0xba2dcdd6	-0.0006630098
180	0x00000000	0.0
181	0x00000000	0.0
182	0x00000000	0.0
183	0x00000000	0.0
184	0x3d261afb	0.040553074
185	0x3c997460	0.01873225
186	0x3cb971aa	0.022637207
187	0x3b58cd94	0.0033081518
188	0x00000000	0.0
189	0x00000000	0.0
190	0x00000000	0.0
191	0x00000000	0.0
192	0x00000000	0.0
193	0x00000000	0.0
194	0x00000000	0.0
195	0x00000000	0.0
196	0x00000000	0.0
197	0x00000000	0.0
198	0x00000000	0.0
199	0x00000000	0.0
200	0xbcb2891c	-0.021793894
201	0xbd288998	-0.041146845
202	0x3d3ef7f3	0.04662318
203	0x3cad14f3	0.021128153
204	0x00000000	0.0
205	0x00000000	0.0
206	0x00000000	0.0
207	0x00000000	0.0
208	0x00000000	0.0
209	0x00000000	0.0
210	0x00000000	0.0
211	0x00000000	0.0
212	0x00000000	0.0
213	0x00000000	0.0
214	0x00000000	0.0
215	0x00000000	0.0
216	0xbd7a027f	-0.061037537
217	0xbd511c2f	-0.05105227
218	0x3cac88c5	0.02106131
219	0x3ca46e79	0.020072209
220	0x00000000	0.0
221	0x00000000	0.0
222	0x00000000	0.0
223	0x00000000	0.0
224	0x00000000	0.0
225	0x00000000	0.0
226	0x00000000	0.0
227	0x00000000	0.0
228	0x3d2a5042	0.041580446
229	0x3d783b8c	0.060603663
230	0xbd6b333d	-0.05742191
231	0xbcead369	-0.028665261
232	0x00000000	0.0
233	0x00000000	0.0
234	0x00000000	0.0
235	0x00000000	0.0
236	0xbd2f4825	-0.04279341
237	0xbc18bf08	-0.009322889
238	0xbd42345b	-0.04741321
239	0xbc662158	-0.014046036
240	0x00000000	0.0
241	0x00000000	0.0
242	0x00000000	0.0
243	0x00000000	0.0
244	0x3d4926ba	0.0491092
245	0x3d05141f	0.032489892
246	0xbaf8a27d	-0.0018969324
247	0xbc2de3ee	-0.010613425
248	0x00000000	0.0
249	0x00000000	0.0
250	0x00000000	0.0
251	0x00000000	0.0
252	0xbc088d23	-0.008334431
253	0xbd1d1010	-0.038345397
254	0x3d668fb1	0.05628938
255	0x3cb22f79	0.021751152

exp_avg_sq f4 [64, 4]
0	0x39a2bb0f	0.00031038417
1	0x38967a3e	7.175327e-05
2	0x398997f1	0.0002624388
3	0x383d22a2	4.5093366e-05
4	0x398f310f	0.00027311637
5	0x391710a3	0.0001440668
6	0x38cbbd8f	9.715102e-05
7	0x3742a9c8	1.1602831e-05
8	0x00000000	0.0
9	0x00000000	0.0
10	0x00000000	0.0
11	0x00000000	0.0
12	0x00000000	0.0
13	0x00000000	0.0
14	0x00000000	0.0
15	0x00000000	0.0
16	0x38b5ced0	8.6692744e-05
17	0x37bebfa0	2.2738997e-05
18	0x386ec102	5.6923374e-05
19	0x37146ef2	8.847319e-06
20	0x00000000	0.0
21	0x00000000	0.0
22	0x00000000	0.0
23	0x00000000	0.0
24	0x390e490e	0.0001356939
25	0x3880373a	6.1138024e-05
26	0x383e49a3	4.536811e-05
27	0x36a04707	4.7766403e-06
28	0x00000000	0.0
29	0x00000000	0.0
30	0x00000000	0.0
31	0x00000000	0.0
32	0x37198b38	9.151925e-06
33	0x369ea89f	4.728397e-06
34	0x36972e81	4.5055644e-06
35	0x357ce4d7	9.421032e-07
36	0x38af1897	8.3492305e-05
37	0x3883c342	6.2829364e-05
38	0x3802f7ed	3.1225314e-05
39	0x3701735a	7.715857e-06
40	0x370483b3	7.898477e-06
41	0x36bef2fe	5.6907293e-06
42	0x35f66706	1.8358412e-06
43	0x34c229b0	3.6165648e-07
44	0x3a06c0b8	0.00051404117
45	0x39785107	0.00023681308
46	0x383b9673	4.472439e-05
47	0x35bda423	1.4129367e-06
48	0x39372986	0.00017467709
49	0x3906b0ec	0.00012845144
50	0x388c6922	6.695303e-05
51	0x378c0f0b	1.6696305e-05
52	0x00000000	0.0
53	0x00000000	0.0
54	0x00000000	0.0
55	0x00000000	0.0
56	0x00000000	0.0
57	0x00000000	0.0
58	0x00000000	0.0
59	0x00000000	0.0
60	0x38c1b788	9.2371425e-05
61	0x37e8e370	2.7762464e-05
62	0x3850747c	4.969955e-05
63	0x36b80790	5.4845077e-06
64	0x3762131e	1.3475101e-05
65	0x36973289	4.5060337e-06
66	0x36e50a85	6.8259565e-06
67	0x3583175d	9.76706e-07
68	0x00000000	0.0
69	0x00000000	0.0
70	0x00000000	0.0
71	0x00000000	0.0
72	0x00000000	0.0
73	0x00000000	0.0
74	0x00000000	0.0
75	0x00000000	0.0
76	0x3a137784	0.0005625414
77	0x3920d185	0.00015336841
78	0x39953289	0.00028457146
79	0x380883d9	3.254772e-05
80	0x00000000	0.0
81	0x00000000	0.0
82	0x00000000	0.0
83	0x00000000	0.0
84	0x38b9d6ae	8.8614746e-05
85	0x378e1fb9	1.6942491e-05
86	0x38a3c8ba	7.809834e-05
87	0x374d29c5	1.2228677e-05
88	0x00000000	0.0
89	0x00000000	0.0
90	0x00000000	0.0
91	0x00000000	0.0
92	0x38b1b39f	8.473475e-05
93	0x380377c3	3.134437e-05
94	0x38a5887f	7.8932375e-05
95	0x375b6f75	1.3079368e-05
96	0x396b857e	0.00022461076
97	0x38710e3d	5.7472138e-05
98	0x38f9ff0c	0.000119207514
99	0x376f4f4f	1.4263976e-05
100	0x38385f61	4.3957847e-05
101	0x3767f8bc	1.3826586e-05
102	0x37cca556	2.4395686e-05
103	0x36843236	3.939752e-06
104	0x39273c9a	0.00015948937
105	0x3906b47c	0.00012846472
106	0x3883335b	6.2561325e-05
107	0x376f9bd4	1.4281792e-05
108	0x3898e42a	7.290424e-05
109	0x3831e7d9	4.2416013e-05
110	0x37f714d9	2.9454402e-05
111	0x36847805	3.9478787e-06
112	0x00000000	0.0
113	0x00000000	0.0
114	0x00000000	0.0
115	0x00000000	0.0
116	0x3a00d293	0.00049141905
117	0x38d7c58c	0.00010288795
118	0x3991adfb	0.0002778618
119	0x37f538e8	2.9232775e-05
120	0x00000000	0.0
121	0x00000000	0.0
122	0x00000000	0.0
123	0x00000000	0.0
124	0x39e2a346	0.00043227727
125	0x38d0581f	9.934627e-05
126	0x398452dd	0.0002523874
127	0x38050c29	3.1720996e-05
128	0x39a90d5e	0.0003224415
129	0x3933450c	0.00017096492
130	0x3905784b	0.00012728681
131	0x3789eb18	1.6441147e-05
132	0x39216b34	0.00015394093
133	0x38eb4486	0.00011218437
134	0x3889940c	6.560245e-05
135	0x3785f7e2	1.5970265e-05
136	0x00000000	0.0
137	0x00000000	0.0
138	0x00000000	0.0
139	0x00000000	0.0
140	0x00000000	0.0
141	0x00000000	0.0
142	0x00000000	0.0
143	0x00000000	0.0
144	0x3781ddfb	1.5481366e-05
145	0x3653eb46	3.1578397e-06
146	0x37366d0b	1.0873434e-05
147	0x35c65ad8	1.4778589e-06
148	0x00000000	0.0
149	0x00000000	0.0
150	0x00000000	0.0
151	0x00000000	0.0
152	0x3793d0a6	1.7620925e-05
153	0x37352de3	1.07991245e-05
154	0x369caee0	4.6695204e-06
155	0x3533cb61	6.697865e-07
156	0x399b6bbf	0.0002964418
157	0x3896170e	7.156852e-05
158	0x394a9d5c	0.00019322842
159	0x37f28fbe	2.8915583e-05
160	0x38a67871	7.937931e-05
161	0x387bb0cd	6.0007722e-05
162	0x382ab41b	4.0698895e-05
163	0x37209c56	9.573143e-06
164	0x00000000	0.0
165	0x00000000	0.0
166	0x00000000	0.0
167	0x00000000	0.0
168	0x38bcea4d	9.0081805e-05
169	0x383012e6	4.197927e-05
170	0x37065eb6	8.009074e-06
171	0x3485b904	2.4907797e-07
172	0x00000000	0.0
173	0x00000000	0.0
174	0x00000000	0.0
175	0x00000000	0.0
176	0x36fce382	7.5366706e-06
177	0x36696595	3.4778834e-06
178	0x35354210	6.752389e-07
179	0x32b03db5	2.0517158e-08
180	0x00000000	0.0
181	0x00000000	0.0
182	0x00000000	0.0
183	0x00000000	0.0
184	0x399cd046	0.00029909814
185	0x3888335b	6.494551e-05
186	0x39284816	0.00016048583
187	0x3784e47e	1.5842026e-05
188	0x00000000	0.0
189	0x00000000	0.0
190	0x00000000	0.0
191	0x00000000	0.0
192	0x00000000	0.0
193	0x00000000	0.0
194	0x00000000	0.0
195	0x00000000	0.0
196	0x00000000	0.0
197	0x00000000	0.0
198	0x00000000	0.0
199	0x00000000	0.0
200	0x395ac121	0.00020862046
201	0x3915cb79	0.00014285547
202	0x38a1528f	7.692456e-05
203	0x37568a2f	1.2787567e-05
204	0x00000000	0.0
205	0x00000000	0.0
206	0x00000000	0.0
207	0x00000000	0.0
208	0x00000000	0.0
209	0x00000000	0.0
210	0x00000000	0.0
211	0x00000000	0.0
212	0x00000000	0.0
213	0x00000000	0.0
214	0x00000000	0.0
215	0x00000000	0.0
216	0x3a1c843a	0.0005970631
217	0x393b9972	0.00017890873
218	0x39ca5b87	0.00038596636
219	0x388596cf	6.3700245e-05
220	0x00000000	0.0
221	0x00000000	0.0
222	0x00000000	0.0
223	0x00000000	0.0
224	0x00000000	0.0
225	0x00000000	0.0
226	0x00000000	0.0
227	0x00000000	0.0
228	0x39d03d37	0.0003971846
229	0x399cf274	0.0002993528
230	0x38ef5fe9	0.00011414273
231	0x37d2388d	2.5060284e-05
232	0x00000000	0.0
233	0x00000000	0.0
234	0x00000000	0.0
235	0x00000000	0.0
236	0x399dea83	0.00030120098
237	0x3892131c	6.965382e-05
238	0x394146e5	0.00018432325
239	0x37a7f1f9	2.0020629e-05
240	0x00000000	0.0
241	0x00000000	0.0
242	0x00000000	0.0
243	0x00000000	0.0
244	0x3a0aebd7	0.0005299425
245	0x390516ae	0.00012692317
246	0x39b5dcc8	0.00034687505
247	0x3858d504	5.16968e-05
248	0x00000000	0.0
249	0x00000000	0.0
250	0x00000000	0.0
251	0x00000000	0.0
252	0x3a083da3	0.0005197173
253	0x39713960	0.00023004925
254	0x397525dc	0.00023379124
255	0x37e284b4	2.7003094e-05

exp_avg f4 [64]
0	0x3910d0fa	0.0001381076
1	0xbb94420e	-0.004524476
2	0x00000000	0.0
3	0x00000000	0.0
4	0xbbb44fbb	-0.0055026687
5	0x00000000	0.0
6	0x3ad6fa94	0.0016401582
7	0x00000000	0.0
8	0x3b52ec04	0.0032184133
9	0x3c08b5fd	0.008344171
10	0xba200028	-0.0006103539
11	0x3c577ba5	0.013152038
12	0x3c403cbe	0.011733232
13	0x00000000	0.0
14	0x00000000	0.0
15	0x3a15064c	0.0005684837
16	0xbb36a5f2	-0.0027869907
17	0x00000000	0.0
18	0x00000000	0.0
19	0xbbaa39ce	-0.005194879
20	0x00000000	0.0
21	0x3ad2d966	0.0016086518
22	0x00000000	0.0
23	0xb98568d1	-0.0002544583
24	0xbb862477	-0.0040937024
25	0x3ba84462	0.005135105
26	0xbc2a9c9c	-0.010413315
27	0xbb5bdc83	-0.0033548183
28	0x00000000	0.0
29	0xbcb29239	-0.02179824
30	0x00000000	0.0
31	0x3bf95400	0.0076088905
32	0x3bcce7b7	0.0062532085
33	0x3c41b248	0.011822291
34	0x00000000	0.0
35	0x00000000	0.0
36	0xbaf31fe1	-0.0018548929
37	0x00000000	0.0
38	0xbb8050b3	-0.00391587
39	0x3c20432f	0.009781643
40	0xbc1489d8	-0.009066068
41	0x00000000	0.0
42	0x3bc31412	0.0059533203
43	0x00000000	0.0
44	0xbb2ebe36	-0.0026663668
45	0x00000000	0.0
46	0x3c0b7e69	0.008514025
47	0x00000000	0.0
48	0x00000000	0.0
49	0x00000000	0.0
50	0xbc0a6e47	-0.008449144
51	0x00000000	0.0
52	0x00000000	0.0
53	0x00000000	0.0
54	0xbc8afca4	-0.016966172
55	0x00000000	0.0
56	0x00000000	0.0
57	0x3c66cede	0.014087407
58	0x00000000	0.0
59	0xbbd5f7cd	-0.0065297843
60	0x00000000	0.0
61	0x3c4fcd2d	0.012683195
62	0x00000000	0.0
63	0xbbb65015	-0.0055637457

exp_avg_sq f4 [64]
0	0x36f54b87	7.3103615e-06
1	0x373014ef	1.04952915e-05
2	0x00000000	0.0
3	0x00000000	0.0
4	0x362d3857	2.5811803e-06
5	0x00000000	0.0
6	0x369e99f7	4.726691e-06
7	0x00000000	0.0
8	0x34e1dabe	4.2068672e-07
9	0x369c12d7	4.6513555e-06
10	0x34d91cf3	4.0440463e-07
11	0x37adf782	2.0738462e-05
12	0x3722eb0b	9.710678e-06
13	0x00000000	0.0
14	0x00000000	0.0
15	0x362a2f58	2.5359532e-06
16	0x34d5ca26	3.9821424e-07
17	0x00000000	0.0
18	0x00000000	0.0
19	0x377e617d	1.5162278e-05
20	0x00000000	0.0
21	0x35e8cd2f	1.7345063e-06
22	0x00000000	0.0
23	0x3628338b	2.5063953e-06
24	0x36c7337d	5.936656e-06
25	0x35c76c6b	1.4858209e-06
26	0x37156f52	8.907011e-06
27	0x3647da3e	2.9780344e-06
28	0x00000000	0.0
29	0x3763f27a	1.358671e-05
30	0x00000000	0.0
31	0x373d0894	1.1267275e-05
32	0x374ee9d9	1.2333004e-05
33	0x370e94a6	8.4984695e-06
34	0x00000000	0.0
35	0x00000000	0.0
36	0x34c2a2ef	3.6253866e-07
37	0x00000000	0.0
38	0x35517c6a	7.8039614e-07
39	0x37101450	8.587798e-06
40	0x36944ed3	4.41992e-06
41	0x00000000	0.0
42	0x3674ecfd	3.6496779e-06
43	0x00000000	0.0
44	0x34a47eb6	3.0639575e-07
45	0x00000000	0.0
46	0x3713f546	8.81899e-06
47	0x00000000	0.0
48	0x00000000	0.0
49	0x00000000	0.0
50	0x3724199d	9.781125e-06
51	0x00000000	0.0
52	0x00000000	0.0
53	0x00000000	0.0
54	0x37a2fb5c	1.9428953e-05
55	0x00000000	0.0
56	0x00000000	0.0
57	0x37b03673	2.100619e-05
58	0x00000000	0.0
59	0x37050e31	7.930722e-06
60	0x00000000	0.0
61	0x377e5a14	1.5160553e-05
62	0x00000000	0.0
63	0x3791d02e	1.7382288e-05

exp_avg f4 [3, 64]
0	0x3bf3aedc	0.0074366163
1	0x3e0cccd4	0.1375001
2	0x00000000	0.0
3	0x00000000	0.0
4	0x3cd3b0d6	0.025841158
5	0x00000000	0.0
6	0xbe71ec37	-0.23625265
7	0x00000000	0.0
8	0x3e30112e	0.17194054
9	0x3da7bc84	0.081902534
10	0x3e3f06bb	0.18654911
11	0xbc1bbcb8	-0.009505443
12	0x3c8887b7	0.016666276
13	0x00000000	0.0
14	0x00000000	0.0
15	0xbc8f5336	-0.017495733
16	0xbc032669	-0.008004763
17	0x00000000	0.0
18	0x00000000	0.0
19	0xbe76cfd4	-0.24102718
20	0x00000000	0.0
21	0x3e36afa6	0.17840442
22	0x00000000	0.0
23	0x3d462b32	0.048381038
24	0xbd7733d8	-0.060352176
25	0x3de050b3	0.10952892
26	0xbd800bd7	-0.06252258
27	0x3c2a577d	0.010396835
28	0x00000000	0.0
29	0x3e170b96	0.14750513
30	0x00000000	0.0
31	0x3d095044	0.033523813
32	0x3e396430	0.18104625
33	0x3e214dc8	0.15752327
34	0x00000000	0.0
35	0x00000000	0.0
36	0x3d78e785	0.06076767
37	0x00000000	0.0
38	0xbe357feb	-0.17724578
39	0xbd80417e	-0.06262492
40	0xbe85f6bf	-0.26164815
41	0x00000000	0.0
42	0xbda149a8	-0.07875377
43	0x00000000	0.0
44	0xbdaee1d0	-0.08539164
45	0x00000000	0.0
46	0x3d1b852e	0.037968807
47	0x00000000	0.0
48	0x00000000	0.0
49	0x00000000	0.0
50	0xbe0118da	-0.12607136
51	0x00000000	0.0
52	0x00000000	0.0
53	0x00000000	0.0
54	0xbe4b349f	-0.19844292
55	0x00000000	0.0
56	0x00000000	0.0
57	0x3ba3eeec	0.005002847
58	0x00000000	0.0
59	0x3e3a7806	0.18209848
60	0x00000000	0.0
61	0xbc33a86c	-0.010965448
62	0x00000000	0.0
63	0xbe16cd08	-0.1472665
64	0x3c69ea7b	0.014277096
65	0xbddc749d	-0.1076443
66	0x00000000	0.0
67	0x00000000	0.0
68	0xbd53bb49	-0.05169228
69	0x00000000	0.0
70	0x3c50a539	0.012734705
71	0x00000000	0.0
72	0xbde05754	-0.109541565
73	0xbdaba407	-0.08380895
74	0xbdf28459	-0.118416496
75	0x3b9cfad4	0.004790643
76	0xbdd17daf	-0.1022905
77	0x00000000	0.0
78	0x00000000	0.0
79	0xbdd667af	-0.10468995
80	0x3ba0512c	0.004892489
81	0x00000000	0.0
82	0x00000000	0.0
83	0x3ca4abbc	0.02010142
84	0x00000000	0.0
85	0xbd8a6d13	-0.067590855
86	0x00000000	0.0
87	0xbbe41263	-0.0069601997
88	0xbd666654	-0.05624993
89	0xbd5f6825	-0.05454268
90	0xbd729843	-0.05922724
91	0xbd38184e	-0.044945054
92	0x00000000	0.0
93	0xbd6cc560	-0.05780542
94	0x00000000	0.0
95	0xbd07ddb3	-0.033170413
96	0xbd9d35d4	-0.076762825
97	0xbe029e75	-0.12755759
98	0x00000000	0.0
99	0x00000000	0.0
100	0xbc6f060f	-0.014588847
101	0x00000000	0.0
102	0x3d98742e	0.074440345
103	0xbdbc3dde	-0.09191488
104	0x3d96d4b0	0.07364786
105	0x00000000	0.0
106	0x3d1ce109	0.038300548
107	0x00000000	0.0
108	0x3d29f90b	0.04149727
109	0x00000000	0.0
110	0x3cb02055	0.021499792
111	0x00000000	0.0
112	0x00000000	0.0
113	0x00000000	0.0
114	0xbc1c9d71	-0.009559021
115	0x00000000	0.0
116	0x00000000	0.0
117	0x00000000	0.0
118	0xbb8bec6b	-0.0042701266
119	0x00000000	0.0
120	0x00000000	0.0
121	0xbd9b487b	-0.07582184
122	0x00000000	0.0
123	0xbdcaf5f1	-0.09910191
124	0x00000000	0.0
125	0xbd0b6b4c	-0.034037873
126	0x00000000	0.0
127	0x3cbafd20	0.022825778
128	0xbcb1e0f4	-0.021713711
129	0xbcf4942f	-0.029855816
130	0x00000000	0.0
131	0x00000000	0.0
132	0x3cd3c5bd	0.025851125
133	0x00000000	0.0
134	0x3e64e1e3	0.22351794
135	0x00000000	0.0
136	0xbd7f9611	-0.062398974
137	0x3af9e10e	0.0019064264
138	0xbd8b891b	-0.0681326
139	0x3b9a7ea1	0.0047148024
140	0x3daf5bc2	0.08562423
141	0x00000000	0.0
142	0x00000000	0.0
143	0x3dfa3c7d	0.122185685
144	0x3b4bf749	0.0031122735
145	0x00000000	0.0
146	0x00000000	0.0
147	0x3e623a5c	0.22092575
148	0x00000000	0.0
149	0xbde2f237	-0.11081355
150	0x00000000	0.0
151	0xbd29a8e4	-0.041420832
152	0x3deecd15	0.1166021
153	0xbd613945	-0.054986257
154	0x3df957f8	0.12174982
155	0x3d0d826c	0.034548208
156	0x00000000	0.0
157	0xbdb7b47e	-0.08969973
158	0x00000000	0.0
159	0xb9b94852	-0.00035339833
160	0xbdd5928b	-0.104283415
161	0xbcf57a98	-0.029965684
162	0x00000000	0.0
163	0x00000000	0.0
164	0xbd3d2602	-0.046178825
165	0x00000000	0.0
166	0x3dd28baa	0.10280545
167	0x3e1e3fb3	0.15453987
168	0x3e408324	0.18800026
169	0x00000000	0.0
170	0x3d25b247	0.04045322
171	0x00000000	0.0
172	0x3d33ca93	0.04389436
173	0x00000000	0.0
174	0xbd739556	-0.05946859
175	0x00000000	0.0
176	0x00000000	0.0
177	0x00000000	0.0
178	0x3e0ae2b2	0.1356304
179	0x00000000	0.0
180	0x00000000	0.0
181	0x00000000	0.0
182	0x3e4f9404	0.20271307
183	0x00000000	0.0
184	0x00000000	0.0
185	0x3d91098c	0.07081899
186	0x00000000	0.0
187	0xbda9fa1d	-0.082996584
188	0x00000000	0.0
189	0x3d385566	0.045003317
190	0x00000000	0.0
191	0x3dfedac9	0.12444074

exp_avg_sq f4 [3, 64]
0	0x371d3dd2	9.372323e-06
1	0x3a80cf91	0.0009827485
2	0x00000000	0.0
3	0x00000000	0.0
4	0x3896c152	7.188566e-05
5	0x00000000	0.0
6	0x3bbbf93a	0.005736497
7	0x00000000	0.0
8	0x3a851401	0.0010153056
9	0x39a4a4cc	0.000314033
10	0x3a9e547b	0.001207962
11	0x37e7928e	2.760559e-05
12	0x3afd7f83	0.001934037
13	0x00000000	0.0
14	0x00000000	0.0
15	0x3b5c6480	0.0033629239
16	0x367cd802	3.767666e-06
17	0x00000000	0.0
18	0x00000000	0.0
19	0x3b8cc8c9	0.0042963964
20	0x00000000	0.0
21	0x3a8b418d	0.0010624394
22	0x00000000	0.0
23	0x389027ca	6.8738664e-05
24	0x3ab832dd	0.0014053244
25	0x39bd06ff	0.00036054102
26	0x3b1833fd	0.0023224347
27	0x3a1bf4dc	0.00059492677
28	0x00000000	0.0
29	0x3a1abf5a	0.00059031474
30	0x00000000	0.0
31	0x38ac1b4e	8.206685e-05
32	0x3a7f9660	0.00097498856
33	0x3a7959ec	0.00095119956
34	0x00000000	0.0
35	0x00000000	0.0
36	0x390384af	0.00012542562
37	0x00000000	0.0
38	0x3a9ae911	0.0011818727
39	0x3b74812c	0.0037308438
40	0x3b66e0ed	0.003522928
41	0x00000000	0.0
42	0x39c0d0d4	0.00036776683
43	0x00000000	0.0
44	0x39bfa089	0.00036549967
45	0x00000000	0.0
46	0x387be924	6.0060192e-05
47	0x00000000	0.0
48	0x00000000	0.0
49	0x00000000	0.0
50	0x3b0b50ba	0.0021257834
51	0x00000000	0.0
52	0x00000000	0.0
53	0x00000000	0.0
54	0x3b7ec13b	0.0038872499
55	0x00000000	0.0
56	0x00000000	0.0
57	0x3a89d2c8	0.0010515088
58	0x00000000	0.0
59	0x3a85622c	0.0010176352
60	0x00000000	0.0
61	0x38e38054	0.000108481065
62	0x00000000	0.0
63	0x3a862253	0.0010233618
64	0x37b61134	2.1704102e-05
65	0x3b716ff7	0.0036840418
66	0x00000000	0.0
67	0x00000000	0.0
68	0x39d94fa7	0.0004144881
69	0x00000000	0.0
70	0x3bd06335	0.0063594826
71	0x00000000	0.0
72	0x3b38656a	0.002813662
73	0x3aa8fd97	0.0012892958
74	0x3b32bd28	0.002727339
75	0x370f6aab	8.5483e-06
76	0x3be69075	0.0070362636
77	0x00000000	0.0
78	0x00000000	0.0
79	0x3c35b8d3	0.011091429
80	0x35d0d0fe	1.5558032e-06
81	0x00000000	0.0
82	0x00000000	0.0
83	0x3b424e0a	0.0029648566
84	0x00000000	0.0
85	0x3a536643	0.00080642494
86	0x00000000	0.0
87	0x3885a0de	6.371898e-05
88	0x3b5b2bae	0.0033442783
89	0x39e40014	0.00043487607
90	0x3bcd33b8	0.006262269
91	0x3b106781	0.002203435
92	0x00000000	0.0
93	0x39ca0543	0.00038532363
94	0x00000000	0.0
95	0x39b5d0c7	0.00034678561
96	0x3a951e92	0.0011376909
97	0x3b5083d1	0.003181685
98	0x00000000	0.0
99	0x00000000	0.0
100	0x38d76079	0.00010269968
101	0x00000000	0.0
102	0x398bd5b6	0.00026671373
103	0x3c262007	0.010139472
104	0x3aaca25e	0.0013170948
105	0x00000000	0.0
106	0x38d685ab	0.00010229213
107	0x00000000	0.0
108	0x38d35b96	0.00010078323
109	0x00000000	0.0
110	0x38a11ac8	7.682067e-05
111	0x00000000	0.0
112	0x00000000	0.0
113	0x00000000	0.0
114	0x3b528525	0.0032122817
115	0x00000000	0.0
116	0x00000000	0.0
117	0x00000000	0.0
118	0x3b8ee2c2	0.0043605277
119	0x00000000	0.0
120	0x00000000	0.0
121	0x3b6b3ff0	0.0035896264
122	0x00000000	0.0
123	0x3a7092c0	0.0009177141
124	0x00000000	0.0
125	0x399d3702	0.00029986358
126	0x00000000	0.0
127	0x395d1a5b	0.0002108602
128	0x3819f105	3.670251e-05
129	0x3b825d35	0.0039783963
130	0x00000000	0.0
131	0x00000000	0.0
132	0x39b9aea1	0.00035416058
133	0x00000000	0.0
134	0x3bb03ad4	0.0053781066
135	0x00000000	0.0
136	0x3b4f5eeb	0.003164227
137	0x3a98d0f6	0.0011658955
138	0x3b5b8a15	0.0033499051
139	0x36ba267a	5.547711e-06
140	0x3bca0069	0.0061645997
141	0x00000000	0.0
142	0x00000000	0.0
143	0x3c22b1d4	0.009930093
144	0x35b5c03a	1.3541496e-06
145	0x00000000	0.0
146	0x00000000	0.0
147	0x3b45dd23	0.0030191622
148	0x00000000	0.0
149	0x3ad33d64	0.0016116318
150	0x00000000	0.0
151	0x391bcdf8	0.00014858681
152	0x3b3ed679	0.0029119535
153	0x3a27ba5b	0.00063983136
154	0x3bb653e4	0.0055641998
155	0x3b08628b	0.002081069
156	0x00000000	0.0
157	0x3a479143	0.0007612893
158	0x00000000	0.0
159	0x39b8ddac	0.00035260373
160	0x3aef73a2	0.0018268714
161	0x3b51ac80	0.0031993687
162	0x00000000	0.0
163	0x00000000	0.0
164	0x3980e8b8	0.00024587451
165	0x00000000	0.0
166	0x39b1aef0	0.0003389041
167	0x3c11cbdc	0.0088987015
168	0x3ac2841e	0.0014840399
169	0x00000000	0.0
170	0x38b04c39	8.4065316e-05
171	0x00000000	0.0
172	0x38b10e53	8.442686e-05
173	0x00000000	0.0
174	0x396d0685	0.0002260451
175	0x00000000	0.0
176	0x00000000	0.0
177	0x00000000	0.0
178	0x3b38f804	0.0028224
179	0x00000000	0.0
180	0x00000000	0.0
181	0x00000000	0.0
182	0x3b810377	0.0039371806
183	0x00000000	0.0
184	0x00000000	0.0
185	0x3b4c4ac0	0.0031172484
186	0x00000000	0.0
187	0x3aad39ce	0.001321608
188	0x00000000	0.0
189	0x39915d5c	0.00027726113
190	0x00000000	0.0
191	0x3a0f4491	0.0005465234

exp_avg f4 [3]
0	0xbd9d9ea7	-0.07696276
1	0xbc22bfeb	-0.009933452
2	0x3db1f6a4	0.08689621

exp_avg_sq f4 [3]
0	0x3a0a1b38	0.0005268338
1	0x39f234f1	0.0004619728
2	0x3a038324	0.0005016795
