assignments/pytorch_basics/session_5/lightning_logs/iris/2025-11-18_09-35-31/best_model.ckpt (torch, 13856 bytes, 12 tensors)

l1.weight f4 [64, 4]
0	0x3e6c0c28	0.23051512
1	0xbe06b34c	-0.13154334
2	0xbee34634	-0.44389498
3	0x3eca189e	0.39471906
4	0x3e1eba66	0.15500793
5	0x3e3eecd4	0.1864503
6	0x3de6050b	0.112314306
7	0xbe7aa82e	-0.24478218
8	0xbec051aa	-0.37562305
9	0xbe9854fe	-0.29752344
10	0xbdb22408	-0.08698279
11	0x3e01ac60	0.12663412
12	0xbeebd3b6	-0.4605996
13	0x3d7b4d70	0.061353147
14	0xbdc278c8	-0.094956934
15	0x3ec87bfa	0.39157087
16	0x3e117067	0.14203034
17	0xbeac5355	-0.33657327
18	0x3ec97d9c	0.39353645
19	0x3e82ac3f	0.25522038
20	0xbe722310	-0.23646188
21	0xbed852ac	-0.42250574
22	0xbdf986b8	-0.12183899
23	0x3ed7afda	0.42126352
24	0xbeef807c	-0.46777713
25	0xbe967c98	-0.29391932
26	0x3ea31182	0.31849295
27	0x3ecc5fc2	0.39916807
28	0xbe3100cc	-0.1728546
29	0xbc68402a	-0.014175454
30	0x3f039017	0.5139174
31	0x3eeafb7d	0.45894995
32	0xbe9e6e83	-0.3094369
33	0x3ed17aef	0.40914103
34	0xbd9e5460	-0.07730937
35	0x3e2243e3	0.15846209
36	0xbdab216f	-0.08355986
37	0x3f2c24e8	0.67243814
38	0xbe72f9b8	-0.23728073
39	0xbdf3cd23	-0.11904361
40	0x3e88c26e	0.26710838
41	0xbef94c74	-0.48691142
42	0xbe3b622c	-0.18299168
43	0x3d600770	0.054694593
44	0xbe8f0666	-0.2793457
45	0x3e2643f4	0.1623686
46	0xbe54a338	-0.20765388
47	0xbeb74bf4	-0.35800135
48	0x3eeb2065	0.45923153
49	0x3d4e64a1	0.050388936
50	0x3f033fad	0.51269037
51	0x3e17eab0	0.1483562
52	0x3e876d34	0.26450503
53	0xbec2ccfe	-0.38047022
54	0xbef247da	-0.47320443
55	0x3dfa8043	0.12231495
56	0xbdfbedf8	-0.12301248
57	0x3e30142c	0.17195195
58	0xbee8c02c	-0.45459116
59	0x3d4500c0	0.04809642
60	0x3e4e9ab4	0.20176202
61	0xbee68cdd	-0.45029345
62	0x3e439621	0.19100238
63	0xbecc7e89	-0.3994029
64	0xbee10456	-0.4394862
65	0x3e99bcc6	0.30026835
66	0xbe8a4bde	-0.27011007
67	0x3ef4bda2	0.47800928
68	0xbd6e53f0	-0.058185518
69	0x3e00e198	0.12586057
70	0xbec69e5c	-0.38792694
71	0x3eb95986	0.36201113
72	0xbddd9958	-0.108202636
73	0xbeebd5fc	-0.46061695
74	0xbdbd4638	-0.09241909
75	0xbd1e4550	-0.03864032
76	0x3ebd22df	0.36940667
77	0xbe7ee148	-0.24890625
78	0x3e66a992	0.22525623
79	0xbe09b183	-0.13446622
80	0x3ea9d033	0.33166656
81	0xbecdd18b	-0.4019893
82	0x3db7ee2a	0.08980973
83	0x3e95bc10	0.29245043
84	0xbe8aa154	-0.2707621
85	0xbefc9e48	-0.4933951
86	0xbd7d18f0	-0.06179136
87	0xbe3ec520	-0.18629885
88	0xbed8d512	-0.4235006
89	0xbe3deb30	-0.18546748
90	0x3de13a88	0.10997492
91	0x3ec1aab8	0.3782556
92	0xbea893ee	-0.3292536
93	0x3ef264f9	0.4734266
94	0x3ec4cd96	0.384381
95	0xbe8f9494	-0.28043044
96	0x3eafd7cc	0.34344327
97	0x3ef807a3	0.48443326
98	0xbeb9ca75	-0.36287275
99	0xbec97a19	-0.39350966
100	0xbedde5fc	-0.43339527
101	0x3e8df7c6	0.277281
102	0x3f027777	0.5096354
103	0x3e22e572	0.15907839
104	0x3e12ec8a	0.14348045
105	0x3ea0ded1	0.31419995
106	0xbe398ba3	-0.18119673
107	0xbf09061e	-0.5352496
108	0xbefc881a	-0.49322587
109	0xbeb39000	-0.350708
110	0x3ef0f064	0.47058403
111	0xbed54964	-0.41657555
112	0x3ee8d544	0.4547521
113	0xbe974450	-0.29544306
114	0x3e4276da	0.18990651
115	0xbf1707f1	-0.5899649
116	0xbe9e0964	-0.3086654
117	0xbef30d18	-0.47470927
118	0xbe0bb8cc	-0.13644713
119	0xbda90e10	-0.08254635
120	0x3ccab4ac	0.024744354
121	0x3ec52401	0.3850403
122	0xbea9ad14	-0.3313986
123	0xbe3d1889	-0.1846639
124	0x3e04dbc1	0.12974454
125	0x3f0541a4	0.52053285
126	0xbe6edb2d	-0.23325796
127	0x3e7672b7	0.24067198
128	0x3e9b9b6b	0.30392012
129	0x3eb08165	0.3447372
130	0xbea952ce	-0.33070987
131	0xbebee771	-0.3728595
132	0xbe2f6e14	-0.17131835
133	0xbedaf768	-0.4276688
134	0xbec43272	-0.38319737
135	0xbe9a55f4	-0.30143702
136	0xbe520bc0	-0.20512295
137	0x3b445300	0.0029956698
138	0x3e5923c8	0.21205056
139	0x3e151218	0.14557683
140	0xbe211920	-0.1573224
141	0x3e6d915c	0.23199981
142	0xbef68af0	-0.48152876
143	0x3effb856	0.49945325
144	0x3e4be777	0.19912516
145	0x3e49fafb	0.19724648
146	0x3f0b418b	0.54396886
147	0x3d11da48	0.03560856
148	0xbeeb60a0	-0.45972157
149	0x3ebe7db4	0.3720528
150	0x3e12b294	0.14325935
151	0xbd865be8	-0.065604985
152	0xbe53bbe4	-0.20677143
153	0xb9a5680e	-0.0003154878
154	0x3eb94ae0	0.36189938
155	0x3f137294	0.5759671
156	0x3e6dd20e	0.23224661
157	0xbf01fcb5	-0.50776225
158	0x3ec52c07	0.38510153
159	0x3e8c8038	0.27441573
160	0x3e0c064c	0.13674277
161	0x3ef4e52d	0.47831097
162	0xbedc2e33	-0.43003997
163	0xbdcb7981	-0.099352844
164	0x3ea1b9f2	0.31587178
165	0x3c8a4ede	0.01688331
166	0x3e821df1	0.25413468
167	0x3da87b6a	0.08226664
168	0x3dca12da	0.09866877
169	0xbd653916	-0.055962645
170	0x3e3ff431	0.18745495
171	0x3f202bb5	0.6256669
172	0xbe4e6844	-0.20156962
173	0xbd302240	-0.043001413
174	0xbef759ca	-0.4831069
175	0x3eb49614	0.3527075
176	0xbecfbd88	-0.40574288
177	0xbef6dd12	-0.48215538
178	0xbee56978	-0.4480703
179	0x3ed33808	0.41253686
180	0xbdf32aef	-0.11873423
181	0x3f10a65f	0.5650386
182	0x3d0e6124	0.03476061
183	0xbef95fb4	-0.48705828
184	0x3ece131d	0.40248957
185	0xbf12a74f	-0.5728654
186	0x3e033a48	0.12815201
187	0x3da47d94	0.080317646
188	0xbeb79273	-0.3585392
189	0x3e94e824	0.2908336
190	0x3e7d63cd	0.24745102
191	0x3eace2fd	0.33766928
192	0xbe013ece	-0.12621614
193	0x3ee9b699	0.45647123
194	0x3e8311a9	0.2559941
195	0xbe33355e	-0.17500827
196	0x3eca435c	0.39504516
197	0x3ea86420	0.3288889
198	0xbd3eb19f	-0.04655611
199	0xbe96228f	-0.2932324
200	0xbe9566c0	-0.29179955
201	0x3ee15f3c	0.4401797
202	0xbe135d08	-0.14390957
203	0xbec4bbf4	-0.38424647
204	0xbeea35ec	-0.45744264
205	0x3cd0eb20	0.025502741
206	0xbe210338	-0.15723884
207	0x3cdaf600	0.02672863
208	0x3efef693	0.49797496
209	0xbe557588	-0.20845616
210	0x3df8bbd5	0.12145201
211	0x3b454de0	0.0030106232
212	0xbeffee90	-0.49986696
213	0x3d59c170	0.053162992
214	0x3da85888	0.08220011
215	0x3e4ed314	0.20197707
216	0x3cfba919	0.03072028
217	0x3e1f7276	0.15571007
218	0x3edb305c	0.42810333
219	0x3f0fadb6	0.56124437
220	0xbe978f7e	-0.29601663
221	0xbeed0f2a	-0.46300632
222	0xbc508780	-0.012727618
223	0xbe088494	-0.13331825
224	0x3bae304d	0.0053158165
225	0x3f15df61	0.58543974
226	0xbedc5c30	-0.43039083
227	0x3e7b838f	0.24561904
228	0x3ebba08b	0.36645922
229	0xbea1a4f9	-0.31571177
230	0x3e4e3874	0.20138723
231	0xbec4f276	-0.38466233
232	0xbe817610	-0.25285387
233	0x3dbdfe48	0.09277016
234	0xbecae0c2	-0.39624602
235	0x3db733c8	0.08945423
236	0xbe8cda4e	-0.27510303
237	0x3d1d5f30	0.038420856
238	0xbebf631c	-0.37380302
239	0xbd1e22d0	-0.03860742
240	0xbed773ba	-0.4208048
241	0xbefabc02	-0.48971564
242	0x3eb545b6	0.35404748
243	0xbdbbefa0	-0.09176564
244	0xbefd935e	-0.49526495
245	0x3eac3212	0.3363195
246	0xbce9a7a0	-0.028522313
247	0x3e75b534	0.23994905
248	0x3ebb117a	0.3653677
249	0x3eaa4c92	0.33261544
250	0x3eb6665b	0.35624966
251	0xbec65049	-0.38733128
252	0x3ead82bb	0.33888802
253	0x3d71aaf4	0.059000924
254	0x3e406528	0.18788588
255	0x3ec67f4c	0.38768995

l1.bias f4 [64]
0	0xbef9ff7a	-0.48827726
1	0x3dd6c3aa	0.10486539
2	0xbe428260	-0.18995047
3	0xbedf9578	-0.43668723
4	0xbe23e42e	-0.16005012
5	0xbcd6c380	-0.026216269
6	0x3e2e6e3c	0.17034239
7	0x3e7a6b21	0.24454929
8	0xbd52b9bb	-0.051446658
9	0x3ec303eb	0.38088927
10	0x3dd28b78	0.10280508
11	0x3ec64616	0.38725346
12	0x3ec41b01	0.38301852
13	0x3e6b520e	0.2298052
14	0x3db12378	0.08649343
15	0xbefc7229	-0.49305847
16	0x3edb4ca8	0.42831922
17	0xbeaca186	-0.33716983
18	0x3e2678d8	0.16257036
19	0xbe8b626d	-0.2722353
20	0xbeefaab1	-0.46809915
21	0xbe64f9f0	-0.22360969
22	0xbc880440	-0.016603589
23	0x3ef467a8	0.47735333
24	0x3d25bd66	0.040463828
25	0x3ed45fa7	0.41479227
26	0x3ed1a5c5	0.40946785
27	0xbe9c43a2	-0.3052035
28	0x3ee02e84	0.4378549
29	0xbd49cd40	-0.049268007
30	0x3ecf9f84	0.40551388
31	0x3ba7fa6f	0.0051262896
32	0x3ea9b3fa	0.33145124
33	0xbed25de8	-0.4108727
34	0xbed1db9c	-0.4098786
35	0x3e2ead70	0.17058349
36	0xbdd287c0	-0.102797985
37	0xbddf48c0	-0.10902548
38	0x3e91c204	0.28468335
39	0xbef1b866	-0.47210997
40	0xbe9525eb	-0.29130492
41	0x3d232f0a	0.03983978
42	0xbe888209	-0.2666171
43	0xbeb20c2e	-0.34774917
44	0x3ed7e6fa	0.4216841
45	0x3e0dbae5	0.13840826
46	0xbdd35465	-0.10318831
47	0x3d36c6f4	0.04462333
48	0x3c918d3c	0.017767541
49	0x3e59aa78	0.21256435
50	0xbeb0b0b4	-0.34509814
51	0x3effb282	0.49940878
52	0xbe27b5b4	-0.16377908
53	0xbeab5b48	-0.3346808
54	0xbd374904	-0.044747368
55	0xbec8fce4	-0.3925544
56	0x3d8760e5	0.06610278
57	0xbe512593	-0.2042449
58	0xbec224f8	-0.3791883
59	0x3eeee5c6	0.46659678
60	0x3ea930a6	0.33044928
61	0x3e824300	0.25441742
62	0x3ed9e992	0.42561013
63	0x3ca2e88e	0.019886281

l2.weight f4 [3, 64]
0	0xbd1c1360	-0.038104415
1	0x3d0825d1	0.03323919
2	0x3de69080	0.1125803
3	0xbd9e6366	-0.077338025
4	0xbdadb90c	-0.084825605
5	0x3cb494f8	0.02204369
6	0xbdd98db4	-0.10622731
7	0xbe13829f	-0.14405297
8	0xbda4535f	-0.08023714
9	0x3e865987	0.2624018
10	0xbdc50404	-0.096199065
11	0x3db2872e	0.0871719
12	0xbcae1080	-0.021248102
13	0xbd31eb1d	-0.043437112
14	0xbd9e52b0	-0.07730615
15	0x3d93a88c	0.07209882
16	0xbc912410	-0.017717391
17	0xbd71669c	-0.058935747
18	0xbd9d042c	-0.07666811
19	0xbd320fba	-0.04347203
20	0xbe8ea1d9	-0.27857855
21	0x3dd8b180	0.105807304
22	0xbd4b811c	-0.049683675
23	0xbd9d8ffc	-0.076934785
24	0x3e4d2a99	0.20035781
25	0xbe72c592	-0.2370818
26	0x3e8e2bfe	0.27767938
27	0x3d56939c	0.052386865
28	0x3d99e77f	0.075148575
29	0x3d308ed0	0.043104947
30	0x3e582987	0.21109591
31	0x3e25f689	0.16207327
32	0x3d934944	0.07191709
33	0xbcf33400	-0.029687881
34	0xbdcad886	-0.0990458
35	0x3dc941a8	0.09826976
36	0xbe22791a	-0.15866509
37	0x3d0bfff0	0.034179628
38	0xbe425425	-0.18977411
39	0xbe1413ac	-0.14460629
40	0x3e20d188	0.1570493
41	0xbd02eb2e	-0.031962566
42	0xbe52f840	-0.20602512
43	0xbdc40aa2	-0.095723405
44	0x3b98a280	0.0046580434
45	0x3e37d5f7	0.17952715
46	0xbe56887c	-0.20950502
47	0x3d1cefb6	0.038314544
48	0x3bdcff59	0.006744307
49	0x3d9b12b3	0.07571926
50	0x3cdefb50	0.027219445
51	0xbaec1900	-0.0018012822
52	0xbcb3408b	-0.021881362
53	0x3d7393e0	0.059467196
54	0xbe47b3ea	-0.19502226
55	0x3d470a18	0.04859361
56	0x3e7d6e4f	0.2474911
57	0xbba8b374	-0.0051483456
58	0x3ca8d678	0.02061008
59	0x3dc56c86	0.0963984
60	0x3dba3d38	0.09093708
61	0xbd4fd028	-0.050735623
62	0x3d87ed3b	0.06637045
63	0xbdc22b2f	-0.09480893
64	0xbda638f0	-0.08116329
65	0xbdad8c0b	-0.08473977
66	0x3dd309e6	0.10304622
67	0x3df60022	0.12011744
68	0x3e1fcc30	0.15605235
69	0xbdf38d5a	-0.11892195
70	0xbd0e4628	-0.034734875
71	0x3d84b9ef	0.064807765
72	0x3ce5b941	0.028042438
73	0xbdc6ecdc	-0.09713146
74	0xbdc3d824	-0.0956271
75	0x3d0b7c88	0.03405431
76	0x3df49175	0.11941806
77	0xbb342ed2	-0.0027493727
78	0x3df98cfa	0.12185092
79	0xbd6149e9	-0.055002127
80	0x3d93b2bc	0.07211825
81	0xbdf96626	-0.121776864
82	0xbd4b988c	-0.049706027
83	0xbc8b3cd4	-0.016996779
84	0xbced16c1	-0.028941514
85	0x3cc080d0	0.023498923
86	0x3dc1e176	0.094668314
87	0x3c80022c	0.015626036
88	0x3ca09552	0.019602451
89	0xbe149ac0	-0.14512157
90	0x3daa196a	0.083056286
91	0x3dde39b6	0.10850851
92	0x3d5ff95c	0.054681167
93	0x3d7cfc80	0.06176424
94	0xbe985146	-0.29749507
95	0xbdf4320b	-0.119236074
96	0xbc583fde	-0.013198821
97	0xbdae02c0	-0.08496618
98	0xbdd0c558	-0.1019389
99	0x3d8e1204	0.0693703
100	0xbdc5d445	-0.09659628
101	0xbdbeca0a	-0.0931588
102	0xbdf9f5c8	-0.12205082
103	0xbdf04f74	-0.117339045
104	0xbec1a126	-0.3781826
105	0xbcb0aed8	-0.021567747
106	0x3cd9cd2f	0.026587097
107	0xbdd5ad68	-0.10433465
108	0xbd012980	-0.031533718
109	0x3dddd654	0.108318955
110	0x3dcbcaa1	0.09950758
111	0xbe4d6aff	-0.20060347
112	0x3df283bc	0.118415326
113	0xbd139d23	-0.03603853
114	0xbdb31388	-0.0874396
115	0xbc52c880	-0.012865186
116	0xbd0a119c	-0.0337082
117	0x3d1a0efc	0.037611946
118	0xbcbef8b5	-0.023311952
119	0xbdfa0ec4	-0.122098476
120	0xbe4db400	-0.20088196
121	0xbd51d064	-0.051224127
122	0x3c82a490	0.01594761
123	0xbc872e00	-0.016501427
124	0x3d99b0f6	0.07504456
125	0xbda42788	-0.080153525
126	0x3dff6818	0.12471026
127	0x3db49807	0.088180594
128	0xbd6f7028	-0.05845657
129	0x3af82752	0.0018932617
130	0x3de20628	0.110363305
131	0xbd8ead88	-0.06966692
132	0x3e630fc7	0.22173987
133	0xbdbeba00	-0.093128204
134	0x3d8f6720	0.070020914
135	0x3e034456	0.12819037
136	0x3dcf81c9	0.101321764
137	0xbea66a3e	-0.3250293
138	0x3cf956a8	0.030436829
139	0x3da2aec2	0.07943489
140	0x3c90f6fd	0.017695898
141	0x3daafcc1	0.0834899
142	0x3df40aaa	0.119160965
143	0xbc3ec92b	-0.011644642
144	0x3dcac632	0.09901084
145	0xbd7ff414	-0.06248863
146	0x3be935e0	0.007117018
147	0x3e00ce04	0.12578589
148	0x3e0bd4fc	0.13655466
149	0xbd820d24	-0.063501626
150	0xbcfa5658	-0.03055875
151	0xbdbe431c	-0.09290144
152	0xbd687dff	-0.056760784
153	0x3e332a67	0.17496644
154	0xbe59c3e9	-0.2126614
155	0x3d7a754c	0.06114702
156	0xbda3a5fa	-0.07990642
157	0x3d46969c	0.048483476
158	0xbe85e779	-0.26153162
159	0x3b36842a	0.0027849772
160	0xbdf6d7aa	-0.120528534
161	0xbd736acc	-0.05942802
162	0xbd805d94	-0.062678486
163	0xbdf46520	-0.119333506
164	0x3c8866a6	0.01665051
165	0xbb3f9340	-0.0029232055
166	0x3e52543e	0.20539948
167	0xbbc9b98d	-0.0061561526
168	0xbe61c52e	-0.22047874
169	0x3d9b96b6	0.07597105
170	0x3de13ca9	0.10997898
171	0xbde4cfcc	-0.111724466
172	0x3d16a5dc	0.03677927
173	0xbe89ce42	-0.26915175
174	0x3da3c771	0.07997025
175	0x3e8714b8	0.26382995
176	0xbc50c2d3	-0.012741762
177	0xbe02a3b3	-0.12757759
178	0x3dfd4ed0	0.12368548
179	0xbd1410d8	-0.036148876
180	0xbdb57db0	-0.088618636
181	0x3da39fa6	0.07989435
182	0x3db0d3a7	0.086341195
183	0xbbe07c80	-0.006850779
184	0xbe810a35	-0.252031
185	0xbd14f473	-0.036365937
186	0xbdfd27b8	-0.123610914
187	0xbd44759c	-0.047963724
188	0x3d923860	0.07139659
189	0xbd635ac0	-0.055506468
190	0xbe0d8e15	-0.13823731
191	0x3d8e863f	0.06959199

l2.bias f4 [3]
0	0x3e2798cc	0.16366881
1	0xbd8a674d	-0.06757984
2	0xbe3cb0db	-0.1842684

exp_avg f4 [64, 4]
0	0x00000000	0.0
1	0x00000000	0.0
2	0x00000000	0.0
3	0x00000000	0.0
4	0x3b517c2c	0.0031964881
5	0x3677d835	3.6931717e-06
6	0x39d0cdd7	0.00039826214
7	0xbaf03f50	-0.0018329415
8	0x00000000	0.0
9	0x00000000	0.0
10	0x00000000	0.0
11	0x00000000	0.0
12	0x00000000	0.0
13	0x00000000	0.0
14	0x00000000	0.0
15	0x00000000	0.0
16	0x3af2ee53	0.0018534161
17	0x3b93cb54	0.0045103226
18	0xbc279727	-0.010228909
19	0xbbbb99a1	-0.005725101
20	0x00000000	0.0
21	0x00000000	0.0
22	0x00000000	0.0
23	0x00000000	0.0
24	0x00000000	0.0
25	0x00000000	0.0
26	0x00000000	0.0
27	0x00000000	0.0
28	0x3b88078a	0.0041512894
29	0x3bbb927d	0.00572425
30	0xbc0b5cab	-0.0085059805
31	0xbba76023	-0.005107896
32	0x24a1e531	7.0210885e-17
33	0x247d66c0	5.4947663e-17
34	0x238cc74e	1.526324e-17
35	0x22613edb	3.0526462e-18
36	0xbd1a2997	-0.03763732
37	0xbcb811f2	-0.022469494
38	0xbb465046	-0.003026025
39	0x3bd05b00	0.0063585043
40	0x00000000	0.0
41	0x00000000	0.0
42	0x00000000	0.0
43	0x00000000	0.0
44	0x00000000	0.0
45	0x00000000	0.0
46	0x00000000	0.0
47	0x00000000	0.0
48	0xbb59e93a	-0.0033250586
49	0x3964b5ac	0.00021811452
50	0xb9e5184e	-0.00043696392
51	0x3b05d3db	0.0020420465
52	0x23fddfc5	2.7525085e-17
53	0x2381c210	1.4068397e-17
54	0x2312aed4	7.951697e-18
55	0x22076650	1.8350075e-18
56	0x00000000	0.0
57	0x00000000	0.0
58	0x00000000	0.0
59	0x00000000	0.0
60	0xbb2520a7	-0.0025196464
61	0xba89b9af	-0.0010507609
62	0xbb23745a	-0.0024941177
63	0xba3525ca	-0.0006910233
64	0x00000000	0.0
65	0x00000000	0.0
66	0x00000000	0.0
67	0x00000000	0.0
68	0x00000000	0.0
69	0x00000000	0.0
70	0x00000000	0.0
71	0x00000000	0.0
72	0x00000000	0.0
73	0x00000000	0.0
74	0x00000000	0.0
75	0x00000000	0.0
76	0x3bd6eaa8	0.006558735
77	0x3b8b7814	0.004256258
78	0xbbc3fe05	-0.005981209
79	0xbbbff32c	-0.005857846
80	0x3b4145ba	0.0029491023
81	0x3b9ed13c	0.00484672
82	0xbc7a8497	-0.015290401
83	0xbc20f62f	-0.00982432
84	0x00000000	0.0
85	0x00000000	0.0
86	0x00000000	0.0
87	0x00000000	0.0
88	0x00000000	0.0
89	0x00000000	0.0
90	0x00000000	0.0
91	0x00000000	0.0
92	0xbb80bb3f	-0.0039285715
93	0xba6864b9	-0.00088651065
94	0x3aa3b4eb	0.0012489831
95	0x3b3fec8e	0.0029285285
96	0xbb88e7fa	-0.0041780444
97	0xbbaf61ce	-0.0053522354
98	0x3c067e9d	0.008208898
99	0x3ba92269	0.0051615727
100	0x3c0a9cf0	0.008460268
101	0x3bce4b7f	0.006295621
102	0xbc84220a	-0.016129512
103	0xbc601369	-0.013676503
104	0xbcb285a5	-0.021792242
105	0xbc775234	-0.015095282
106	0x3c15030f	0.0090949675
107	0x3c2bb395	0.010479827
108	0x00000000	0.0
109	0x00000000	0.0
110	0x00000000	0.0
111	0x00000000	0.0
112	0xbbbac321	-0.0056995307
113	0xbb75bdee	-0.003749724
114	0x3bb7fc4e	0.005614794
115	0x3bafbdbd	0.0053631947
116	0x00000000	0.0
117	0x00000000	0.0
118	0x00000000	0.0
119	0x00000000	0.0
120	0xbbd841da	-0.006599647
121	0xbc360bd1	-0.011111216
122	0x3c40527e	0.011738418
123	0x3bb1a72f	0.005421541
124	0x3b695534	0.0035603764
125	0xbb18d127	-0.0023318024
126	0x3b83b488	0.0040193237
127	0xba83f86c	-0.0010068542
128	0xbb9da330	-0.004810713
129	0xbb8a9efc	-0.004230378
130	0x3bd31ca1	0.006442622
131	0x3ba57552	0.005049386
132	0x00000000	0.0
133	0x00000000	0.0
134	0x00000000	0.0
135	0x00000000	0.0
136	0x00000000	0.0
137	0x00000000	0.0
138	0x00000000	0.0
139	0x00000000	0.0
140	0x00000000	0.0
141	0x00000000	0.0
142	0x00000000	0.0
143	0x00000000	0.0
144	0x3bb34ed5	0.005472044
145	0x3b893e6a	0.0041883485
146	0xbbc3bae4	-0.005973207
147	0xbba99297	-0.0051749456
148	0x00000000	0.0
149	0x00000000	0.0
150	0x00000000	0.0
151	0x00000000	0.0
152	0x3c17585f	0.009237378
153	0x3bcd06c6	0.006256911
154	0xbc7e58a1	-0.01552406
155	0xbc5f0231	-0.013611362
156	0x3b00b0d0	0.0019636638
157	0x3ab62181	0.0013895483
158	0xbbba3e06	-0.0056836633
159	0xbb9951a7	-0.004678923
160	0xbc623f7d	-0.013809082
161	0xbc71ac99	-0.014750623
162	0x3be01067	0.006837893
163	0x3b8c9172	0.0042897994
164	0x3b923378	0.004461702
165	0x3b35c48d	0.0027735562
166	0xbb7ba05a	-0.0038395138
167	0xbb7f8bc1	-0.0038993212
168	0x3ba9f7c7	0.005187008
169	0x3bdc20f6	0.0067177964
170	0xbc238107	-0.009979493
171	0xbbcb419b	-0.006202889
172	0x00000000	0.0
173	0x00000000	0.0
174	0x00000000	0.0
175	0x00000000	0.0
176	0x00000000	0.0
177	0x00000000	0.0
178	0x00000000	0.0
179	0x00000000	0.0
180	0xbcb5461b	-0.022128155
181	0xbc56bc0e	-0.013106359
182	0x3c3a4ac1	0.011370362
183	0x3c5cb177	0.013470045
184	0x39efa165	0.0004570588
185	0x3ba0b1af	0.004903994
186	0xbc0f5713	-0.008748787
187	0xbb5d77be	-0.0033793296
188	0x3c99e141	0.018784167
189	0x3c40e779	0.011773937
190	0xbc7f8060	-0.015594572
191	0xbc88fabd	-0.016721124
192	0xbb9d3f7d	-0.004798828
193	0xba8f2ab4	-0.0010922761
194	0x3ac3d061	0.0014939421
195	0x3b687dff	0.003547549
196	0xbb935e34	-0.004497314
197	0xbb91cd90	-0.004449554
198	0x3bdd9eed	0.00676333
199	0x3ba18552	0.004929223
200	0x00000000	0.0
201	0x00000000	0.0
202	0x00000000	0.0
203	0x00000000	0.0
204	0x00000000	0.0
205	0x00000000	0.0
206	0x00000000	0.0
207	0x00000000	0.0
208	0xbb17c9d6	-0.0023161075
209	0xbad0f747	-0.0015942835
210	0x3b211f5d	0.0024585344
211	0x3b14467b	0.0022625017
212	0x00000000	0.0
213	0x00000000	0.0
214	0x00000000	0.0
215	0x00000000	0.0
216	0x3bc43fc1	0.0059890454
217	0x3bcc255d	0.00623004
218	0xbc15b64d	-0.009137702
219	0xbbd368ff	-0.0064517255
220	0x00000000	0.0
221	0x00000000	0.0
222	0x00000000	0.0
223	0x00000000	0.0
224	0xbc825b12	-0.015912566
225	0xbc72cf07	-0.014819867
226	0x3bbb007b	0.0057068444
227	0x3b97b9ad	0.0046302886
228	0x3a10d5a4	0.0005524999
229	0xb9edb601	-0.00045339766
230	0x3a70dfdf	0.0009188633
231	0xb5651662	-8.534172e-07
232	0x00000000	0.0
233	0x00000000	0.0
234	0x00000000	0.0
235	0x00000000	0.0
236	0x00000000	0.0
237	0x00000000	0.0
238	0x00000000	0.0
239	0x00000000	0.0
240	0x00000000	0.0
241	0x00000000	0.0
242	0x00000000	0.0
243	0x00000000	0.0
244	0x00000000	0.0
245	0x00000000	0.0
246	0x00000000	0.0
247	0x00000000	0.0
248	0xbc31d4e8	-0.010853983
249	0xbbb56968	-0.005536247
250	0x3c02a811	0.0079746405
251	0x3c188c54	0.009310801
252	0x3a14d4ae	0.00056774437
253	0x3b516896	0.0031953207
254	0xbb9cd432	-0.004786038
255	0xbae0cf5e	-0.0017151644

exp_avg_sq f4 [64, 4]
0	0x00000000	0.0
1	0x00000000	0.0
2	0x00000000	0.0
3	0x00000000	0.0
4	0x3aaa14c9	0.0012976165
5	0x399138ab	0.00027698776
6	0x3a40b459	0.00073510926
7	0x38b43063	8.5920816e-05
8	0x00000000	0.0
9	0x00000000	0.0
10	0x00000000	0.0
11	0x00000000	0.0
12	0x00000000	0.0
13	0x00000000	0.0
14	0x00000000	0.0
15	0x00000000	0.0
16	0x395377de	0.00020167182
17	0x3882c0c6	6.23479e-05
18	0x392a494b	0.00016239767
19	0x37cbf2d8	2.4312569e-05
20	0x00000000	0.0
21	0x00000000	0.0
22	0x00000000	0.0
23	0x00000000	0.0
24	0x00000000	0.0
25	0x00000000	0.0
26	0x00000000	0.0
27	0x00000000	0.0
28	0x397d6f9e	0.00024169541
29	0x38e1b907	0.000107633
30	0x394fa018	0.00019800698
31	0x37feaf2b	3.0360728e-05
32	0x34c39f70	3.6437586e-07
33	0x346fa0ee	2.2317155e-07
34	0x3293eb4a	1.722005e-08
35	0x303d5620	6.888019e-10
36	0x3ae52a27	0.0017483876
37	0x3a365c2f	0.00069564854
38	0x39f6838b	0.00047018784
39	0x387f14cd	6.081611e-05
40	0x00000000	0.0
41	0x00000000	0.0
42	0x00000000	0.0
43	0x00000000	0.0
44	0x00000000	0.0
45	0x00000000	0.0
46	0x00000000	0.0
47	0x00000000	0.0
48	0x3a4e9efa	0.0007881966
49	0x39343be8	0.00017188455
50	0x39e89725	0.000443631
51	0x384e9643	4.925417e-05
52	0x340b214d	1.2957499e-07
53	0x331161e2	3.3849467e-08
54	0x3239c817	1.0813912e-08
55	0x301e4c8e	5.7588856e-10
56	0x00000000	0.0
57	0x00000000	0.0
58	0x00000000	0.0
59	0x00000000	0.0
60	0x39cdaf91	0.00039231454
61	0x389f462b	7.5947806e-05
62	0x3989e692	0.00026302465
63	0x38028b84	3.112435e-05
64	0x00000000	0.0
65	0x00000000	0.0
66	0x00000000	0.0
67	0x00000000	0.0
68	0x00000000	0.0
69	0x00000000	0.0
70	0x00000000	0.0
71	0x00000000	0.0
72	0x00000000	0.0
73	0x00000000	0.0
74	0x00000000	0.0
75	0x00000000	0.0
76	0x3adca4fc	0.0016833837
77	0x39c1ebcf	0.0003698752
78	0x3a8a6509	0.0010558675
79	0x391a0f72	0.00014692338
80	0x3a6c17ab	0.00090062123
81	0x39515469	0.00019963238
82	0x3a2f549b	0.00066883274
83	0x38d4df25	0.00010150512
84	0x00000000	0.0
85	0x00000000	0.0
86	0x00000000	0.0
87	0x00000000	0.0
88	0x00000000	0.0
89	0x00000000	0.0
90	0x00000000	0.0
91	0x00000000	0.0
92	0x3a61f1c0	0.00086190924
93	0x3940dc01	0.00018392505
94	0x3a015b91	0.0004934604
95	0x38711285	5.7476125e-05
96	0x399d6946	0.00030023808
97	0x38caffa6	9.679729e-05
98	0x3946303f	0.00018900725
99	0x37bb2309	2.2308452e-05
100	0x3b824ed7	0.0039766836
101	0x3a6320de	0.00086642604
102	0x3b30ef72	0.002699819
103	0x39ca3aa3	0.0003857213
104	0x3ace393e	0.0015733612
105	0x3a102916	0.00054992863
106	0x3a47cd25	0.00076218165
107	0x38d7219e	0.000102582606
108	0x00000000	0.0
109	0x00000000	0.0
110	0x00000000	0.0
111	0x00000000	0.0
112	0x3a2bfc60	0.0006560739
113	0x393a34e3	0.00017758044
114	0x3a0eaaba	0.00054423104
115	0x38b111c3	8.443326e-05
116	0x00000000	0.0
117	0x00000000	0.0
118	0x00000000	0.0
119	0x00000000	0.0
120	0x3a881c68	0.0010384442
121	0x3a036ae7	0.0005013183
122	0x39490f27	0.00019174498
123	0x37ac22f1	2.0520269e-05
124	0x3b0dca65	0.002163553
125	0x3a033320	0.00050048716
126	0x3a9e3fc3	0.0012073446
127	0x39033a6d	0.00012514899
128	0x395ba84c	0.00020948163
129	0x385450ca	5.061998e-05
130	0x391d99ae	0.00015029937
131	0x37b57bdd	2.163456e-05
132	0x00000000	0.0
133	0x00000000	0.0
134	0x00000000	0.0
135	0x00000000	0.0
136	0x00000000	0.0
137	0x00000000	0.0
138	0x00000000	0.0
139	0x00000000	0.0
140	0x00000000	0.0
141	0x00000000	0.0
142	0x00000000	0.0
143	0x00000000	0.0
144	0x3a5d34f4	0.00084383716
145	0x39582341	0.00020612498
146	0x3a19735b	0.0005853676
147	0x38bce11c	9.0064685e-05
148	0x00000000	0.0
149	0x00000000	0.0
150	0x00000000	0.0
151	0x00000000	0.0
152	0x3b90af0c	0.0044153985
153	0x3a74ac18	0.00093335053
154	0x3b40969c	0.0029386645
155	0x39d7116d	0.0004102098
156	0x39c2edb5	0.0003717967
157	0x38a02e48	7.638015e-05
158	0x39798181	0.00023794734
159	0x37fa5326	2.9841041e-05
160	0x3a271298	0.0006373315
161	0x39870431	0.0002575233
162	0x3967fbee	0.00022123728
163	0x37de1181	2.6472613e-05
164	0x3a4a9618	0.0007728054
165	0x3933029f	0.00017071747
166	0x39fe411f	0.00048495174
167	0x388db69e	6.757419e-05
168	0x39febf5a	0.00048589223
169	0x39622e38	0.00021570257
170	0x39ef96c5	0.00045697964
171	0x389ed9e9	7.574616e-05
172	0x00000000	0.0
173	0x00000000	0.0
174	0x00000000	0.0
175	0x00000000	0.0
176	0x00000000	0.0
177	0x00000000	0.0
178	0x00000000	0.0
179	0x00000000	0.0
180	0x3b8de4f2	0.004330271
181	0x3a829f88	0.0009965757
182	0x3b2dbc03	0.0026509769
183	0x39bf1274	0.00036444108
184	0x39cabd91	0.0003866968
185	0x3913c8ed	0.00014093863
186	0x39ad8c37	0.000331016
187	0x38452c4b	4.700971e-05
188	0x3bcc8fae	0.006242714
189	0x3aaf5285	0.0013376033
190	0x3b77a04a	0.0037784749
191	0x39f6aa20	0.0004704753
192	0x3aaf549a	0.0013376654
193	0x3999157b	0.00029198438
194	0x3a483636	0.00076374726
195	0x38b504cd	8.631647e-05
196	0x39a885f0	0.00032143248
197	0x38e14862	0.000107423184
198	0x399b71c3	0.00029648663
199	0x384bf401	4.8626218e-05
200	0x00000000	0.0
201	0x00000000	0.0
202	0x00000000	0.0
203	0x00000000	0.0
204	0x00000000	0.0
205	0x00000000	0.0
206	0x00000000	0.0
207	0x00000000	0.0
208	0x398f6223	0.00027348203
209	0x38ade3b5	8.2916966e-05
210	0x39908d1f	0.00027570964
211	0x383ffbcc	4.5772453e-05
212	0x00000000	0.0
213	0x00000000	0.0
214	0x00000000	0.0
215	0x00000000	0.0
216	0x3a307263	0.0006730912
217	0x3978f276	0.00023741447
218	0x3a1deab2	0.0006024047
219	0x38dc2fdf	0.00010499334
220	0x00000000	0.0
221	0x00000000	0.0
222	0x00000000	0.0
223	0x00000000	0.0
224	0x3ab3aa2e	0.0013707334
225	0x3a3cb070	0.0007197922
226	0x39561c85	0.00020419255
227	0x380c9a81	3.3522494e-05
228	0x39e31db1	0.00043318936
229	0x38f793fc	0.00011805442
230	0x39a5949b	0.00031581972
231	0x381c770a	3.7304162e-05
232	0x00000000	0.0
233	0x00000000	0.0
234	0x00000000	0.0
235	0x00000000	0.0
236	0x00000000	0.0
237	0x00000000	0.0
238	0x00000000	0.0
239	0x00000000	0.0
240	0x00000000	0.0
241	0x00000000	0.0
242	0x00000000	0.0
243	0x00000000	0.0
244	0x00000000	0.0
245	0x00000000	0.0
246	0x00000000	0.0
247	0x00000000	0.0
248	0x3b82d06c	0.003992131
249	0x3a63808c	0.0008678518
250	0x3b27a221	0.0025578814
251	0x39b8d7f2	0.00035256107
252	0x39baf859	0.00035661718
253	0x3919294a	0.00014606598
254	0x399e586a	0.00030201982
255	0x3835e93f	4.337099e-05

exp_avg f4 [64]
0	0x00000000	0.0
1	0x3aaa8669	0.0013010028
2	0x00000000	0.0
3	0x00000000	0.0
4	0x3ad383f3	0.0016137346
5	0x00000000	0.0
6	0x00000000	0.0
7	0x3b02e5f2	0.0019973484
8	0x238cc74e	1.526324e-17
9	0xbc16c0b9	-0.009201222
10	0x00000000	0.0
11	0x00000000	0.0
12	0xbab85979	-0.0014064751
13	0x22e1aa83	6.116691e-18
14	0x00000000	0.0
15	0xb99e56c0	-0.00030200742
16	0x00000000	0.0
17	0x00000000	0.0
18	0x00000000	0.0
19	0x3b3f2329	0.0029165244
20	0x3b3d756f	0.0028909107
21	0x00000000	0.0
22	0x00000000	0.0
23	0xbae0c868	-0.001714957
24	0xbb061fd5	-0.002046575
25	0x3bad2d91	0.005284973
26	0xbbf7353b	-0.0075441874
27	0x00000000	0.0
28	0xbb2ab46f	-0.0026047488
29	0x00000000	0.0
30	0xbb1fd14e	-0.002438623
31	0x3ab06960	0.0013459139
32	0xbb14296b	-0.0022607695
33	0x00000000	0.0
34	0x00000000	0.0
35	0x00000000	0.0
36	0x3b217020	0.0024633482
37	0x00000000	0.0
38	0x3bb32163	0.0054666265
39	0x3ad2cc63	0.001608264
40	0xbb8148c3	-0.0039454415
41	0x3b011ffc	0.0019702902
42	0x3b227f60	0.002479516
43	0x00000000	0.0
44	0x00000000	0.0
45	0xbc05c473	-0.008164513
46	0x3a292c40	0.0006453432
47	0x3c0ea72b	0.008706848
48	0xbb08b81f	-0.0020861698
49	0xbb0babc9	-0.0021312109
50	0x00000000	0.0
51	0x00000000	0.0
52	0xba8cea12	-0.0010750911
53	0x00000000	0.0
54	0x3b368a19	0.0027853309
55	0x00000000	0.0
56	0xbb884519	-0.0041586277
57	0x3935f351	0.00017352148
58	0x00000000	0.0
59	0x00000000	0.0
60	0x00000000	0.0
61	0x00000000	0.0
62	0xbb9e7864	-0.004836129
63	0x39c010a0	0.0003663348

exp_avg_sq f4 [64]
0	0x00000000	0.0
1	0x38170e45	3.6014495e-05
2	0x00000000	0.0
3	0x00000000	0.0
4	0x36de9faf	6.634705e-06
5	0x00000000	0.0
6	0x00000000	0.0
7	0x3719fe7d	9.178763e-06
8	0x3293eb4a	1.722005e-08
9	0x388d9c49	6.752514e-05
10	0x00000000	0.0
11	0x00000000	0.0
12	0x37b663b4	2.1742519e-05
13	0x31dbdc28	6.3987677e-09
14	0x00000000	0.0
15	0x37175085	9.019049e-06
16	0x00000000	0.0
17	0x00000000	0.0
18	0x00000000	0.0
19	0x3847c933	4.763268e-05
20	0x37c96b74	2.4011104e-05
21	0x00000000	0.0
22	0x00000000	0.0
23	0x37c6a430	2.3679895e-05
24	0x3724b4b6	9.817237e-06
25	0x38e19eec	0.000107584376
26	0x38698283	5.5673077e-05
27	0x00000000	0.0
28	0x37a2853e	1.937395e-05
29	0x00000000	0.0
30	0x38358e92	4.328654e-05
31	0x387f6401	6.0889874e-05
32	0x36cd4185	6.1171036e-06
33	0x00000000	0.0
34	0x00000000	0.0
35	0x00000000	0.0
36	0x37d0d90c	2.4896603e-05
37	0x00000000	0.0
38	0x38f6e1e7	0.00011772272
39	0x3722ebdd	9.710869e-06
40	0x37caa3ec	2.4156609e-05
41	0x37b7fd36	2.193321e-05
42	0x37989b5f	1.8192162e-05
43	0x00000000	0.0
44	0x00000000	0.0
45	0x3904b63f	0.00012656393
46	0x375f4578	1.330801e-05
47	0x3935baa8	0.0001733104
48	0x381ab0cf	3.6881127e-05
49	0x372ed38c	1.0420463e-05
50	0x00000000	0.0
51	0x00000000	0.0
52	0x370a0264	8.225998e-06
53	0x00000000	0.0
54	0x37c03c27	2.2916194e-05
55	0x00000000	0.0
56	0x3880577e	6.119812e-05
57	0x37500777	1.2399504e-05
58	0x00000000	0.0
59	0x00000000	0.0
60	0x00000000	0.0
61	0x00000000	0.0
62	0x38e976d6	0.00011132441
63	0x37511576	1.24623675e-05

exp_avg f4 [3, 64]
0	0x00000000	0.0
1	0xbba61e1b	-0.005069507
2	0x00000000	0.0
3	0x00000000	0.0
4	0x3cae3a49	0.021268027
5	0x00000000	0.0
6	0x00000000	0.0
7	0x3cb4ca27	0.02206905
8	0xa12777e4	-5.6740475e-19
9	0xbcbbbf29	-0.0229183
10	0x00000000	0.0
11	0x00000000	0.0
12	0x3c435c10	0.011923805
13	0xa1c94342	-1.3638093e-18
14	0x00000000	0.0
15	0x37da562e	2.6027756e-05
16	0x00000000	0.0
17	0x00000000	0.0
18	0x00000000	0.0
19	0x3c098542	0.008393588
20	0x3c600422	0.01367286
21	0x00000000	0.0
22	0x00000000	0.0
23	0xba836bf1	-0.0010026676
24	0xbce74add	-0.02823394
25	0x3c492a1f	0.012278109
26	0xbcae75c7	-0.021296395
27	0x00000000	0.0
28	0xba7fd2ae	-0.0009758872
29	0x00000000	0.0
30	0xbcaa6b7a	-0.020803202
31	0xbc77bbb4	-0.0151204355
32	0xbccd3cb3	-0.025053358
33	0x00000000	0.0
34	0x00000000	0.0
35	0x00000000	0.0
36	0x3c446098	0.01198592
37	0x00000000	0.0
38	0x3c9361e6	0.017991018
39	0x3ca3a8c2	0.019977931
40	0xbcb3164c	-0.021861218
41	0x3bc662bf	0.006054252
42	0x3c7b8776	0.015352121
43	0x00000000	0.0
44	0x00000000	0.0
45	0xbc855a65	-0.016278455
46	0x3c616476	0.013756862
47	0x3b3c35e8	0.0028718654
48	0xbb36af7e	-0.0027875598
49	0xbc7a3eaa	-0.015273729
50	0x00000000	0.0
51	0x00000000	0.0
52	0x3ba8375f	0.005133554
53	0x00000000	0.0
54	0x3c8d2b2b	0.017232498
55	0x00000000	0.0
56	0xbcaf1859	-0.021373915
57	0x3bb491f6	0.005510564
58	0x00000000	0.0
59	0x00000000	0.0
60	0x00000000	0.0
61	0x00000000	0.0
62	0xbba5ee9c	-0.005063845
63	0x3bec3bec	0.0072092917
64	0x00000000	0.0
65	0xbc65afe6	-0.014018988
66	0x00000000	0.0
67	0x00000000	0.0
68	0x3c03da81	0.008047701
69	0x00000000	0.0
70	0x00000000	0.0
71	0x3c8c7168	0.01714392
72	0x207b1fda	2.1271066e-19
73	0xbc10f993	-0.008848566
74	0x00000000	0.0
75	0x00000000	0.0
76	0xbc8172fd	-0.015801901
77	0x21278ac8	5.6765476e-19
78	0x00000000	0.0
79	0x3b0bc516	0.002132719
80	0x00000000	0.0
81	0x00000000	0.0
82	0x00000000	0.0
83	0xbc240d51	-0.0100129405
84	0x3baf03b8	0.0053410195
85	0x00000000	0.0
86	0x00000000	0.0
87	0xbb220f43	-0.0024728335
88	0xbce53110	-0.027977496
89	0x3c8123a3	0.015764063
90	0xbcdfb6dd	-0.027308876
91	0x00000000	0.0
92	0xbd0f5a21	-0.034998063
93	0x00000000	0.0
94	0x3c75cd1f	0.015002518
95	0xbb680a4f	-0.0035406535
96	0xbcf06682	-0.029345755
97	0x00000000	0.0
98	0x00000000	0.0
99	0x00000000	0.0
100	0xbb32d01f	-0.0027284694
101	0x00000000	0.0
102	0x3ca8392c	0.020535074
103	0x3c841e1c	0.016127639
104	0x3c9b1e12	0.018935237
105	0xbc1107d5	-0.008851965
106	0x3c8f8ce4	0.017523237
107	0x00000000	0.0
108	0x00000000	0.0
109	0xbc4fda91	-0.012686388
110	0xbbe15f35	-0.0068778046
111	0x3cd06229	0.025437431
112	0xba5bbfde	-0.00083827775
113	0xbcdda523	-0.027056282
114	0x00000000	0.0
115	0x00000000	0.0
116	0xbc5b2bc3	-0.013377133
117	0x00000000	0.0
118	0x3c799900	0.015234232
119	0x00000000	0.0
120	0x3bc2a35e	0.005939885
121	0xbc898abd	-0.016789788
122	0x00000000	0.0
123	0x00000000	0.0
124	0x00000000	0.0
125	0x00000000	0.0
126	0xbcee9ea9	-0.02912839
127	0xbb0b0bfe	-0.0021216865
128	0x00000000	0.0
129	0x3c9c5f7a	0.019088496
130	0x00000000	0.0
131	0x00000000	0.0
132	0xbcf02785	-0.02931572
133	0x00000000	0.0
134	0x00000000	0.0
135	0xbd209dc8	-0.039212972
136	0x20d15ff2	3.5469468e-19
137	0x3d021df9	0.031766865
138	0x00000000	0.0
139	0x00000000	0.0
140	0x3b7e27b6	0.0038780994
141	0x216afbbf	7.9615467e-19
142	0x00000000	0.0
143	0xbb0d79c3	-0.0021587468
144	0x00000000	0.0
145	0x00000000	0.0
146	0x00000000	0.0
147	0x3ad4407f	0.0016193538
148	0xbc9bc2fd	-0.019013876
149	0x00000000	0.0
150	0x00000000	0.0
151	0x3b63c534	0.0034754993
152	0x3d663df8	0.05621144
153	0xbce5b8b4	-0.028042175
154	0x3d471652	0.04860527
155	0x00000000	0.0
156	0x3d13596b	0.035973947
157	0x00000000	0.0
158	0x3bbe13a6	0.005800682
159	0x3c98df26	0.018661093
160	0x3d5ed19b	0.054399114
161	0x00000000	0.0
162	0x00000000	0.0
163	0x00000000	0.0
164	0xbc17ac8b	-0.009257446
165	0x00000000	0.0
166	0xbd1dcd89	-0.03852609
167	0xbd13e36e	-0.036105566
168	0x3b3fc1c8	0.002925979
169	0x3b3759f4	0.00279772
170	0xbd06a851	-0.032875363
171	0x00000000	0.0
172	0x00000000	0.0
173	0x3ced47af	0.028964845
174	0xbbe169c0	-0.0068790615
175	0xbce7e8e7	-0.028309299
176	0x3b6d9f72	0.0036258367
177	0x3d2d623c	0.04233001
178	0x00000000	0.0
179	0x00000000	0.0
180	0x3c071016	0.008243581
181	0x00000000	0.0
182	0xbd04fbd7	-0.032466736
183	0x00000000	0.0
184	0x3c7cdf05	0.015434031
185	0x3c38cc7b	0.011279221
186	0x00000000	0.0
187	0x00000000	0.0
188	0x00000000	0.0
189	0x00000000	0.0
190	0x3d0c0d2a	0.03419224
191	0xbba6b5dd	-0.0050875978

exp_avg_sq f4 [3, 64]
0	0x00000000	0.0
1	0x3ae08469	0.0017129305
2	0x00000000	0.0
3	0x00000000	0.0
4	0x3a98464b	0.0011617629
5	0x00000000	0.0
6	0x00000000	0.0
7	0x3b46bf1a	0.0030326308
8	0x2dd152b9	2.3797285e-11
9	0x3a6123ec	0.00085884216
10	0x00000000	0.0
11	0x00000000	0.0
12	0x3c73c16b	0.014877657
13	0x2faee13e	3.181046e-10
14	0x00000000	0.0
15	0x3807401a	3.2246207e-05
16	0x00000000	0.0
17	0x00000000	0.0
18	0x00000000	0.0
19	0x3afdd4b3	0.0019365757
20	0x395505c3	0.0002031541
21	0x00000000	0.0
22	0x00000000	0.0
23	0x39f45e1b	0.0004660942
24	0x3bacd205	0.0052740597
25	0x3a42a772	0.0007425464
26	0x3aae6b7d	0.001330718
27	0x00000000	0.0
28	0x3b2b755b	0.0026162479
29	0x00000000	0.0
30	0x3a3eb9a2	0.0007275586
31	0x3b42f94b	0.002975064
32	0x3b90b64a	0.004416262
33	0x00000000	0.0
34	0x00000000	0.0
35	0x00000000	0.0
36	0x3bf424c8	0.0074506737
37	0x00000000	0.0
38	0x3b092e4c	0.0020932136
39	0x3b8b43fc	0.0042500477
40	0x3a2d394e	0.00066079653
41	0x3b9382f2	0.004501694
42	0x3af2758d	0.0018498168
43	0x00000000	0.0
44	0x00000000	0.0
45	0x3a8b6394	0.0010634535
46	0x3a446a70	0.0007492667
47	0x39a96820	0.0003231177
48	0x3a46250e	0.0007558622
49	0x3b9c9e31	0.0047796
50	0x00000000	0.0
51	0x00000000	0.0
52	0x3b8db164	0.004324125
53	0x00000000	0.0
54	0x3bad5d5b	0.00529067
55	0x00000000	0.0
56	0x3aa3898a	0.0012476903
57	0x3ad6cd16	0.0016388025
58	0x00000000	0.0
59	0x00000000	0.0
60	0x00000000	0.0
61	0x00000000	0.0
62	0x3c15761e	0.0091224
63	0x3b9e45a6	0.00483008
64	0x00000000	0.0
65	0x3be5af88	0.0070094503
66	0x00000000	0.0
67	0x00000000	0.0
68	0x3ba78fc2	0.005113573
69	0x00000000	0.0
70	0x00000000	0.0
71	0x3c11e2d7	0.0089041805
72	0x2c6b5780	3.344408e-12
73	0x39949eb2	0.00028346997
74	0x00000000	0.0
75	0x00000000	0.0
76	0x3d95c591	0.073130734
77	0x2e726092	5.51102e-11
78	0x00000000	0.0
79	0x37379c78	1.0944081e-05
80	0x00000000	0.0
81	0x00000000	0.0
82	0x00000000	0.0
83	0x3c224bda	0.00990578
84	0x3af87031	0.0018954334
85	0x00000000	0.0
86	0x00000000	0.0
87	0x3b2a3038	0.0025968682
88	0x3baaf9ee	0.005217782
89	0x3b102fc1	0.002200112
90	0x3a03da21	0.0005029757
91	0x00000000	0.0
92	0x3c4f3bbb	0.012648518
93	0x00000000	0.0
94	0x3935bedb	0.00017332604
95	0x3bce7d6b	0.006301572
96	0x3b5d5f17	0.0033778602
97	0x00000000	0.0
98	0x00000000	0.0
99	0x00000000	0.0
100	0x3d1d1477	0.038349595
101	0x00000000	0.0
102	0x3b943bed	0.0045237453
103	0x3bae22a4	0.005314188
104	0x39574d5d	0.00020532818
105	0x3cc35bce	0.023847487
106	0x3bf84413	0.0075764745
107	0x00000000	0.0
108	0x00000000	0.0
109	0x39b3e90b	0.0003431517
110	0x3b4d0176	0.0031281388
111	0x39f90d62	0.00047502952
112	0x3b8869d5	0.004163007
113	0x3c9c93ff	0.019113539
114	0x00000000	0.0
115	0x00000000	0.0
116	0x3c911897	0.01771192
117	0x00000000	0.0
118	0x3cc56b7a	0.0240991
119	0x00000000	0.0
120	0x39a36637	0.0003116594
121	0x3bb7943a	0.005602387
122	0x00000000	0.0
123	0x00000000	0.0
124	0x00000000	0.0
125	0x00000000	0.0
126	0x3d3da204	0.04629709
127	0x3ce030bd	0.02736699
128	0x00000000	0.0
129	0x3bcc91bc	0.006242959
130	0x00000000	0.0
131	0x00000000	0.0
132	0x3bb192fe	0.005419134
133	0x00000000	0.0
134	0x00000000	0.0
135	0x3c233246	0.009960717
136	0x2d239843	9.299286e-12
137	0x39fe839b	0.0004854471
138	0x00000000	0.0
139	0x00000000	0.0
140	0x3d877075	0.06613246
141	0x2eee63d4	1.084072e-10
142	0x00000000	0.0
143	0x37df2808	2.6602313e-05
144	0x00000000	0.0
145	0x00000000	0.0
146	0x00000000	0.0
147	0x3c0e5ff2	0.008689867
148	0x3af5bce2	0.0018748308
149	0x00000000	0.0
150	0x00000000	0.0
151	0x3b180608	0.0023196954
152	0x3be2c62c	0.0069205966
153	0x3b305a33	0.0026909232
154	0x3abb6e33	0.001429981
155	0x00000000	0.0
156	0x3c3078dd	0.010771004
157	0x00000000	0.0
158	0x396a5222	0.00022346576
159	0x3bc1a843	0.005909951
160	0x3bb0e14d	0.0053979517
161	0x00000000	0.0
162	0x00000000	0.0
163	0x00000000	0.0
164	0x3d0de56e	0.03464263
165	0x00000000	0.0
166	0x3bc131bf	0.005895823
167	0x3bf21611	0.0073878844
168	0x391dbb95	0.00015042567
169	0x3caca5de	0.021075185
170	0x3c02068c	0.007936131
171	0x00000000	0.0
172	0x00000000	0.0
173	0x3a651972	0.00087394484
174	0x3b3919b2	0.0028244075
175	0x3a58eb0f	0.00082747726
176	0x3b712a9a	0.0036799074
177	0x3c8bab9d	0.017049605
178	0x00000000	0.0
179	0x00000000	0.0
180	0x3c846f4e	0.016166355
181	0x00000000	0.0
182	0x3cbf1f37	0.023330314
183	0x00000000	0.0
184	0x39dd70af	0.0004223636
185	0x3ba0d45d	0.004908128
186	0x00000000	0.0
187	0x00000000	0.0
188	0x00000000	0.0
189	0x00000000	0.0
190	0x3d26615c	0.040620193
191	0x3cc8e10b	0.024521371

exp_avg f4 [3]
0	0xbb7d6d25	-0.0038669792
1	0xbc7faa1c	-0.015604522
2	0x3c9f82b2	0.0194715

exp_avg_sq f4 [3]
0	0x3a13aac0	0.0005633049
1	0x3b12320d	0.0022307665
2	0x3b044d0c	0.0020187525
