assignments/pytorch_basics/session_5/lightning_logs/models/best_model_2025-11-18 09:35:15.242721.ckpt (torch, 13856 bytes, 12 tensors)

l1.weight f4 [64, 4]
00000000: 9488 103e c3d8 2dbe 0a27 e2be be91 d8be
00000010: e263 d8be 6453 bcbe 04e8 cb3e d473 b13e
00000020: 1285 29be 4422 df3e 353d 2c3d 5875 f9bd
00000030: e02f 98be d4c9 40be 202c 603d 20d4 db3c
00000040: f8da 003f ebeb 8b3e 8516 073f 343b 4bbe
00000050: 743f 76be c0ac 2bbd 8403 3e3e 0042 05bc
00000060: e209 c4be 42e2 b83e 9c72 f0be 763e cfbe
00000070: d315 b63e d94f 1abd 53a9 563d c60e e9bd
00000080: 71af 053e 7849 d2be e446 7e3e aa1c d13e
00000090: c1e4 b43e be9c 013e b354 dcbe aedd 7e3e
000000a0: 36b5 883e a789 983e 6a76 e2be 00d7 7ebd
000000b0: 5423 233e dd22 81be d3f7 473e 9381 433e
000000c0: 666f aabe f8cc b33e 0c6b a5be a0bc bd3c
000000d0: 2b50 c33e 6290 fb3e e6bd c0be e6f2 33bf
000000e0: d95c ba3b 3d04 073f 041d fdbd c3ea 943e
000000f0: c17f 733e 5f0e abbe 56e9 ad3e 421f 1b3e
00000100: 72a2 843e 82b5 a9be 797c a3bd be54 2cbe
00000110: 7c11 b6be 40d2 7ebd 1483 2b3e 888d ffbe
00000120: b029 b8be 24c8 073e c6d7 a4be 6c31 803e
00000130: e2bd d6be 04f2 743e 1605 973e 004f bebd
00000140: 8e79 bbbe f40f 333e 84a9 eebe c847 a03e
00000150: 6056 febd 60af b3be 2c78 043e da54 9a3e
00000160: 323e ed3e 90f3 fbbe cd3c 83be 179f 583e
00000170: a572 333e d3da 173f 84a3 e9be 3104 c5be
00000180: ce46 763e 4097 ffbd b441 c33e a650 4b3d
00000190: f195 f43e ef20 f5be e627 0a3f 466f 98bd
000001a0: a03d f8bd d091 ccbd 842f cebe 600e 893e
000001b0: 1a98 a2be ee6a fabe 40e5 7bbd 1046 643e
000001c0: ee06 efbe 00ba 673b f036 bdbd 4037 c43d
000001d0: 5525 b9be ac1e f63e 954a 1abe b8e4 01bf
000001e0: 82cb ae3d 44e6 533d 0a61 613d ca96 24bf
000001f0: f2f4 9fbe 808b b33b 08db 1f3e 2c77 82be
00000200: 70af 773e 805d ffbe 0075 afbd c296 bebe
00000210: 4c05 e73e 3477 9abe 9747 e33e df39 853e
00000220: 104e 78bd 9c44 d4be 10b1 f53d f8df 32be
00000230: b1ed 073d 2b8e 86be 824a 033f 7753 873d
00000240: ecb5 cbbe a4b7 07be e8c2 24be 202c f43e
00000250: b6d4 a4be f0fd 773d 3e77 b4be 723f b23e
00000260: 53fb ca3e 751c 983c a54c ccbe 1b5a 76be
00000270: 8e7e a7be 0066 4bbb a0dd fbbc 0084 ea3e
00000280: 9749 e43d 12db 5dbe 1588 943e 0b5a f5be
00000290: 028e de3e ce1f e03d be20 8a3e 57e8 ac3d
000002a0: 409f be3c bcd8 26be 9ce7 13be 8efe fb3e
000002b0: 1c48 103e 0949 d73d 0556 9abd a091 0ebf
000002c0: 68e3 9ebe 4ef1 88be 2018 6e3d ea37 d93e
000002d0: bcfd b3be a88d 7abe 441d 07be 8ca7 fa3e
000002e0: 3062 65be 1484 94be bc7c 503e ee5c 973e
000002f0: b9b7 e33e 6fed d03e 20e8 b23e 14bc a5be
00000300: 9df9 e13d 9952 e93e 92ee a1be 6c9d dd3d
00000310: 0eb1 f1be b861 e23e 6a5f cdbe 646a c43e
00000320: 0308 c43c 7070 023f 43b0 613d 496a a6be
00000330: a079 fc3c 5c14 37be e0e0 bbbc 007e 27bc
00000340: 7a3d c9be 3443 2ebe 4046 573c 0cda 65be
00000350: 6419 e9be 02c1 9abe 30aa 963d 3298 813e
00000360: ef16 5a3e cb23 8ebe 5549 ac3d b04c 1f3f
00000370: 200f 433e d832 febe 62ea 9cbe 6e10 d0be
00000380: 1d80 203e 8cab 053d 2547 d73e b8ce a93e
00000390: 2bea 2a3e fb29 cfbd 4e0a c83e 29de 16be
000003a0: 8a1d d23e a705 9fbd 863a 0abf 6e80 4ebe
000003b0: 3e94 1fbe ce81 a63e 815f d4be d704 d6be
000003c0: 6877 e4bd e035 cbbe 8049 703c 189f bfbd
000003d0: a19d 2ebe 4193 863e 05d7 3fbe 934b cfbb
000003e0: c16a e6bd d1b6 273f 63bc 8abe fe55 c2bd
000003f0: b90d 993e 8db2 503e 96ac b7be ab3b 98bd
0.141146 -0.1697722 -0.4417041 -0.42298692 -0.42263705 -0.36782372 0.3982545 0.34658682
-0.16554669 0.4358083 0.04205056 -0.12180585 -0.29724026 -0.18826991 0.05472958 0.026834548
0.5033412 0.2732843 0.5276874 -0.19846803 -0.24047643 -0.041912794 0.18556029 -0.008133411
-0.3828879 0.3611012 -0.4696244 -0.4047734 0.35563526 -0.037673805 0.052407574 -0.11379771
0.13055207 -0.41071677 0.2483173 0.4084218 0.35330775 0.12657449 -0.4303337 0.24889252
0.26700753 0.2979252 -0.44230968 -0.06221676 0.15931445 -0.2522191 0.19528131 0.19092397
-0.33288115 0.35117316 -0.32308233 0.023161232 0.381471 0.49133593 -0.3764488 -0.7029251
0.005687338 0.5274084 -0.1235905 0.2908536 0.23779203 -0.33409402 0.33967084 0.15148643
0.25905186 -0.33146292 -0.07982726 -0.16829202 -0.35560215 -0.06221223 0.16749221 -0.49912667
-0.35969305 0.13259941 -0.32195872 0.25037706 -0.41941744 0.23920447 0.29496068 -0.09292412
-0.36616176 0.17486554 -0.46613705 0.31304765 -0.124188185 -0.35094738 0.12936467 0.30142862
0.46336514 -0.4920926 -0.25632325 0.21154438 0.17524202 0.59318274 -0.45632565 -0.3847976
0.24050447 -0.124800205 0.38136065 0.04963746 0.47770646 -0.4787669 0.5396713 -0.07443099
-0.12121129 -0.09988749 -0.40270627 0.2676878 -0.3175667 -0.48909706 -0.061497927 0.22292352
-0.46684974 0.0035358667 -0.09238994 0.095808506 -0.36161295 0.48070276 -0.15067513 -0.5073962
0.0853491 0.05173327 0.055024184 -0.64292586 -0.31241566 0.005479276 0.15610898 -0.25481546
0.24188018 -0.49876022 -0.08567238 -0.37224394 0.4512123 -0.3016907 0.44390556 0.26020715
-0.06062132 -0.41458595 0.119966626 -0.1746825 0.033185665 -0.2628034 0.51285565 0.066077165
-0.39787233 -0.13253647 -0.16089976 0.47689915 -0.32193536 0.060544908 -0.35247225 0.3481403
0.3964487 0.018568257 -0.39902225 -0.2405781 -0.3271374 -0.0031036139 -0.030745327 0.45803833
0.11146849 -0.216656 0.29010072 -0.4792026 0.43467718 0.10943566 0.26978105 0.08442753
0.023269296 -0.16293615 -0.1444382 0.49217647 0.14090008 0.10511977 -0.07535938 -0.55690956
-0.31032872 -0.267466 0.058128476 0.42425472 -0.3515452 -0.244681 -0.13194758 0.48955953
-0.22400737 -0.29007018 0.20360082 0.29563087 0.44476107 0.40806147 0.34942722 -0.32370055
0.11033938 0.4557083 -0.31627327 0.108210415 -0.47205395 0.44215178 -0.40111858 0.3836242
0.023929602 0.50952816 0.055099737 -0.32502964 0.030819714 -0.1787886 -0.022934377 -0.010222912
-0.39304715 -0.17017823 0.0131393075 -0.2244646 -0.45527184 -0.30225378 0.073566794 0.25311428
0.21297811 -0.27761683 0.084124245 0.6222639 0.19048738 -0.49648166 -0.3064757 -0.40637535
0.15673871 0.032634303 0.42046466 0.33165526 0.1669089 -0.10115429 0.39070362 -0.14733185
0.41038162 -0.0776475 -0.5399555 -0.2016618 -0.15583894 0.32520908 -0.41479114 -0.41800568
-0.111555874 -0.3968954 0.014665961 -0.093565166 -0.17052318 0.2628422 -0.18734367 -0.006326148
-0.112508304 0.6551333 -0.27096853 -0.09489058 0.29893282 0.20380612 -0.3587386 -0.07433256

l1.bias f4 [64]
00000000: 6556 c83e ac93 3b3e c22d 423e bc5d 143e
00000010: 2ba6 c5be 82fd 82be acae cebe 34a6 f23d
00000020: b4e1 823e 5603 713e 0845 e83d 1e6a 9bbd
00000030: 58b1 c43d 3212 37be 2f1c a83e 10de 953e
00000040: 53d9 a73e 4004 e03d cc08 e7be 10bf 03bd
00000050: faa5 b33e 5c48 1bbe a071 c03d bd52 193f
00000060: 97af c6be 3c18 00bf 8051 dfbb 6864 97bd
00000070: 980b 7bbe 59b5 de3d 15a2 f83e fc82 8e3e
00000080: 205d 3f3e 0433 c23e b495 e0be 49f1 363d
00000090: 24c9 5d3e 2af2 d03e e7c8 433e 2457 ef3e
000000a0: 2535 b23c 46b4 223d bc73 b3be 3b4e ec3e
000000b0: 9076 0b3e 00b8 45bc bc3a abbe 9ad1 c53e
000000c0: c768 233d 5885 833d 6e89 38be 3875 b0be
000000d0: ca66 d23e b80f 8b3d 68ff a73e 0a33 b5be
000000e0: 2fa5 95bd 4f74 e23d c681 383e d74a 893e
000000f0: b419 e03e 2202 a63d 8cb0 1e3f 349f 323e
0.39128414 0.18318051 0.18962768 0.14488882 -0.3860334 -0.25584036 -0.4036764 0.11848107
0.25562823 0.23536429 0.11341292 -0.075885996 0.09604138 -0.17878035 0.32834002 0.29270983
0.32782993 0.109383106 -0.451239 -0.032164633 0.35087568 -0.15164322 0.09396672 0.59891874
-0.3880584 -0.5003698 -0.0068151355 -0.07392198 -0.24516141 0.10874433 0.4856116 0.27834308
0.18687868 0.37929547 -0.43864214 0.0446637 0.2165876 0.40809757 0.19119607 0.4674617
0.021753857 0.039722703 -0.35049236 0.46153435 0.13619447 -0.012067795 -0.33443248 0.38636476
0.039894845 0.06421918 -0.18021175 -0.3446443 0.41094047 0.067901075 0.32812047 -0.35390502
-0.07306897 0.1105734 0.18018255 0.2681491 0.4376961 0.081058756 0.6198814 0.17443544

l2.weight f4 [3, 64]
00000000: b72a ddbd d888 78bd e807 c03d 4e21 ab3d
00000010: 3e93 a0bd c47d 3b3d 7a4b f33d 7299 ec3b
00000020: b301 b3bd b3f6 8a3d dcfa 903e 1ccf efbd
00000030: 4018 d33c c587 973d 72a7 a83d 7c06 e8bd
00000040: 9ea8 13be c867 ea3d 20fe f13b 5822 e03c
00000050: 60de 763d 46d0 c83d 8626 9cbd acf6 693e
00000060: b61c d6bd 818a 75be 4823 2d3d 32b5 b4bd
00000070: bc5d 97bd 6ae3 c7bd 1b5e 923e ec5d e23d
00000080: e2e4 bdbd 10e1 29be 0029 5bba 6f4f 9fbe
00000090: 405d b73c 348f 3abd 9436 7c3e 042a f4bd
000000a0: 1435 02be 1212 f1bd a802 dc3d 5221 6a3e
000000b0: bcf1 f43d 00ed b83a dc24 043d 2f63 de3d
000000c0: 546c 003d d28f b9bd 6892 473e a60d f63d
000000d0: 8c7d 6b3d ee9d bb3d c872 efbd d67c d03d
000000e0: da78 31be 416f a5bd 10f5 873e 4632 40bd
000000f0: 7064 7bbd 2245 97bd 027e b53e ecff da3c
00000100: f2f2 e83b 0034 58bd 6c65 24be 602d db3d
00000110: e63f a5bd e8d5 87bd b85a e5bd 2ee2 6e3d
00000120: ee47 813c 1530 dabb 7793 183d 19c2 6fbc
00000130: ace5 9d3d b516 3dbd ac6f 3bbc 5777 9bbd
00000140: d45d 1d3e 4c6b 243d 70a1 4ebd 8028 52bd
00000150: a68e b83d be6f c4bd 1873 833d a9e0 d4bd
00000160: abcd 3d3d 7b65 d5bd 4846 733d da9b d7bd
00000170: 903c 95bd 5338 4dbd bb16 123e 0859 5bbd
00000180: b405 7f3d 6224 de3d 30dd 36bc f006 7b3c
00000190: 7a93 e9bd e4c0 513d 3de3 fc3d 2063 7f3d
000001a0: 0317 1b3e fed4 fdbd 5031 dcbd 6b8a 16bd
000001b0: 7a95 9c3d b836 ad3c 000b b3ba 1a99 ca3d
000001c0: e84a 25bd e490 2ebd 5a3a 1d3d 6ea7 a3bd
000001d0: f8cb 453d 90c0 7cbc 4a06 923d 44d6 31bd
000001e0: fcb0 123d 1a75 bdbd eddd 8dbe 2929 803d
000001f0: d2b7 e8bd f78c 713d 0a22 a5bd a567 113d
00000200: 5649 6ebd 6042 883b 4a8d ebbd c0c5 173d
00000210: 2be0 d13d 78a0 143d d036 a83c 12d8 2c3d
00000220: f67a 793d 2aac f2bd db21 8cbe f46d 063e
00000230: 3816 67bd 24e8 75be 8b4d 5f3c 05f5 633c
00000240: eb54 93be 0eed 843d 0080 9238 e0ac 7abc
00000250: c052 b6bb 08da 12bd 5d91 0d3a 3594 83be
00000260: 19a4 143c 607d c13d 86e4 d03d 00e5 c33d
00000270: 422a acbd 6f2c 02bd 518e b3be 0e76 b23d
00000280: b01e cfbc fb4e 3bbd 0008 f33b 4ba4 443e
00000290: 8836 923d 484c b53d 53f5 50be f23e b7bd
000002a0: 29e3 c8bc e9ef 84bd c037 c13c 8ea3 6fbe
000002b0: 8037 2cbd 76ed 83bd d03a 28bc 948b 363c
000002c0: 21b3 b4bd bc40 b8bd ed59 f5bd e27c d43d
000002d0: c0bf eb3b e076 f73d 61b2 d73d 9825 8bbd
000002e0: 84a5 8f3d 3538 373b 1f47 1cbe d7db 8bbd
000002f0: c46b 62bd 243a 0a3d 4cff a6be 52c8 d4bd
-0.10799163 -0.06067738 0.09376508 0.08355962 -0.07840584 0.045774236 0.118796304 0.0072204405
-0.087405585 0.067853354 0.2831639 -0.11709425 0.0257684 0.07398943 0.08235063 -0.11329362
-0.14419791 0.11445576 0.0073850304 0.027360126 0.060270667 0.0980535 -0.07624535 0.22848004
-0.10454695 -0.23978616 0.042269975 -0.08823623 -0.07390925 -0.09760173 0.28587422 0.110530704
-0.092721716 -0.16589761 -0.00083602965 -0.3111529 0.022383332 -0.045546725 0.24630195 -0.11922076
-0.1271556 -0.11771025 0.10742694 0.22864273 0.1196017 0.0014108717 0.032261714 0.108587615
0.03135331 -0.09060635 0.19489443 0.12014322 0.057492778 0.09160982 -0.11691815 0.101800606
-0.17331257 -0.080778606 0.26554155 -0.046922944 -0.06137508 -0.07386233 0.354477 0.026733361
0.0071090395 -0.052783966 -0.16054314 0.10702014 -0.08068828 -0.06632596 -0.11198944 0.05832117
0.015781369 -0.006658564 0.03725001 -0.014633679 0.07709822 -0.046164233 -0.011440199 -0.07591122
0.15367824 0.04014139 -0.050446928 -0.051308155 0.09011583 -0.09591626 0.06418437 -0.10394413
0.04633872 -0.104197465 0.059393197 -0.10527773 -0.07286942 -0.050102543 0.14266483 -0.053551704
0.0622613 0.10846783 -0.011161134 0.015321478 -0.11405082 0.051209345 0.1234803 0.062350392
0.15145497 -0.12394141 -0.10751593 -0.0367531 0.07645698 0.021144256 -0.0013659894 0.09892483
-0.04035464 -0.042618647 0.038385727 -0.07990919 0.048290223 -0.01542677 0.07130106 -0.04341723
0.035813317 -0.09250851 -0.27708378 0.06257851 -0.11363186 0.058972325 -0.08063133 0.035499234
-0.058175407 0.004158303 -0.11501558 0.037053823 0.10247835 0.036285847 0.02053395 0.04219825
0.06090828 -0.11849244 -0.2736958 0.13127881 -0.056417674 -0.24014336 0.0136293275 0.013913398
-0.28775725 0.06490527 6.9856644e-05 -0.015300006 -0.005564064 -0.035852462 0.0005400384 -0.2569901
0.009072327 0.094477415 0.101998374 0.09565163 -0.084064975 -0.031780656 -0.35069516 0.087139234
-0.025283188 -0.04572962 0.007416725 0.19203298 0.07139307 0.0885244 -0.20406084 -0.08947553
-0.02452238 -0.06491072 0.023586154 -0.23402235 -0.042045116 -0.064417765 -0.010267928 0.011141676
-0.088232286 -0.08996722 -0.119800426 0.10375382 0.0071944892 0.120832205 0.1053207 -0.0679428
0.070139915 0.0027957086 -0.15261506 -0.068290405 -0.055278555 0.033746853 -0.3261665 -0.103897706

l2.bias f4 [3]
00000000: 3c8c 333e 7e74 3a3c 3edc f6bd
0.17533964 0.011380313 -0.120537266

exp_avg f4 [64, 4]
00000000: 2b2a 3527 0201 ec26 3e78 3626 6254 e024
00000010: 0000 0000 0000 0000 0000 0000 0000 0000
00000020: 493e 653b d3c5 2abb ea0a 113c 973d 193b
00000030: 0000 0000 0000 0000 0000 0000 0000 0000
00000040: 35e8 753c d20c f43b 6342 68b9 cae5 b8bb
00000050: 0000 0000 0000 0000 0000 0000 0000 0000
00000060: 0000 0000 0000 0000 0000 0000 0000 0000
00000070: 69d4 8fba f1ff a839 7005 ddba 5ff0 82b9
00000080: ed4a 71b8 34af 6b3a cf5a 94bb c392 3ebb
00000090: 7419 14bc 1b95 bdbb 113c 3c3b 5c58 953b
000000a0: ada3 1bbd 7613 b4bc c315 15bb f055 173c
000000b0: 8531 453c 3190 fc3b 2d10 70bb aaf5 c1bb
000000c0: 0000 0000 0000 0000 0000 0000 0000 0000
000000d0: d78b bcbc b395 59bc ac85 0cbb fe64 a13b
000000e0: f216 063b 1033 18ba 0a57 5a3b 7a6a 2a3a
000000f0: ab23 f53b b63c 8e3b e8e3 a9ba fd22 55bb
00000100: 24d7 35bd cd9d 8ebc c158 94bc 3d51 b43b
00000110: 0000 0000 0000 0000 0000 0000 0000 0000
00000120: 0000 0000 0000 0000 0000 0000 0000 0000
00000130: 0000 0000 0000 0000 0000 0000 0000 0000
00000140: 0000 0000 0000 0000 0000 0000 0000 0000
00000150: 0000 0000 0000 0000 0000 0000 0000 0000
00000160: ac16 9ebb 5118 b5b7 121c 9cbb 018c 1db9
00000170: a817 bebc fb3b 86bc 60d4 283b 99c9 ce3b
00000180: 19fc 32bb 868b 9d3a e2ad a4bb 0483 7eba
00000190: 0180 863c 072c 2c3c c94a a6bb c58a 05bc
000001a0: 0000 0000 0000 0000 0000 0000 0000 0000
000001b0: 0000 0000 0000 0000 0000 0000 0000 0000
000001c0: 0000 0000 0000 0000 0000 0000 0000 0000
000001d0: 2780 ce25 cc3d a225 0749 d224 6475 4b23
000001e0: f405 66bd a578 f9bc 6b40 0cbc 78ed 323c
000001f0: 0000 0000 0000 0000 0000 0000 0000 0000
00000200: 0000 0000 0000 0000 0000 0000 0000 0000
00000210: 2c03 46bc dc82 afba 613c 16bc eb5b 523a
00000220: 0000 0000 0000 0000 0000 0000 0000 0000
00000230: b496 3f3c ed27 303c a26a 4bbc 4728 29bc
00000240: 0000 0000 0000 0000 0000 0000 0000 0000
00000250: 0000 0000 0000 0000 0000 0000 0000 0000
00000260: f2a4 15bd e732 a7bc 3bd7 97bb 32a4 023c
00000270: 0000 0000 0000 0000 0000 0000 0000 0000
00000280: 5bbd 72bc f663 3dbb 562a 1ebc eb41 9e3a
00000290: cd8e a13b 6c3a 193b c196 7939 32f0 dcba
000002a0: 0000 0000 0000 0000 0000 0000 0000 0000
000002b0: a32f d5bc eec1 8fbc 6267 7b3a cccf c93b
000002c0: 0000 0000 0000 0000 0000 0000 0000 0000
000002d0: 0000 0000 0000 0000 0000 0000 0000 0000
000002e0: 0000 0000 0000 0000 0000 0000 0000 0000
000002f0: ed47 e5bb 5df0 70bb 2482 2f3a 7e15 403b
00000300: 5b24 7ebb 4307 4ebb d35d 283b 9184 233b
00000310: 0000 0000 0000 0000 0000 0000 0000 0000
00000320: a52a 53bc b598 15bc 52eb c23b b975 ee3b
00000330: 0000 0000 0000 0000 0000 0000 0000 0000
00000340: 0000 0000 0000 0000 0000 0000 0000 0000
00000350: 0000 0000 0000 0000 0000 0000 0000 0000
00000360: c87e 4c3b 7eda 9b3b 5fc1 d2bb 39e4 72bb
00000370: 0000 0000 0000 0000 0000 0000 0000 0000
00000380: 29dd 4e3b 33c6 a83b 9c7e edbb 3b7f 85bb
00000390: 0cfc 003c 1523 723b e062 ce39 b1fe 31bb
000003a0: 82ac 4cbc 14ad 7abc 0d91 093c f589 993b
000003b0: abb7 303a 5bca 023a cfa3 3e39 7997 d537
000003c0: 0000 0000 0000 0000 0000 0000 0000 0000
000003d0: 2c95 d638 30ef a738 fd97 ba37 6346 9536
000003e0: 7a93 28bd ab6e d4bc 2d72 64bb 510b fa3b
000003f0: 164b 37bc d396 b1bb ccc3 17b9 3a3c 853b
2.5141655e-15 1.6376063e-15 6.3306893e-16 9.7287465e-17 0.0 0.0 0.0 0.0
0.0034979752 -0.0026057854 0.0088527 0.0023382658 0.0 0.0 0.0 0.0
0.015008976 0.0074478174 -0.00022149975 -0.0056426274 0.0 0.0 0.0 0.0
0.0 0.0 0.0 0.0 -0.0010973337 0.00032234148 -0.0016862582 -0.00024974623
-5.7528658e-05 0.0008990646 -0.004527427 -0.0029079176 -0.009039272 -0.005785597 0.0028722326 0.0045576524
-0.03799789 -0.021981936 -0.0022748567 0.009236798 0.012035732 0.0077076186 -0.0036630735 -0.005919178
0.0 0.0 0.0 0.0 -0.0230159 -0.01328032 -0.002144198 0.0049253693
0.0020460454 -0.0005805949 0.003331604 0.00065008516 0.0074810586 0.0043407334 -0.0012961598 -0.0032522075
-0.044394627 -0.01740923 -0.018108727 0.0055028484 0.0 0.0 0.0 0.0
0.0 0.0 0.0 0.0 0.0 0.0 0.0 0.0
0.0 0.0 0.0 0.0 0.0 0.0 0.0 0.0
-0.00482448 -2.1588205e-05 -0.0047640884 -0.00015024842 -0.02320464 -0.016386023 0.002576135 0.0063106534
-0.0027310906 0.0012019731 -0.0050256113 -0.0009708854 0.016418459 0.010508544 -0.005074833 -0.008150761
0.0 0.0 0.0 0.0 0.0 0.0 0.0 0.0
0.0 0.0 0.0 0.0 3.5822143e-16 2.8144396e-16 9.1196696e-17 1.10295105e-17
-0.05615802 -0.030453036 -0.00856028 0.010920875 0.0 0.0 0.0 0.0
0.0 0.0 0.0 0.0 -0.012085717 -0.001339044 -0.009169669 0.0008024561
0.0 0.0 0.0 0.0 0.011693645 0.010751707 -0.01241556 -0.010324544
0.0 0.0 0.0 0.0 0.0 0.0 0.0 0.0
-0.036534257 -0.020410014 -0.004633812 0.0079737175 0.0 0.0 0.0 0.0
-0.014815654 -0.0028898693 -0.009653648 0.0012074088 0.0049303533 0.002338077 0.0002380265 -0.0016856252
0.0 0.0 0.0 0.0 -0.026023692 -0.017548528 0.00095902954 0.0061588045
0.0 0.0 0.0 0.0 0.0 0.0 0.0 0.0
0.0 0.0 0.0 0.0 -0.0069970996 -0.0036764361 0.00066951127 0.0029309685
-0.0038778994 -0.0031437434 0.002569069 0.0024950842 0.0 0.0 0.0 0.0
-0.012888585 -0.0091306465 0.0059484625 0.007277217 0.0 0.0 0.0 0.0
0.0 0.0 0.0 0.0 0.0 0.0 0.0 0.0
0.0031203497 0.004756271 -0.006431743 -0.00370623 0.0 0.0 0.0 0.0
0.0031564927 0.0051505803 -0.007247759 -0.004074005 0.007872593 0.003694718 0.0003936505 -0.0027159865
-0.012492301 -0.015300054 0.008396399 0.004685635 0.0006741236 0.000498926 0.00018180835 2.5462114e-05
0.0 0.0 0.0 0.0 0.000102321006 8.007733e-05 2.2243703e-05 4.44874e-06
-0.04115627 -0.025931677 -0.0034858093 0.0076307436 -0.0111873355 -0.005419591 -0.00014473422 0.0040660175

exp_avg_sq f4 [64, 4]
00000000: 0165 9637 42d7 fb36 54e0 9e35 da56 fc32
00000010: 0000 0000 0000 0000 0000 0000 0000 0000
00000020: 83f2 203a 265b 7e39 5eec b339 d7d5 2a38
00000030: 0000 0000 0000 0000 0000 0000 0000 0000
00000040: 18f7 373b 3c9f 1c3a 4318 f33a 31e6 8b39
00000050: 0000 0000 0000 0000 0000 0000 0000 0000
00000060: 0000 0000 0000 0000 0000 0000 0000 0000
00000070: f40a af38 c1ed 3d38 0b66 5638 7c97 1937
00000080: 4b5a b439 f181 9438 37ba 7a39 9950 0b38
00000090: d9ba 3a3a c3b6 2839 e3ef fd39 8b47 9938
000000a0: 7b88 183b 5e3a 213a 21e3 a03a ce4d 3839
000000b0: b2bd 883a 2694 7839 f242 2d3a 730b cd38
000000c0: 0000 0000 0000 0000 0000 0000 0000 0000
000000d0: 35da 3b3a d035 3739 73ed ec39 025c 8938
000000e0: 953f 8638 e948 9137 9f93 2738 a54e 9736
000000f0: 583e 003a f60f 0539 38ca 8739 9221 0e38
00000100: df09 d73b f2f4 b53a ef7e 793b b6b9 f339
00000110: 0000 0000 0000 0000 0000 0000 0000 0000
00000120: 0000 0000 0000 0000 0000 0000 0000 0000
00000130: 0000 0000 0000 0000 0000 0000 0000 0000
00000140: 0000 0000 0000 0000 0000 0000 0000 0000
00000150: 0000 0000 0000 0000 0000 0000 0000 0000
00000160: 1921 a739 c95e 0539 74aa 9639 7b0a 4c38
00000170: 3d7f 903a b0a8 143a aa1d 473a 3f1b 0c39
00000180: b12f 203a d88c 1539 c68b ba39 d58e 3938
00000190: 3fe7 3e3b 30f1 2b3a 6a4b 093b a3ca aa39
000001a0: 0000 0000 0000 0000 0000 0000 0000 0000
000001b0: 0000 0000 0000 0000 0000 0000 0000 0000
000001c0: 0000 0000 0000 0000 0000 0000 0000 0000
000001d0: 5059 4135 dcea ee34 2212 5333 a1ac 4630
000001e0: 3874 cf3b b12b d63a a60b 693b ace0 fc39
000001f0: 0000 0000 0000 0000 0000 0000 0000 0000
00000200: 0000 0000 0000 0000 0000 0000 0000 0000
00000210: d6fc 683b 213e 6f3a 33f4 ea3a c645 5839
00000220: 0000 0000 0000 0000 0000 0000 0000 0000
00000230: c53d 123b a1dd fd39 2ecb d73a ef7a 8139
00000240: 0000 0000 0000 0000 0000 0000 0000 0000
00000250: 0000 0000 0000 0000 0000 0000 0000 0000
00000260: dae9 0f3b 4c9d 083a 2e70 a83a c6e5 3839
00000270: 0000 0000 0000 0000 0000 0000 0000 0000
00000280: e354 073b 9c6f f739 5c37 963a 865b 0d39
00000290: 5d75 7b39 53ff 5938 995e 1239 145e 9937
000002a0: 0000 0000 0000 0000 0000 0000 0000 0000
000002b0: e16c 9f3a 663f 063a c9da 843a 0368 3539
000002c0: 0000 0000 0000 0000 0000 0000 0000 0000
000002d0: 0000 0000 0000 0000 0000 0000 0000 0000
000002e0: 0000 0000 0000 0000 0000 0000 0000 0000
000002f0: ec40 4c3a 6046 2e39 df3f 183a 5ca6 b838
00000300: e863 f538 f1d8 1c38 0139 6538 9470 0437
00000310: 0000 0000 0000 0000 0000 0000 0000 0000
00000320: c99f 0a3b adad 043a df77 ec3a 749f 9b39
00000330: 0000 0000 0000 0000 0000 0000 0000 0000
00000340: 0000 0000 0000 0000 0000 0000 0000 0000
00000350: 0000 0000 0000 0000 0000 0000 0000 0000
00000360: c674 5b39 2bc7 ce38 dffb e838 3e1a 8d37
00000370: 0000 0000 0000 0000 0000 0000 0000 0000
00000380: d8a1 ae39 996d 3f39 a035 5439 4506 0f38
00000390: 770d 433a e6cf 5039 6fc4 c239 0e4c 3c38
000003a0: 4183 a43a 0b84 133a 829c 9e39 c9bd 0738
000003b0: 782e 123a 9710 8939 7c24 4e38 6a23 c535
000003c0: 0000 0000 0000 0000 0000 0000 0000 0000
000003d0: 37a4 203a 3964 9939 30f7 6238 a343 db35
000003e0: 997f e33a 816d 263a 7934 1a3a 2824 b638
000003f0: a16a 2f3a 6955 4839 47e2 b639 6cdc 3f38
1.7928427e-05 7.505442e-06 1.1837205e-06 2.9376157e-08 0.0 0.0 0.0 0.0
0.00061396527 0.00024257283 0.00034317648 4.0730312e-05 0.0 0.0 0.0 0.0
0.0028070863 0.00059746555 0.0018546659 0.00026683652 0.0 0.0 0.0 0.0
0.0 0.0 0.0 0.0 8.3466904e-05 4.5282537e-05 5.111661e-05 9.154781e-06
0.0003439955 7.0813934e-05 0.00023911228 3.3215245e-05 0.00071231794 0.00016089813 0.0004843465 7.3089344e-05
0.0023274708 0.000615036 0.0012274721 0.00017576592 0.001043251 0.00023706313 0.0006609402 9.777294e-05
0.0 0.0 0.0 0.0 0.0007165999 0.00017472287 0.0004519034 6.549807e-05
6.401461e-05 1.7319298e-05 3.9953386e-05 4.509306e-06 0.00048921024 0.00012689814 0.0002589987 3.3886703e-05
0.006562456 0.0013882203 0.0038070043 0.00046486937 0.0 0.0 0.0 0.0
0.0 0.0 0.0 0.0 0.0 0.0 0.0 0.0
0.0 0.0 0.0 0.0 0.0 0.0 0.0 0.0
0.00031877382 0.00012719179 0.00028737227 4.864715e-05 0.0011024248 0.00056708883 0.0007595668 0.0001336159
0.0006110622 0.00014262216 0.00035580824 4.424046e-05 0.0029129533 0.0006559072 0.0020949491 0.00032575903
0.0 0.0 0.0 0.0 0.0 0.0 0.0 0.0
0.0 0.0 0.0 0.0 7.202807e-07 4.4501837e-07 4.9143758e-08 7.22773e-10
0.006330993 0.0016339925 0.0035559922 0.0004823258 0.0 0.0 0.0 0.0
0.0 0.0 0.0 0.0 0.0035551093 0.00091263844 0.001792556 0.00020625358
0.0 0.0 0.0 0.0 0.002231465 0.00048421047 0.001646375 0.0002469639
0.0 0.0 0.0 0.0 0.0 0.0 0.0 0.0
0.0021959455 0.00052114273 0.0012850815 0.00017633205 0.0 0.0 0.0 0.0
0.0020649962 0.00047194667 0.001146059 0.00013480903 0.00023980947 5.197462e-05 0.00013958885 1.828283e-05
0.0 0.0 0.0 0.0 0.0012163186 0.00051211414 0.0010136004 0.00017300253
0.0 0.0 0.0 0.0 0.0 0.0 0.0 0.0
0.0 0.0 0.0 0.0 0.00077916565 0.0001662015 0.00058078574 8.8047906e-05
0.000117011194 3.739534e-05 5.4650944e-05 7.894025e-06 0.0 0.0 0.0 0.0
0.0021152368 0.000506128 0.0018041095 0.00029682706 0.0 0.0 0.0 0.0
0.0 0.0 0.0 0.0 0.0 0.0 0.0 0.0
0.00020928969 9.8599434e-05 0.00011109537 1.682073e-05 0.0 0.0 0.0 0.0
0.0003330845 0.00018256008 0.00020237872 3.4099696e-05 0.0007440666 0.00019913874 0.00037148918 4.4893524e-05
0.0012551324 0.0005627281 0.00030252716 3.236326e-05 0.00055763824 0.00026143037 4.9148206e-05 1.4687951e-06
0.0 0.0 0.0 0.0 0.00061279855 0.00029257106 5.411281e-05 1.6336456e-06
0.0017356753 0.0006348715 0.0005882453 8.685171e-05 0.0006691609 0.00019105304 0.00034882335 4.5743232e-05

exp_avg f4 [64]
00000000: 726a 1726 0000 0000 4fc3 db39 0000 0000
00000010: a5b5 943b 0000 0000 0000 0000 d684 66b9
00000020: abd2 1a3a f6a5 40bb 10b4 24bc 2c1c 7e3b
00000030: 0000 0000 f131 ccbb 280c c039 bef6 183b
00000040: 3069 3abc 0000 0000 0000 0000 0000 0000
00000050: 0000 0000 0000 0000 7479 92ba 9c66 cabb
00000060: 0c5f feb9 44fd ad3b 0000 0000 0000 0000
00000070: 0000 0000 3bb9 a824 67f6 73bc 0000 0000
00000080: 0000 0000 014a 45bb 0000 0000 cd96 983b
00000090: 0000 0000 0000 0000 5716 25bc 0000 0000
000000a0: 4f6e 72bb 51ff be3a 0000 0000 dd34 e6bb
000000b0: 0000 0000 0000 0000 0000 0000 6690 0ebb
000000c0: 108b b1ba 0000 0000 9add 8dbb 0000 0000
000000d0: 0000 0000 0000 0000 4080 b43a 0000 0000
000000e0: fd4f be3a 1cfb 183b b90d 65bb ba38 1839
000000f0: 0000 0000 fd97 ba37 39a2 24bc 6dfd 5bbb
5.253291e-16 0.0 0.0004191645 0.0 0.0045382553 0.0 0.0 -0.00021983995
0.0005906026 -0.0029395795 -0.010052696 0.0038774116 0.0 -0.0062315394 0.0003663015 0.002334043
-0.011377618 0.0 0.0 0.0 0.0 0.0 -0.0011175112 -0.006176783
-0.0004851747 0.0053097326 0.0 0.0 0.0 7.317218e-17 -0.01489029 0.0
0.0 -0.0030103924 0.0 0.0046566487 0.0 0.0 -0.010076127 0.0
-0.0036992019 0.001457194 0.0 -0.0070253448 0.0 0.0 0.0 -0.0021753549
-0.0013545472 0.0 -0.0043293955 0.0 0.0 0.0 0.0013771132 0.0
0.0014519688 0.0023343032 -0.0034950806 0.00014516982 0.0 2.2243703e-05 -0.0100484425 -0.0033567802

exp_avg_sq f4 [64]
00000000: 80de 4a35 0000 0000 36a8 b337 0000 0000
00000010: 4b13 9b38 0000 0000 0000 0000 c621 6c36
00000020: 0db2 0737 21b1 9e37 ea45 9838 8372 f237
00000030: 0000 0000 c206 b437 d82b fa35 f79e 6e37
00000040: 54c2 3b39 0000 0000 0000 0000 0000 0000
00000050: 0000 0000 0000 0000 8b0c 3b37 18cb 4238
00000060: 9e32 8337 5dff a538 0000 0000 0000 0000
00000070: 0000 0000 d84f ff32 8fe4 4a39 0000 0000
00000080: 0000 0000 dd51 cd38 0000 0000 b0d9 6938
00000090: 0000 0000 0000 0000 4f99 8838 0000 0000
000000a0: e5a6 6838 1494 da36 0000 0000 e9d1 3d38
000000b0: 0000 0000 0000 0000 0000 0000 0f40 a537
000000c0: 7ec8 7236 0000 0000 e53a 7038 0000 0000
000000d0: 0000 0000 0000 0000 203b 0637 0000 0000
000000e0: bda5 6c37 5cb0 b537 54da 4f38 c081 bc37
000000f0: 0000 0000 ff31 ce37 37ff 8638 5350 a937
7.5574644e-07 0.0 2.1416792e-05 0.0 7.3945695e-05 0.0 0.0 3.51864e-06
8.088083e-06 1.891755e-05 7.260947e-05 2.8901972e-05 0.0 2.1460819e-05 1.8639212e-06 1.4222917e-05
0.00017906103 0.0 0.0 0.0 0.0 0.0 1.1148989e-05 4.644235e-05
1.5639987e-05 7.915378e-05 0.0 0.0 0.0 2.9722216e-08 0.00019349366 0.0
0.0 9.79041e-05 0.0 5.5754266e-05 0.0 0.0 6.513541e-05 0.0
5.5468543e-05 6.514145e-06 0.0 4.5256606e-05 0.0 0.0 0.0 1.9699362e-05
3.6177512e-06 0.0 5.727531e-05 0.0 0.0 0.0 8.0007885e-06 0.0
1.4105285e-05 2.1659005e-05 4.955598e-05 2.2471766e-05 0.0 2.4580395e-05 6.4371554e-05 2.0183774e-05

exp_avg f4 [3, 64]
00000000: e7ba 5da5 0000 0000 a218 09bc 0000 0000
00000010: 304a 3b3c 0000 0000 0000 0000 98c6 8338
00000020: 76a2 a93c 096c 71bc 3879 b7bc 50be 683c
00000030: 0000 0000 e3ec 04bd d63d 28bc 3a65 9c3c
00000040: 384d 23ba 0000 0000 0000 0000 0000 0000
00000050: 0000 0000 0000 0000 3b6f 053b 9cdb 0cbd
00000060: c27d 8e3c 33e8 e03c 0000 0000 0000 0000
00000070: 0000 0000 54e6 1ea4 e394 23bc 0000 0000
00000080: 0000 0000 0612 c13c 0000 0000 af9b c03c
00000090: 0000 0000 0000 0000 8e43 9bbc 0000 0000
000000a0: 1478 de3b f53e 073c 0000 0000 6bba 69bc
000000b0: 0000 0000 0000 0000 0000 0000 3147 9dba
000000c0: ab3b 91bc 0000 0000 b49b 3abc 0000 0000
000000d0: 0000 0000 0000 0000 542b 823c 0000 0000
000000e0: e8a7 9d3c b359 533c 1846 9dbc 93ed ccb8
000000f0: 0000 0000 4923 1ab7 8019 c6bc 621b 95bc
00000100: cf16 1c25 0000 0000 0f4f 8abb 0000 0000
00000110: 544a 72bd 0000 0000 0000 0000 bd16 0abd
00000120: 34c6 01bc 1513 90bc 79f9 83bc e08e 16bc
00000130: 0000 0000 2b31 12bd 6c71 33bc 6890 ddbc
00000140: 721c a3bc 0000 0000 0000 0000 0000 0000
00000150: 0000 0000 0000 0000 8492 81bc 214c f9bc
00000160: 5731 a1bc 47f7 12bd 0000 0000 0000 0000
00000170: 0000 0000 8caf f723 34e4 f5bc 0000 0000
00000180: 0000 0000 7fb3 43bd 0000 0000 5286 63bc
00000190: 0000 0000 0000 0000 a238 d4bc 0000 0000
000001a0: 1966 b0bc cae2 3cbd 0000 0000 c1b5 f0bc
000001b0: 0000 0000 0000 0000 0000 0000 c620 8fbd
000001c0: e5e7 eebb 0000 0000 8a12 86bc 0000 0000
000001d0: 0000 0000 0000 0000 f748 33bc 0000 0000
000001e0: 9425 a8bc 260a efbc 9c5a 883c fd84 c738
000001f0: 0000 0000 7679 1637 b76d 03bc 7075 adbc
00000200: 3248 8324 0000 0000 2f40 4e3c 0000 0000
00000210: c877 433d 0000 0000 0000 0000 dbd4 093d
00000220: c47e 51bc 8e64 043d 5bb9 1d3d ef5e a4bb
00000230: 0000 0000 098f 8b3d a0d7 ad3c 5b56 023c
00000240: dc36 a83c 0000 0000 0000 0000 0000 0000
00000250: 0000 0000 0000 0000 37c9 613c d8c0 843d
00000260: 839c 153b b30c 0a3c 0000 0000 0000 0000
00000270: 0000 0000 403a 0c23 55d7 233d 0000 0000
00000280: 0000 0000 f554 c63c 0000 0000 18b1 1dbc
00000290: 0000 0000 0000 0000 1abe 373d 0000 0000
000002a0: 2690 713c 0a13 1b3d 0000 0000 7cc9 323d
000002b0: 0000 0000 0000 0000 0000 0000 e195 913d
000002c0: a7f5 cc3c 0000 0000 6660 e33c 0000 0000
000002d0: 0000 0000 0000 0000 6b1b a2bb 0000 0000
000002e0: b9da a73a 495d 853c ff5b 273b c114 2d36
000002f0: 0000 0000 4078 6a34 30e8 033d 6a48 213d
-1.923202e-16 0.0 -0.008367689 0.0 0.011431262 0.0 0.0 6.283558e-05
0.02070735 -0.01473523 -0.022396669 0.01420553 0.0 -0.032452475 -0.010268649 0.019091237
-0.0006229463 0.0 0.0 0.0 0.0 0.0 0.0020360488 -0.034389123
0.01739395 0.027454471 0.0 0.0 0.0 -3.4455884e-17 -0.009984228 0.0
0.0 0.023568165 0.0 0.023511736 0.0 0.0 -0.018953111 0.0
0.006789217 0.008254756 0.0 -0.014265637 0.0 0.0 0.0 -0.0011999366
-0.017728647 0.0 -0.011389662 0.0 0.0 0.0 0.015889801 0.0
0.019245103 0.012899804 -0.019198462 -9.77173e-05 0.0 -9.187331e-06 -0.024182081 -0.018201534
1.3538571e-16 0.0 -0.0042208503 0.0 -0.059152916 0.0 0.0 -0.03371309
-0.00792079 -0.017587224 -0.016110169 -0.0091893375 0.0 -0.03569142 -0.010952335 -0.027046397
-0.019911025 0.0 0.0 0.0 0.0 0.0 -0.015816934 -0.030431809
-0.019676847 -0.035880353 0.0 0.0 0.0 2.685414e-17 -0.030016042 0.0
0.0 -0.047778603 0.0 -0.013887005 0.0 0.0 -0.02590591 0.0
-0.021533059 -0.04611472 0.0 -0.029383542 0.0 0.0 0.0 -0.06988673
-0.0072908276 0.0 -0.016366262 0.0 0.0 0.0 -0.010942689 0.0
-0.020525731 -0.029179644 0.016644768 9.5138304e-05 0.0 8.9689765e-06 -0.0080217635 -0.021174163
5.69345e-17 0.0 0.012588545 0.0 0.047721654 0.0 0.0 0.03365026
-0.012786571 0.03232246 0.038506847 -0.0050162 0.0 0.06814391 0.021220982 0.007955159
0.020533971 0.0 0.0 0.0 0.0 0.0 0.0137808835 0.064820945
0.0022828884 0.008425879 0.0 0.0 0.0 7.60175e-18 0.04000028 0.0
0.0 0.024210433 0.0 -0.009624742 0.0 0.0 0.04485903 0.0
0.01474384 0.037859954 0.0 0.04364918 0.0 0.0 0.0 0.07108665
0.02501948 0.0 0.027755927 0.0 0.0 0.0 -0.004947116 0.0
0.0012806273 0.016279833 0.0025537012 2.579109e-06 0.0 2.1836695e-07 0.032203853 0.0393757

exp_avg_sq f4 [3, 64]
00000000: 7fc6 8234 0000 0000 18f2 d539 0000 0000
00000010: df38 123c 0000 0000 0000 0000 a7b6 0a3b
00000020: 3426 b63a f068 1d3b 3da7 4e3a 21b0 3b3a
00000030: 0000 0000 21bd c03b 3627 153b b1aa 293b
00000040: 9274 ba37 0000 0000 0000 0000 0000 0000
00000050: 0000 0000 0000 0000 241b 4b39 3ede 013c
00000060: 66a6 3a3b 4d45 a33b 0000 0000 0000 0000
00000070: 0000 0000 6f32 bf32 aa21 0d39 0000 0000
00000080: 0000 0000 9840 003c 0000 0000 5b45 6f3a
00000090: 0000 0000 0000 0000 167b 583a 0000 0000
000000a0: a906 9439 1651 b23b 0000 0000 108a 6a3a
000000b0: 0000 0000 0000 0000 0000 0000 b6dd 2f3c
000000c0: a043 2c3b 0000 0000 7db3 d03a 0000 0000
000000d0: 0000 0000 0000 0000 778a 7c3a 0000 0000
000000e0: ddef 333b 0d45 f03a 70e5 223a f2ab 2939
000000f0: 0000 0000 ed9e fe37 6b57 163a d6e8 763b
00000100: ba2c 2234 0000 0000 7779 d03a 0000 0000
00000110: 9957 a83d 0000 0000 0000 0000 93cb 583c
00000120: 962d 773b 7bef e03b 4493 e839 1f12 5a3b
00000130: 0000 0000 6fe9 663b 1480 4d3c bd3b 743c
00000140: 6f4f af39 0000 0000 0000 0000 0000 0000
00000150: 0000 0000 0000 0000 0e4c 893a 1336 553b
00000160: 0236 903c bead df3c 0000 0000 0000 0000
00000170: 0000 0000 79bd 7e32 0866 d739 0000 0000
00000180: 0000 0000 9793 793d 0000 0000 cde7 a53b
00000190: 0000 0000 0000 0000 3457 113a 0000 0000
000001a0: 9d99 a73a a70f 4b3d 0000 0000 8f60 bf3a
000001b0: 0000 0000 0000 0000 0000 0000 dd05 b43d
000001c0: 9504 a73b 0000 0000 22e0 ca3b 0000 0000
000001d0: 0000 0000 0000 0000 160d 133c 0000 0000
000001e0: 33ed d33c 5139 623c 7037 4d39 ef62 a538
000001f0: 0000 0000 4c31 9237 dee0 8939 d336 873b
00000200: b4f1 4d32 0000 0000 dadc bc3a 0000 0000
00000210: 686b 9f3d 0000 0000 0000 0000 8319 353c
00000220: 42e0 c23b 2bc6 aa3b bcbb 233a 5d90 793b
00000230: 0000 0000 dfe0 833b ff1e 303c 334a 893c
00000240: a2b6 8f39 0000 0000 0000 0000 0000 0000
00000250: 0000 0000 0000 0000 da63 643a c9a2 913b
00000260: 18c4 a73c 6d8f fc3c 0000 0000 0000 0000
00000270: 0000 0000 9666 5930 010e 183a 0000 0000
00000280: 0000 0000 2ff7 853d 0000 0000 f9ba b03b
00000290: 0000 0000 0000 0000 22a9 6f3a 0000 0000
000002a0: 219d ad3a 4f4a 3f3d 0000 0000 5b8a cb3a
000002b0: 0000 0000 0000 0000 0000 0000 b76e a43d
000002c0: f82c 603b 0000 0000 d1fa a03b 0000 0000
000002d0: 0000 0000 0000 0000 0973 193c 0000 0000
000002e0: de20 da3c bc54 6f3c 616b 1f39 b85d 9b37
000002f0: 0000 0000 35fe 0936 6f61 a639 eb1b 523b
2.4358812e-07 0.0 0.000408069 0.0 0.008924692 0.0 0.0 0.0021165998
0.0013896883 0.0024018846 0.0007883197 0.0007159729 0.0 0.005881921 0.0022758967 0.0025889094
2.222721e-05 0.0 0.0 0.0 0.0 0.0 0.000193697 0.007926522
0.002848053 0.0049826265 0.0 0.0 0.0 2.2258261e-08 0.00013459349 0.0
0.0 0.0078279 0.0 0.0009127461 0.0 0.0 0.00082580873 0.0
0.00028233722 0.005441795 0.0 0.00089469645 0.0 0.0 0.0 0.010734012
0.0026285425 0.0 0.0015922632 0.0 0.0 0.0 0.000963367 0.0
0.0027456202 0.0018331126 0.00062139984 0.0001618115 0.0 3.0353165e-05 0.0005735072 0.0037675402
1.5103697e-07 0.0 0.001590534 0.0 0.08219833 0.0 0.0 0.01323213
0.003771638 0.006864486 0.0004436021 0.0033274961 0.0 0.0035234352 0.012542743 0.014906821
0.00033437784 0.0 0.0 0.0 0.0 0.0 0.0010474937 0.0032533451
0.017603878 0.027304526 0.0 0.0 0.0 1.4827827e-08 0.00041084015 0.0
0.0 0.06093177 0.0 0.005063033 0.0 0.0 0.00055443053 0.0
0.0012786869 0.049575474 0.0 0.001460092 0.0 0.0 0.0 0.08790181
0.005096982 0.0 0.0061912695 0.0 0.0 0.0 0.008975288 0.0
0.025869941 0.013807611 0.00019570976 7.886241e-05 0.0 1.7427512e-05 0.00026298215 0.0041264086
1.1987527e-08 0.0 0.0014409081 0.0 0.07784158 0.0 0.0 0.011053446
0.005947144 0.0052116117 0.0006245931 0.0038080432 0.0 0.0040246095 0.010749578 0.016759014
0.00027411157 0.0 0.0 0.0 0.0 0.0 0.0008712389 0.0044444543
0.020479247 0.03083011 0.0 0.0 0.0 7.9089923e-10 0.00058004266 0.0
0.0 0.06541287 0.0 0.0053933826 0.0 0.0 0.0009142329 0.0
0.0013245681 0.046701726 0.0 0.0015528904 0.0 0.0 0.0 0.0802893
0.003420649 0.0 0.004912712 0.0 0.0 0.0 0.009365805 0.0
0.026627 0.014607605 0.00015203423 1.8521081e-05 0.0 2.0562559e-06 0.0003173458 0.0032060097

exp_avg f4 [3]
00000000: 732f 3ebb 7cd5 b2bc 699b ca3c
-0.002901998 -0.021830313 0.024732308

exp_avg_sq f4 [3]
00000000: 984b 1f3a 7f4d 423b 63ca 233b
0.0006076633 0.0029648242 0.0024992458
